{"Layers": [{
  "Name": "/model.23/Constant_12_output_0 + (Unnamed Layer* 339) [Shuffle]",
  "LayerType": "Constant",
  "Inputs": [],
  "Outputs": [
  {
    "Name": "(Unnamed Layer* 339) [Shuffle]_output",
    "Location": "Device",
    "Dimensions": [1,1,8400],
    "Format/Datatype": "Row major linear FP16 format"
  }],
  "ParameterType": "Constant",
  "weights": {"Type": "Float", "Count": 8400},
  "dimensions": [1,1,8400],
  "TacticValue": "0x0000000000000000",
  "StreamId": 0,
  "Metadata": ""
},{
  "Name": "/model.23/Constant_10_output_0",
  "LayerType": "Constant",
  "Inputs": [],
  "Outputs": [
  {
    "Name": "(Unnamed Layer* 330) [Constant]_output",
    "Location": "Device",
    "Dimensions": [1,2,8400],
    "Format/Datatype": "Row major linear FP32"
  }],
  "ParameterType": "Constant",
  "weights": {"Type": "Float", "Count": 16800},
  "dimensions": [1,2,8400],
  "TacticValue": "0x0000000000000000",
  "StreamId": 0,
  "Metadata": ""
},{
  "Name": "/model.23/Constant_9_output_0",
  "LayerType": "Constant",
  "Inputs": [],
  "Outputs": [
  {
    "Name": "(Unnamed Layer* 328) [Constant]_output",
    "Location": "Device",
    "Dimensions": [1,2,8400],
    "Format/Datatype": "Row major linear FP32"
  }],
  "ParameterType": "Constant",
  "weights": {"Type": "Float", "Count": 16800},
  "dimensions": [1,2,8400],
  "TacticValue": "0x0000000000000000",
  "StreamId": 0,
  "Metadata": ""
},{
  "Name": "Reformatting CopyNode for Input Tensor 0 to /model.0/conv/Conv",
  "LayerType": "Reformat",
  "Inputs": [
  {
    "Name": "images",
    "Location": "Device",
    "Dimensions": [1,3,640,640],
    "Format/Datatype": "Row major linear FP32"
  }],
  "Outputs": [
  {
    "Name": "Reformatted Input Tensor 0 to /model.0/conv/Conv",
    "Location": "Device",
    "Dimensions": [1,3,640,640],
    "Format/Datatype": "Channel major FP16 format where channel % 4 == 0"
  }],
  "ParameterType": "Reformat",
  "Origin": "REFORMAT",
  "TacticValue": "0x00000000000003ea",
  "StreamId": 0,
  "Metadata": ""
},{
  "Name": "/model.0/conv/Conv",
  "LayerType": "CaskConvolution",
  "Inputs": [
  {
    "Name": "Reformatted Input Tensor 0 to /model.0/conv/Conv",
    "Location": "Device",
    "Dimensions": [1,3,640,640],
    "Format/Datatype": "Channel major FP16 format where channel % 4 == 0"
  }],
  "Outputs": [
  {
    "Name": "/model.0/conv/Conv_output_0",
    "Location": "Device",
    "Dimensions": [1,32,320,320],
    "Format/Datatype": "Channel major FP16 format where channel % 8 == 0"
  }],
  "ParameterType": "Convolution",
  "Kernel": [3,3],
  "PaddingMode": "kEXPLICIT_ROUND_DOWN",
  "PrePadding": [1,1],
  "PostPadding": [1,1],
  "Stride": [2,2],
  "Dilation": [1,1],
  "OutMaps": 32,
  "Groups": 1,
  "Weights": {"Type": "Half", "Count": 864},
  "Bias": {"Type": "Half", "Count": 32},
  "HasSparseWeights": 0,
  "HasDynamicFilter": 0,
  "HasDynamicBias": 0,
  "HasResidual": 0,
  "ConvXAsActInputIdx": -1,
  "BiasAsActInputIdx": -1,
  "ResAsActInputIdx": -1,
  "Activation": "NONE",
  "HasBias": 1,
  "HasReLU": 0,
  "TacticName": "sm80_xmma_fprop_implicit_gemm_indexed_wo_smem_f16f16_f16f16_f16_nhwckrsc_nhwc_tilesize128x32x64_stage1_warpsize4x1x1_g1_tensor16x8x16_aligna8_alignc4",
  "TacticValue": "0xa47a4e5ec2ac6617",
  "StreamId": 0,
  "Metadata": "[ONNX Layer: /model.0/conv/Conv]"
},{
  "Name": "Reformatting CopyNode for Input Tensor 0 to PWN(PWN(/model.0/act/Sigmoid), /model.0/act/Mul)",
  "LayerType": "NoOp",
  "Inputs": [
  {
    "Name": "/model.0/conv/Conv_output_0",
    "Location": "Device",
    "Dimensions": [1,32,320,320],
    "Format/Datatype": "Channel major FP16 format where channel % 8 == 0"
  }],
  "Outputs": [
  {
    "Name": "Reformatted Input Tensor 0 to PWN(PWN(/model.0/act/Sigmoid), /model.0/act/Mul)",
    "Location": "Device",
    "Dimensions": [1,32,320,320],
    "Format/Datatype": "Channel major FP16 format where channel % 2 == 0"
  }],
  "TacticValue": "0x0000000000000000",
  "StreamId": 0,
  "Metadata": ""
},{
  "Name": "PWN(PWN(/model.0/act/Sigmoid), /model.0/act/Mul)",
  "LayerType": "PointWiseV2",
  "Inputs": [
  {
    "Name": "Reformatted Input Tensor 0 to PWN(PWN(/model.0/act/Sigmoid), /model.0/act/Mul)",
    "Location": "Device",
    "Dimensions": [1,32,320,320],
    "Format/Datatype": "Channel major FP16 format where channel % 2 == 0"
  }],
  "Outputs": [
  {
    "Name": "/model.0/act/Mul_output_0",
    "Location": "Device",
    "Dimensions": [1,32,320,320],
    "Format/Datatype": "Channel major FP16 format where channel % 2 == 0"
  }],
  "ParameterType": "PointWise",
  "ParameterSubType": "PointWiseExpression",
  "NbInputArgs": 1,
  "InputArgs": ["arg0"],
  "NbOutputVars": 1,
  "OutputVars": ["var4"],
  "NbParams": 0,
  "Params": [],
  "NbLiterals": 5,
  "Literals": ["0.000000e+00f", "1.000000e+00f", "0.000000e+00f", "0.000000e+00f", "5.000000e-01f"],
  "NbOperations": 5,
  "Operations": ["auto const var0 = pwgen::iMul(literal4, arg0);", "auto const var1 = pwgen::iTanh(var0);", "auto const var2 = pwgen::iMul(var1, literal4);", "auto const var3 = pwgen::iPlus(var2, literal4);", "auto const var4 = pwgen::iMul(arg0, var3);"],
  "TacticValue": "0x0000000000000013",
  "StreamId": 0,
  "Metadata": "[ONNX Layer: /model.0/act/Sigmoid]\u001e[ONNX Layer: /model.0/act/Mul]"
},{
  "Name": "Reformatting CopyNode for Input Tensor 0 to /model.1/conv/Conv + PWN(PWN(/model.1/act/Sigmoid), /model.1/act/Mul)",
  "LayerType": "NoOp",
  "Inputs": [
  {
    "Name": "/model.0/act/Mul_output_0",
    "Location": "Device",
    "Dimensions": [1,32,320,320],
    "Format/Datatype": "Channel major FP16 format where channel % 2 == 0"
  }],
  "Outputs": [
  {
    "Name": "Reformatted Input Tensor 0 to /model.1/conv/Conv + PWN(PWN(/model.1/act/Sigmoid), /model.1/act/Mul)",
    "Location": "Device",
    "Dimensions": [1,32,320,320],
    "Format/Datatype": "Channel major FP16 format where channel % 8 == 0"
  }],
  "TacticValue": "0x0000000000000000",
  "StreamId": 0,
  "Metadata": ""
},{
  "Name": "/model.1/conv/Conv + PWN(PWN(/model.1/act/Sigmoid), /model.1/act/Mul)",
  "LayerType": "CaskConvolution",
  "Inputs": [
  {
    "Name": "Reformatted Input Tensor 0 to /model.1/conv/Conv + PWN(PWN(/model.1/act/Sigmoid), /model.1/act/Mul)",
    "Location": "Device",
    "Dimensions": [1,32,320,320],
    "Format/Datatype": "Channel major FP16 format where channel % 8 == 0"
  }],
  "Outputs": [
  {
    "Name": "/model.1/act/Mul_output_0",
    "Location": "Device",
    "Dimensions": [1,64,160,160],
    "Format/Datatype": "Channel major FP16 format where channel % 8 == 0"
  }],
  "ParameterType": "Convolution",
  "Kernel": [3,3],
  "PaddingMode": "kEXPLICIT_ROUND_DOWN",
  "PrePadding": [1,1],
  "PostPadding": [1,1],
  "Stride": [2,2],
  "Dilation": [1,1],
  "OutMaps": 64,
  "Groups": 1,
  "Weights": {"Type": "Half", "Count": 18432},
  "Bias": {"Type": "Half", "Count": 64},
  "HasSparseWeights": 0,
  "HasDynamicFilter": 0,
  "HasDynamicBias": 0,
  "HasResidual": 0,
  "ConvXAsActInputIdx": -1,
  "BiasAsActInputIdx": -1,
  "ResAsActInputIdx": -1,
  "Activation": "GENERIC",
  "ParameterSubType": "PointWiseExpression",
  "NbPointWiseExpressionInputArgs": 1,
  "PointWiseExpressionInputArgs": ["arg0"],
  "NbPointWiseExpressionOutputVars": 1,
  "PointWiseExpressionOutputVars": ["var4"],
  "NbPointWiseExpressionParams": 0,
  "PointWiseExpressionParams": [],
  "NbPointWiseExpressionLiterals": 5,
  "PointWiseExpressionLiterals": ["0.000000e+00f", "1.000000e+00f", "0.000000e+00f", "0.000000e+00f", "5.000000e-01f"],
  "NbPointWiseExpressionOperations": 5,
  "PointWiseExpressionOperations": ["auto const var0 = pwgen::iMul(literal4, arg0);", "auto const var1 = pwgen::iTanh(var0);", "auto const var2 = pwgen::iMul(var1, literal4);", "auto const var3 = pwgen::iPlus(var2, literal4);", "auto const var4 = pwgen::iMul(arg0, var3);"],
  "HasBias": 1,
  "HasReLU": 0,
  "TacticName": "sm80_xmma_fprop_implicit_gemm_f16f16_f16f16_f16_nhwckrsc_nhwc_tilesize256x64x32_stage3_warpsize4x1x1_g1_tensor16x8x16_t1r3s3_linkable",
  "TacticValue": "0xcd1874fa76e36ecf",
  "StreamId": 0,
  "Metadata": "[ONNX Layer: /model.1/conv/Conv]\u001e[ONNX Layer: /model.1/act/Sigmoid]\u001e[ONNX Layer: /model.1/act/Mul]"
},{
  "Name": "/model.2/cv1/conv/Conv + PWN(PWN(/model.2/cv1/act/Sigmoid), /model.2/cv1/act/Mul)",
  "LayerType": "CaskConvolution",
  "Inputs": [
  {
    "Name": "/model.1/act/Mul_output_0",
    "Location": "Device",
    "Dimensions": [1,64,160,160],
    "Format/Datatype": "Channel major FP16 format where channel % 8 == 0"
  }],
  "Outputs": [
  {
    "Name": "Reformatted Output Tensor 0 to /model.2/cv1/conv/Conv + PWN(PWN(/model.2/cv1/act/Sigmoid), /model.2/cv1/act/Mul)",
    "Location": "Device",
    "Dimensions": [1,64,160,160],
    "Format/Datatype": "Channel major FP16 format where channel % 8 == 0"
  }],
  "ParameterType": "Convolution",
  "Kernel": [1,1],
  "PaddingMode": "kEXPLICIT_ROUND_DOWN",
  "PrePadding": [0,0],
  "PostPadding": [0,0],
  "Stride": [1,1],
  "Dilation": [1,1],
  "OutMaps": 64,
  "Groups": 1,
  "Weights": {"Type": "Half", "Count": 4096},
  "Bias": {"Type": "Half", "Count": 64},
  "HasSparseWeights": 0,
  "HasDynamicFilter": 0,
  "HasDynamicBias": 0,
  "HasResidual": 0,
  "ConvXAsActInputIdx": -1,
  "BiasAsActInputIdx": -1,
  "ResAsActInputIdx": -1,
  "Activation": "GENERIC",
  "ParameterSubType": "PointWiseExpression",
  "NbPointWiseExpressionInputArgs": 1,
  "PointWiseExpressionInputArgs": ["arg0"],
  "NbPointWiseExpressionOutputVars": 1,
  "PointWiseExpressionOutputVars": ["var4"],
  "NbPointWiseExpressionParams": 0,
  "PointWiseExpressionParams": [],
  "NbPointWiseExpressionLiterals": 5,
  "PointWiseExpressionLiterals": ["0.000000e+00f", "1.000000e+00f", "0.000000e+00f", "0.000000e+00f", "5.000000e-01f"],
  "NbPointWiseExpressionOperations": 5,
  "PointWiseExpressionOperations": ["auto const var0 = pwgen::iMul(literal4, arg0);", "auto const var1 = pwgen::iTanh(var0);", "auto const var2 = pwgen::iMul(var1, literal4);", "auto const var3 = pwgen::iPlus(var2, literal4);", "auto const var4 = pwgen::iMul(arg0, var3);"],
  "HasBias": 1,
  "HasReLU": 0,
  "TacticName": "sm80_xmma_fprop_implicit_gemm_f16f16_f16f16_f16_nhwckrsc_nhwc_tilesize128x32x32_stage4_warpsize4x1x1_g1_tensor16x8x16_linkable",
  "TacticValue": "0x92650053128339fe",
  "StreamId": 0,
  "Metadata": "[ONNX Layer: /model.2/cv1/conv/Conv]\u001e[ONNX Layer: /model.2/cv1/act/Sigmoid]\u001e[ONNX Layer: /model.2/cv1/act/Mul]"
},{
  "Name": "Reformatting CopyNode for Output Tensor 0 to /model.2/cv1/conv/Conv + PWN(PWN(/model.2/cv1/act/Sigmoid), /model.2/cv1/act/Mul)",
  "LayerType": "NoOp",
  "Inputs": [
  {
    "Name": "Reformatted Output Tensor 0 to /model.2/cv1/conv/Conv + PWN(PWN(/model.2/cv1/act/Sigmoid), /model.2/cv1/act/Mul)",
    "Location": "Device",
    "Dimensions": [1,64,160,160],
    "Format/Datatype": "Channel major FP16 format where channel % 8 == 0"
  }],
  "Outputs": [
  {
    "Name": "/model.2/cv1/act/Mul_output_0",
    "Location": "Device",
    "Dimensions": [1,64,160,160],
    "Format/Datatype": "Channel major FP16 format where channel % 4 == 0"
  }],
  "TacticValue": "0x0000000000000000",
  "StreamId": 0,
  "Metadata": ""
},{
  "Name": "/model.2/Split_14",
  "LayerType": "Reformat",
  "Inputs": [
  {
    "Name": "/model.2/cv1/act/Mul_output_0",
    "Location": "Device",
    "Dimensions": [1,32,160,160],
    "Format/Datatype": "Channel major FP16 format where channel % 4 == 0"
  }],
  "Outputs": [
  {
    "Name": "/model.2/Split_output_1",
    "Location": "Device",
    "Dimensions": [1,32,160,160],
    "Format/Datatype": "Channel major FP16 format where channel % 4 == 0"
  }],
  "ParameterType": "Reformat",
  "Origin": "SLICE",
  "TacticValue": "0x00000000000003ea",
  "StreamId": 0,
  "Metadata": "[ONNX Layer: /model.2/Split]"
},{
  "Name": "Reformatting CopyNode for Input Tensor 0 to /model.2/m.0/cv1/conv/Conv + PWN(PWN(/model.2/m.0/cv1/act/Sigmoid), /model.2/m.0/cv1/act/Mul)",
  "LayerType": "NoOp",
  "Inputs": [
  {
    "Name": "/model.2/Split_output_1",
    "Location": "Device",
    "Dimensions": [1,32,160,160],
    "Format/Datatype": "Channel major FP16 format where channel % 4 == 0"
  }],
  "Outputs": [
  {
    "Name": "Reformatted Input Tensor 0 to /model.2/m.0/cv1/conv/Conv + PWN(PWN(/model.2/m.0/cv1/act/Sigmoid), /model.2/m.0/cv1/act/Mul)",
    "Location": "Device",
    "Dimensions": [1,32,160,160],
    "Format/Datatype": "Channel major FP16 format where channel % 8 == 0"
  }],
  "TacticValue": "0x0000000000000000",
  "StreamId": 0,
  "Metadata": ""
},{
  "Name": "/model.2/m.0/cv1/conv/Conv + PWN(PWN(/model.2/m.0/cv1/act/Sigmoid), /model.2/m.0/cv1/act/Mul)",
  "LayerType": "CaskConvolution",
  "Inputs": [
  {
    "Name": "Reformatted Input Tensor 0 to /model.2/m.0/cv1/conv/Conv + PWN(PWN(/model.2/m.0/cv1/act/Sigmoid), /model.2/m.0/cv1/act/Mul)",
    "Location": "Device",
    "Dimensions": [1,32,160,160],
    "Format/Datatype": "Channel major FP16 format where channel % 8 == 0"
  }],
  "Outputs": [
  {
    "Name": "/model.2/m.0/cv1/act/Mul_output_0",
    "Location": "Device",
    "Dimensions": [1,16,160,160],
    "Format/Datatype": "Channel major FP16 format where channel % 8 == 0"
  }],
  "ParameterType": "Convolution",
  "Kernel": [3,3],
  "PaddingMode": "kEXPLICIT_ROUND_DOWN",
  "PrePadding": [1,1],
  "PostPadding": [1,1],
  "Stride": [1,1],
  "Dilation": [1,1],
  "OutMaps": 16,
  "Groups": 1,
  "Weights": {"Type": "Half", "Count": 4608},
  "Bias": {"Type": "Half", "Count": 16},
  "HasSparseWeights": 0,
  "HasDynamicFilter": 0,
  "HasDynamicBias": 0,
  "HasResidual": 0,
  "ConvXAsActInputIdx": -1,
  "BiasAsActInputIdx": -1,
  "ResAsActInputIdx": -1,
  "Activation": "GENERIC",
  "ParameterSubType": "PointWiseExpression",
  "NbPointWiseExpressionInputArgs": 1,
  "PointWiseExpressionInputArgs": ["arg0"],
  "NbPointWiseExpressionOutputVars": 1,
  "PointWiseExpressionOutputVars": ["var4"],
  "NbPointWiseExpressionParams": 0,
  "PointWiseExpressionParams": [],
  "NbPointWiseExpressionLiterals": 5,
  "PointWiseExpressionLiterals": ["0.000000e+00f", "1.000000e+00f", "0.000000e+00f", "0.000000e+00f", "5.000000e-01f"],
  "NbPointWiseExpressionOperations": 5,
  "PointWiseExpressionOperations": ["auto const var0 = pwgen::iMul(literal4, arg0);", "auto const var1 = pwgen::iTanh(var0);", "auto const var2 = pwgen::iMul(var1, literal4);", "auto const var3 = pwgen::iPlus(var2, literal4);", "auto const var4 = pwgen::iMul(arg0, var3);"],
  "HasBias": 1,
  "HasReLU": 0,
  "TacticName": "sm80_xmma_fprop_implicit_gemm_indexed_wo_smem_f16f16_f16f16_f16_nhwckrsc_nhwc_tilesize128x16x64_stage1_warpsize4x1x1_g1_tensor16x8x16_alignc8",
  "TacticValue": "0x29d52f76d7883502",
  "StreamId": 0,
  "Metadata": "[ONNX Layer: /model.2/m.0/cv1/conv/Conv]\u001e[ONNX Layer: /model.2/m.0/cv1/act/Sigmoid]\u001e[ONNX Layer: /model.2/m.0/cv1/act/Mul]"
},{
  "Name": "Reformatting CopyNode for Input Tensor 1 to /model.2/m.0/cv2/conv/Conv + PWN(PWN(PWN(/model.2/m.0/cv2/act/Sigmoid), /model.2/m.0/cv2/act/Mul), /model.2/m.0/Add)",
  "LayerType": "NoOp",
  "Inputs": [
  {
    "Name": "/model.2/Split_output_1",
    "Location": "Device",
    "Dimensions": [1,32,160,160],
    "Format/Datatype": "Channel major FP16 format where channel % 4 == 0"
  }],
  "Outputs": [
  {
    "Name": "Reformatted Input Tensor 1 to /model.2/m.0/cv2/conv/Conv + PWN(PWN(PWN(/model.2/m.0/cv2/act/Sigmoid), /model.2/m.0/cv2/act/Mul), /model.2/m.0/Add)",
    "Location": "Device",
    "Dimensions": [1,32,160,160],
    "Format/Datatype": "Channel major FP16 format where channel % 8 == 0"
  }],
  "TacticValue": "0x0000000000000000",
  "StreamId": 0,
  "Metadata": ""
},{
  "Name": "/model.2/m.0/cv2/conv/Conv + PWN(PWN(PWN(/model.2/m.0/cv2/act/Sigmoid), /model.2/m.0/cv2/act/Mul), /model.2/m.0/Add)",
  "LayerType": "CaskJitConv",
  "Inputs": [
  {
    "Name": "/model.2/m.0/cv1/act/Mul_output_0",
    "Location": "Device",
    "Dimensions": [1,16,160,160],
    "Format/Datatype": "Channel major FP16 format where channel % 8 == 0"
  },
  {
    "Name": "Reformatted Input Tensor 1 to /model.2/m.0/cv2/conv/Conv + PWN(PWN(PWN(/model.2/m.0/cv2/act/Sigmoid), /model.2/m.0/cv2/act/Mul), /model.2/m.0/Add)",
    "Location": "Device",
    "Dimensions": [1,32,160,160],
    "Format/Datatype": "Channel major FP16 format where channel % 8 == 0"
  }],
  "Outputs": [
  {
    "Name": "/model.2/m.0/Add_output_0",
    "Location": "Device",
    "Dimensions": [1,32,160,160],
    "Format/Datatype": "Channel major FP16 format where channel % 8 == 0"
  }],
  "ParameterType": "Convolution",
  "Kernel": [3,3],
  "PaddingMode": "kEXPLICIT_ROUND_DOWN",
  "PrePadding": [1,1],
  "PostPadding": [1,1],
  "Stride": [1,1],
  "Dilation": [1,1],
  "OutMaps": 32,
  "Groups": 1,
  "Weights": {"Type": "Half", "Count": 4608},
  "Bias": {"Type": "Half", "Count": 32},
  "HasSparseWeights": 0,
  "HasDynamicFilter": 0,
  "HasDynamicBias": 0,
  "HasResidual": 0,
  "ConvXAsActInputIdx": -1,
  "BiasAsActInputIdx": -1,
  "ResAsActInputIdx": -1,
  "Activation": "GENERIC",
  "ParameterSubType": "PointWiseExpression",
  "NbPointWiseExpressionInputArgs": 2,
  "PointWiseExpressionInputArgs": ["arg0", "arg1"],
  "NbPointWiseExpressionOutputVars": 1,
  "PointWiseExpressionOutputVars": ["var5"],
  "NbPointWiseExpressionParams": 0,
  "PointWiseExpressionParams": [],
  "NbPointWiseExpressionLiterals": 5,
  "PointWiseExpressionLiterals": ["0.000000e+00f", "1.000000e+00f", "0.000000e+00f", "0.000000e+00f", "5.000000e-01f"],
  "NbPointWiseExpressionOperations": 6,
  "PointWiseExpressionOperations": ["auto const var0 = pwgen::iMul(literal4, arg0);", "auto const var1 = pwgen::iTanh(var0);", "auto const var2 = pwgen::iMul(var1, literal4);", "auto const var3 = pwgen::iPlus(var2, literal4);", "auto const var4 = pwgen::iMul(arg0, var3);", "auto const var5 = pwgen::iPlus(arg1, var4);"],
  "HasBias": 1,
  "TacticName": "sm80_xmma_fprop_implicit_gemm_f16f16_f16f16_f16_nhwckrsc_nhwc_tilesize256x32x32_stage4_warpsize4x1x1_g1_tensor16x8x16_t1r3s3",
  "TacticValue": "0xa40cb43c296a36a8",
  "StreamId": 0,
  "Metadata": "[ONNX Layer: /model.2/m.0/cv2/conv/Conv]\u001e[ONNX Layer: /model.2/m.0/cv2/act/Sigmoid]\u001e[ONNX Layer: /model.2/m.0/cv2/act/Mul]\u001e[ONNX Layer: /model.2/m.0/Add]"
},{
  "Name": "/model.2/Split_output_0 copy",
  "LayerType": "Reformat",
  "Inputs": [
  {
    "Name": "/model.2/cv1/act/Mul_output_0",
    "Location": "Device",
    "Dimensions": [1,32,160,160],
    "Format/Datatype": "Channel major FP16 format where channel % 4 == 0"
  }],
  "Outputs": [
  {
    "Name": "/model.2/Concat_output_0",
    "Location": "Device",
    "Dimensions": [1,32,160,160],
    "Format/Datatype": "Channel major FP16 format where channel % 16 == 0"
  }],
  "ParameterType": "Reformat",
  "Origin": "CONCAT",
  "TacticValue": "0x00000000000003ea",
  "StreamId": 0,
  "Metadata": "[ONNX Layer: /model.2/Concat]"
},{
  "Name": "/model.2/Split_output_1 copy",
  "LayerType": "Reformat",
  "Inputs": [
  {
    "Name": "/model.2/Split_output_1",
    "Location": "Device",
    "Dimensions": [1,32,160,160],
    "Format/Datatype": "Channel major FP16 format where channel % 4 == 0"
  }],
  "Outputs": [
  {
    "Name": "/model.2/Concat_output_0",
    "Location": "Device",
    "Dimensions": [1,32,160,160],
    "Format/Datatype": "Channel major FP16 format where channel % 16 == 0"
  }],
  "ParameterType": "Reformat",
  "Origin": "CONCAT",
  "TacticValue": "0x00000000000003ea",
  "StreamId": 0,
  "Metadata": "[ONNX Layer: /model.2/Concat]"
},{
  "Name": "/model.2/m.0/Add_output_0 copy",
  "LayerType": "Reformat",
  "Inputs": [
  {
    "Name": "/model.2/m.0/Add_output_0",
    "Location": "Device",
    "Dimensions": [1,32,160,160],
    "Format/Datatype": "Channel major FP16 format where channel % 8 == 0"
  }],
  "Outputs": [
  {
    "Name": "/model.2/Concat_output_0",
    "Location": "Device",
    "Dimensions": [1,32,160,160],
    "Format/Datatype": "Channel major FP16 format where channel % 16 == 0"
  }],
  "ParameterType": "Reformat",
  "Origin": "CONCAT",
  "TacticValue": "0x00000000000003ea",
  "StreamId": 0,
  "Metadata": "[ONNX Layer: /model.2/Concat]"
},{
  "Name": "Reformatting CopyNode for Input Tensor 0 to /model.2/cv2/conv/Conv + PWN(PWN(/model.2/cv2/act/Sigmoid), /model.2/cv2/act/Mul)",
  "LayerType": "NoOp",
  "Inputs": [
  {
    "Name": "/model.2/Concat_output_0",
    "Location": "Device",
    "Dimensions": [1,96,160,160],
    "Format/Datatype": "Channel major FP16 format where channel % 16 == 0"
  }],
  "Outputs": [
  {
    "Name": "Reformatted Input Tensor 0 to /model.2/cv2/conv/Conv + PWN(PWN(/model.2/cv2/act/Sigmoid), /model.2/cv2/act/Mul)",
    "Location": "Device",
    "Dimensions": [1,96,160,160],
    "Format/Datatype": "Channel major FP16 format where channel % 8 == 0"
  }],
  "TacticValue": "0x0000000000000000",
  "StreamId": 0,
  "Metadata": ""
},{
  "Name": "/model.2/cv2/conv/Conv + PWN(PWN(/model.2/cv2/act/Sigmoid), /model.2/cv2/act/Mul)",
  "LayerType": "CaskConvolution",
  "Inputs": [
  {
    "Name": "Reformatted Input Tensor 0 to /model.2/cv2/conv/Conv + PWN(PWN(/model.2/cv2/act/Sigmoid), /model.2/cv2/act/Mul)",
    "Location": "Device",
    "Dimensions": [1,96,160,160],
    "Format/Datatype": "Channel major FP16 format where channel % 8 == 0"
  }],
  "Outputs": [
  {
    "Name": "/model.2/cv2/act/Mul_output_0",
    "Location": "Device",
    "Dimensions": [1,128,160,160],
    "Format/Datatype": "Channel major FP16 format where channel % 8 == 0"
  }],
  "ParameterType": "Convolution",
  "Kernel": [1,1],
  "PaddingMode": "kEXPLICIT_ROUND_DOWN",
  "PrePadding": [0,0],
  "PostPadding": [0,0],
  "Stride": [1,1],
  "Dilation": [1,1],
  "OutMaps": 128,
  "Groups": 1,
  "Weights": {"Type": "Half", "Count": 12288},
  "Bias": {"Type": "Half", "Count": 128},
  "HasSparseWeights": 0,
  "HasDynamicFilter": 0,
  "HasDynamicBias": 0,
  "HasResidual": 0,
  "ConvXAsActInputIdx": -1,
  "BiasAsActInputIdx": -1,
  "ResAsActInputIdx": -1,
  "Activation": "GENERIC",
  "ParameterSubType": "PointWiseExpression",
  "NbPointWiseExpressionInputArgs": 1,
  "PointWiseExpressionInputArgs": ["arg0"],
  "NbPointWiseExpressionOutputVars": 1,
  "PointWiseExpressionOutputVars": ["var4"],
  "NbPointWiseExpressionParams": 0,
  "PointWiseExpressionParams": [],
  "NbPointWiseExpressionLiterals": 5,
  "PointWiseExpressionLiterals": ["0.000000e+00f", "1.000000e+00f", "0.000000e+00f", "0.000000e+00f", "5.000000e-01f"],
  "NbPointWiseExpressionOperations": 5,
  "PointWiseExpressionOperations": ["auto const var0 = pwgen::iMul(literal4, arg0);", "auto const var1 = pwgen::iTanh(var0);", "auto const var2 = pwgen::iMul(var1, literal4);", "auto const var3 = pwgen::iPlus(var2, literal4);", "auto const var4 = pwgen::iMul(arg0, var3);"],
  "HasBias": 1,
  "HasReLU": 0,
  "TacticName": "sm80_xmma_fprop_implicit_gemm_f16f16_f16f16_f16_nhwckrsc_nhwc_tilesize256x128x32_stage3_warpsize4x2x1_g1_tensor16x8x16_simple_t1r1s1_linkable",
  "TacticValue": "0xae9b0ac640f8c135",
  "StreamId": 0,
  "Metadata": "[ONNX Layer: /model.2/cv2/conv/Conv]\u001e[ONNX Layer: /model.2/cv2/act/Sigmoid]\u001e[ONNX Layer: /model.2/cv2/act/Mul]"
},{
  "Name": "/model.3/conv/Conv + PWN(PWN(/model.3/act/Sigmoid), /model.3/act/Mul)",
  "LayerType": "CaskConvolution",
  "Inputs": [
  {
    "Name": "/model.2/cv2/act/Mul_output_0",
    "Location": "Device",
    "Dimensions": [1,128,160,160],
    "Format/Datatype": "Channel major FP16 format where channel % 8 == 0"
  }],
  "Outputs": [
  {
    "Name": "/model.3/act/Mul_output_0",
    "Location": "Device",
    "Dimensions": [1,128,80,80],
    "Format/Datatype": "Channel major FP16 format where channel % 8 == 0"
  }],
  "ParameterType": "Convolution",
  "Kernel": [3,3],
  "PaddingMode": "kEXPLICIT_ROUND_DOWN",
  "PrePadding": [1,1],
  "PostPadding": [1,1],
  "Stride": [2,2],
  "Dilation": [1,1],
  "OutMaps": 128,
  "Groups": 1,
  "Weights": {"Type": "Half", "Count": 147456},
  "Bias": {"Type": "Half", "Count": 128},
  "HasSparseWeights": 0,
  "HasDynamicFilter": 0,
  "HasDynamicBias": 0,
  "HasResidual": 0,
  "ConvXAsActInputIdx": -1,
  "BiasAsActInputIdx": -1,
  "ResAsActInputIdx": -1,
  "Activation": "GENERIC",
  "ParameterSubType": "PointWiseExpression",
  "NbPointWiseExpressionInputArgs": 1,
  "PointWiseExpressionInputArgs": ["arg0"],
  "NbPointWiseExpressionOutputVars": 1,
  "PointWiseExpressionOutputVars": ["var4"],
  "NbPointWiseExpressionParams": 0,
  "PointWiseExpressionParams": [],
  "NbPointWiseExpressionLiterals": 5,
  "PointWiseExpressionLiterals": ["0.000000e+00f", "1.000000e+00f", "0.000000e+00f", "0.000000e+00f", "5.000000e-01f"],
  "NbPointWiseExpressionOperations": 5,
  "PointWiseExpressionOperations": ["auto const var0 = pwgen::iMul(literal4, arg0);", "auto const var1 = pwgen::iTanh(var0);", "auto const var2 = pwgen::iMul(var1, literal4);", "auto const var3 = pwgen::iPlus(var2, literal4);", "auto const var4 = pwgen::iMul(arg0, var3);"],
  "HasBias": 1,
  "HasReLU": 0,
  "TacticName": "sm80_xmma_fprop_implicit_gemm_f16f16_f16f16_f16_nhwckrsc_nhwc_tilesize256x64x32_stage3_warpsize4x1x1_g1_tensor16x8x16_linkable",
  "TacticValue": "0xad01c782980ed344",
  "StreamId": 0,
  "Metadata": "[ONNX Layer: /model.3/conv/Conv]\u001e[ONNX Layer: /model.3/act/Sigmoid]\u001e[ONNX Layer: /model.3/act/Mul]"
},{
  "Name": "/model.4/cv1/conv/Conv + PWN(PWN(/model.4/cv1/act/Sigmoid), /model.4/cv1/act/Mul)",
  "LayerType": "CaskConvolution",
  "Inputs": [
  {
    "Name": "/model.3/act/Mul_output_0",
    "Location": "Device",
    "Dimensions": [1,128,80,80],
    "Format/Datatype": "Channel major FP16 format where channel % 8 == 0"
  }],
  "Outputs": [
  {
    "Name": "Reformatted Output Tensor 0 to /model.4/cv1/conv/Conv + PWN(PWN(/model.4/cv1/act/Sigmoid), /model.4/cv1/act/Mul)",
    "Location": "Device",
    "Dimensions": [1,128,80,80],
    "Format/Datatype": "Channel major FP16 format where channel % 8 == 0"
  }],
  "ParameterType": "Convolution",
  "Kernel": [1,1],
  "PaddingMode": "kEXPLICIT_ROUND_DOWN",
  "PrePadding": [0,0],
  "PostPadding": [0,0],
  "Stride": [1,1],
  "Dilation": [1,1],
  "OutMaps": 128,
  "Groups": 1,
  "Weights": {"Type": "Half", "Count": 16384},
  "Bias": {"Type": "Half", "Count": 128},
  "HasSparseWeights": 0,
  "HasDynamicFilter": 0,
  "HasDynamicBias": 0,
  "HasResidual": 0,
  "ConvXAsActInputIdx": -1,
  "BiasAsActInputIdx": -1,
  "ResAsActInputIdx": -1,
  "Activation": "GENERIC",
  "ParameterSubType": "PointWiseExpression",
  "NbPointWiseExpressionInputArgs": 1,
  "PointWiseExpressionInputArgs": ["arg0"],
  "NbPointWiseExpressionOutputVars": 1,
  "PointWiseExpressionOutputVars": ["var4"],
  "NbPointWiseExpressionParams": 0,
  "PointWiseExpressionParams": [],
  "NbPointWiseExpressionLiterals": 5,
  "PointWiseExpressionLiterals": ["0.000000e+00f", "1.000000e+00f", "0.000000e+00f", "0.000000e+00f", "5.000000e-01f"],
  "NbPointWiseExpressionOperations": 5,
  "PointWiseExpressionOperations": ["auto const var0 = pwgen::iMul(literal4, arg0);", "auto const var1 = pwgen::iTanh(var0);", "auto const var2 = pwgen::iMul(var1, literal4);", "auto const var3 = pwgen::iPlus(var2, literal4);", "auto const var4 = pwgen::iMul(arg0, var3);"],
  "HasBias": 1,
  "HasReLU": 0,
  "TacticName": "sm80_xmma_fprop_implicit_gemm_f16f16_f16f16_f16_nhwckrsc_nhwc_tilesize128x128x32_stage4_warpsize2x2x1_g1_tensor16x8x16_t1r1s1_linkable",
  "TacticValue": "0x5692ab284b03c90b",
  "StreamId": 0,
  "Metadata": "[ONNX Layer: /model.4/cv1/conv/Conv]\u001e[ONNX Layer: /model.4/cv1/act/Sigmoid]\u001e[ONNX Layer: /model.4/cv1/act/Mul]"
},{
  "Name": "Reformatting CopyNode for Output Tensor 0 to /model.4/cv1/conv/Conv + PWN(PWN(/model.4/cv1/act/Sigmoid), /model.4/cv1/act/Mul)",
  "LayerType": "NoOp",
  "Inputs": [
  {
    "Name": "Reformatted Output Tensor 0 to /model.4/cv1/conv/Conv + PWN(PWN(/model.4/cv1/act/Sigmoid), /model.4/cv1/act/Mul)",
    "Location": "Device",
    "Dimensions": [1,128,80,80],
    "Format/Datatype": "Channel major FP16 format where channel % 8 == 0"
  }],
  "Outputs": [
  {
    "Name": "/model.4/cv1/act/Mul_output_0",
    "Location": "Device",
    "Dimensions": [1,128,80,80],
    "Format/Datatype": "Channel major FP16 format where channel % 16 == 0"
  }],
  "TacticValue": "0x0000000000000000",
  "StreamId": 0,
  "Metadata": ""
},{
  "Name": "/model.4/Split_15",
  "LayerType": "Reformat",
  "Inputs": [
  {
    "Name": "/model.4/cv1/act/Mul_output_0",
    "Location": "Device",
    "Dimensions": [1,64,80,80],
    "Format/Datatype": "Channel major FP16 format where channel % 16 == 0"
  }],
  "Outputs": [
  {
    "Name": "/model.4/Split_output_1",
    "Location": "Device",
    "Dimensions": [1,64,80,80],
    "Format/Datatype": "Channel major FP16 format where channel % 8 == 0"
  }],
  "ParameterType": "Reformat",
  "Origin": "SLICE",
  "TacticValue": "0x00000000000003ea",
  "StreamId": 0,
  "Metadata": "[ONNX Layer: /model.4/Split]"
},{
  "Name": "/model.4/m.0/cv1/conv/Conv + PWN(PWN(/model.4/m.0/cv1/act/Sigmoid), /model.4/m.0/cv1/act/Mul)",
  "LayerType": "CaskConvolution",
  "Inputs": [
  {
    "Name": "/model.4/Split_output_1",
    "Location": "Device",
    "Dimensions": [1,64,80,80],
    "Format/Datatype": "Channel major FP16 format where channel % 8 == 0"
  }],
  "Outputs": [
  {
    "Name": "/model.4/m.0/cv1/act/Mul_output_0",
    "Location": "Device",
    "Dimensions": [1,32,80,80],
    "Format/Datatype": "Channel major FP16 format where channel % 8 == 0"
  }],
  "ParameterType": "Convolution",
  "Kernel": [3,3],
  "PaddingMode": "kEXPLICIT_ROUND_DOWN",
  "PrePadding": [1,1],
  "PostPadding": [1,1],
  "Stride": [1,1],
  "Dilation": [1,1],
  "OutMaps": 32,
  "Groups": 1,
  "Weights": {"Type": "Half", "Count": 18432},
  "Bias": {"Type": "Half", "Count": 32},
  "HasSparseWeights": 0,
  "HasDynamicFilter": 0,
  "HasDynamicBias": 0,
  "HasResidual": 0,
  "ConvXAsActInputIdx": -1,
  "BiasAsActInputIdx": -1,
  "ResAsActInputIdx": -1,
  "Activation": "GENERIC",
  "ParameterSubType": "PointWiseExpression",
  "NbPointWiseExpressionInputArgs": 1,
  "PointWiseExpressionInputArgs": ["arg0"],
  "NbPointWiseExpressionOutputVars": 1,
  "PointWiseExpressionOutputVars": ["var4"],
  "NbPointWiseExpressionParams": 0,
  "PointWiseExpressionParams": [],
  "NbPointWiseExpressionLiterals": 5,
  "PointWiseExpressionLiterals": ["0.000000e+00f", "1.000000e+00f", "0.000000e+00f", "0.000000e+00f", "5.000000e-01f"],
  "NbPointWiseExpressionOperations": 5,
  "PointWiseExpressionOperations": ["auto const var0 = pwgen::iMul(literal4, arg0);", "auto const var1 = pwgen::iTanh(var0);", "auto const var2 = pwgen::iMul(var1, literal4);", "auto const var3 = pwgen::iPlus(var2, literal4);", "auto const var4 = pwgen::iMul(arg0, var3);"],
  "HasBias": 1,
  "HasReLU": 0,
  "TacticName": "sm80_xmma_fprop_implicit_gemm_f16f16_f16f16_f16_nhwckrsc_nhwc_tilesize128x32x32_stage4_warpsize4x1x1_g1_tensor16x8x16_linkable",
  "TacticValue": "0x92650053128339fe",
  "StreamId": 0,
  "Metadata": "[ONNX Layer: /model.4/m.0/cv1/conv/Conv]\u001e[ONNX Layer: /model.4/m.0/cv1/act/Sigmoid]\u001e[ONNX Layer: /model.4/m.0/cv1/act/Mul]"
},{
  "Name": "/model.4/m.0/cv2/conv/Conv + PWN(PWN(PWN(/model.4/m.0/cv2/act/Sigmoid), /model.4/m.0/cv2/act/Mul), /model.4/m.0/Add)",
  "LayerType": "CaskJitConv",
  "Inputs": [
  {
    "Name": "/model.4/m.0/cv1/act/Mul_output_0",
    "Location": "Device",
    "Dimensions": [1,32,80,80],
    "Format/Datatype": "Channel major FP16 format where channel % 8 == 0"
  },
  {
    "Name": "/model.4/Split_output_1",
    "Location": "Device",
    "Dimensions": [1,64,80,80],
    "Format/Datatype": "Channel major FP16 format where channel % 8 == 0"
  }],
  "Outputs": [
  {
    "Name": "/model.4/m.0/Add_output_0",
    "Location": "Device",
    "Dimensions": [1,64,80,80],
    "Format/Datatype": "Channel major FP16 format where channel % 8 == 0"
  }],
  "ParameterType": "Convolution",
  "Kernel": [3,3],
  "PaddingMode": "kEXPLICIT_ROUND_DOWN",
  "PrePadding": [1,1],
  "PostPadding": [1,1],
  "Stride": [1,1],
  "Dilation": [1,1],
  "OutMaps": 64,
  "Groups": 1,
  "Weights": {"Type": "Half", "Count": 18432},
  "Bias": {"Type": "Half", "Count": 64},
  "HasSparseWeights": 0,
  "HasDynamicFilter": 0,
  "HasDynamicBias": 0,
  "HasResidual": 0,
  "ConvXAsActInputIdx": -1,
  "BiasAsActInputIdx": -1,
  "ResAsActInputIdx": -1,
  "Activation": "GENERIC",
  "ParameterSubType": "PointWiseExpression",
  "NbPointWiseExpressionInputArgs": 2,
  "PointWiseExpressionInputArgs": ["arg0", "arg1"],
  "NbPointWiseExpressionOutputVars": 1,
  "PointWiseExpressionOutputVars": ["var5"],
  "NbPointWiseExpressionParams": 0,
  "PointWiseExpressionParams": [],
  "NbPointWiseExpressionLiterals": 5,
  "PointWiseExpressionLiterals": ["0.000000e+00f", "1.000000e+00f", "0.000000e+00f", "0.000000e+00f", "5.000000e-01f"],
  "NbPointWiseExpressionOperations": 6,
  "PointWiseExpressionOperations": ["auto const var0 = pwgen::iMul(literal4, arg0);", "auto const var1 = pwgen::iTanh(var0);", "auto const var2 = pwgen::iMul(var1, literal4);", "auto const var3 = pwgen::iPlus(var2, literal4);", "auto const var4 = pwgen::iMul(arg0, var3);", "auto const var5 = pwgen::iPlus(arg1, var4);"],
  "HasBias": 1,
  "TacticName": "sm80_xmma_fprop_implicit_gemm_f16f16_f16f16_f16_nhwckrsc_nhwc_tilesize128x32x32_stage4_warpsize4x1x1_g1_tensor16x8x16",
  "TacticValue": "0x834e11ecd4ab9454",
  "StreamId": 0,
  "Metadata": "[ONNX Layer: /model.4/m.0/cv2/conv/Conv]\u001e[ONNX Layer: /model.4/m.0/cv2/act/Sigmoid]\u001e[ONNX Layer: /model.4/m.0/cv2/act/Mul]\u001e[ONNX Layer: /model.4/m.0/Add]"
},{
  "Name": "/model.4/Split_output_0 copy",
  "LayerType": "Reformat",
  "Inputs": [
  {
    "Name": "/model.4/cv1/act/Mul_output_0",
    "Location": "Device",
    "Dimensions": [1,64,80,80],
    "Format/Datatype": "Channel major FP16 format where channel % 16 == 0"
  }],
  "Outputs": [
  {
    "Name": "/model.4/Concat_output_0",
    "Location": "Device",
    "Dimensions": [1,64,80,80],
    "Format/Datatype": "Channel major FP16 format where channel % 4 == 0"
  }],
  "ParameterType": "Reformat",
  "Origin": "CONCAT",
  "TacticValue": "0x0000000000000000",
  "StreamId": 0,
  "Metadata": "[ONNX Layer: /model.4/Concat]"
},{
  "Name": "/model.4/Split_output_1 copy",
  "LayerType": "Reformat",
  "Inputs": [
  {
    "Name": "/model.4/Split_output_1",
    "Location": "Device",
    "Dimensions": [1,64,80,80],
    "Format/Datatype": "Channel major FP16 format where channel % 8 == 0"
  }],
  "Outputs": [
  {
    "Name": "/model.4/Concat_output_0",
    "Location": "Device",
    "Dimensions": [1,64,80,80],
    "Format/Datatype": "Channel major FP16 format where channel % 4 == 0"
  }],
  "ParameterType": "Reformat",
  "Origin": "CONCAT",
  "TacticValue": "0x00000000000003ea",
  "StreamId": 0,
  "Metadata": "[ONNX Layer: /model.4/Concat]"
},{
  "Name": "/model.4/m.0/Add_output_0 copy",
  "LayerType": "Reformat",
  "Inputs": [
  {
    "Name": "/model.4/m.0/Add_output_0",
    "Location": "Device",
    "Dimensions": [1,64,80,80],
    "Format/Datatype": "Channel major FP16 format where channel % 8 == 0"
  }],
  "Outputs": [
  {
    "Name": "/model.4/Concat_output_0",
    "Location": "Device",
    "Dimensions": [1,64,80,80],
    "Format/Datatype": "Channel major FP16 format where channel % 4 == 0"
  }],
  "ParameterType": "Reformat",
  "Origin": "CONCAT",
  "TacticValue": "0x00000000000003ea",
  "StreamId": 0,
  "Metadata": "[ONNX Layer: /model.4/Concat]"
},{
  "Name": "Reformatting CopyNode for Input Tensor 0 to /model.4/cv2/conv/Conv + PWN(PWN(/model.4/cv2/act/Sigmoid), /model.4/cv2/act/Mul)",
  "LayerType": "NoOp",
  "Inputs": [
  {
    "Name": "/model.4/Concat_output_0",
    "Location": "Device",
    "Dimensions": [1,192,80,80],
    "Format/Datatype": "Channel major FP16 format where channel % 4 == 0"
  }],
  "Outputs": [
  {
    "Name": "Reformatted Input Tensor 0 to /model.4/cv2/conv/Conv + PWN(PWN(/model.4/cv2/act/Sigmoid), /model.4/cv2/act/Mul)",
    "Location": "Device",
    "Dimensions": [1,192,80,80],
    "Format/Datatype": "Channel major FP16 format where channel % 8 == 0"
  }],
  "TacticValue": "0x0000000000000000",
  "StreamId": 0,
  "Metadata": ""
},{
  "Name": "/model.4/cv2/conv/Conv + PWN(PWN(/model.4/cv2/act/Sigmoid), /model.4/cv2/act/Mul)",
  "LayerType": "CaskConvolution",
  "Inputs": [
  {
    "Name": "Reformatted Input Tensor 0 to /model.4/cv2/conv/Conv + PWN(PWN(/model.4/cv2/act/Sigmoid), /model.4/cv2/act/Mul)",
    "Location": "Device",
    "Dimensions": [1,192,80,80],
    "Format/Datatype": "Channel major FP16 format where channel % 8 == 0"
  }],
  "Outputs": [
  {
    "Name": "/model.15/Concat_output_0",
    "Location": "Device",
    "Dimensions": [1,256,80,80],
    "Format/Datatype": "Channel major FP16 format where channel % 8 == 0"
  }],
  "ParameterType": "Convolution",
  "Kernel": [1,1],
  "PaddingMode": "kEXPLICIT_ROUND_DOWN",
  "PrePadding": [0,0],
  "PostPadding": [0,0],
  "Stride": [1,1],
  "Dilation": [1,1],
  "OutMaps": 256,
  "Groups": 1,
  "Weights": {"Type": "Half", "Count": 49152},
  "Bias": {"Type": "Half", "Count": 256},
  "HasSparseWeights": 0,
  "HasDynamicFilter": 0,
  "HasDynamicBias": 0,
  "HasResidual": 0,
  "ConvXAsActInputIdx": -1,
  "BiasAsActInputIdx": -1,
  "ResAsActInputIdx": -1,
  "Activation": "GENERIC",
  "ParameterSubType": "PointWiseExpression",
  "NbPointWiseExpressionInputArgs": 1,
  "PointWiseExpressionInputArgs": ["arg0"],
  "NbPointWiseExpressionOutputVars": 1,
  "PointWiseExpressionOutputVars": ["var4"],
  "NbPointWiseExpressionParams": 0,
  "PointWiseExpressionParams": [],
  "NbPointWiseExpressionLiterals": 5,
  "PointWiseExpressionLiterals": ["0.000000e+00f", "1.000000e+00f", "0.000000e+00f", "0.000000e+00f", "5.000000e-01f"],
  "NbPointWiseExpressionOperations": 5,
  "PointWiseExpressionOperations": ["auto const var0 = pwgen::iMul(literal4, arg0);", "auto const var1 = pwgen::iTanh(var0);", "auto const var2 = pwgen::iMul(var1, literal4);", "auto const var3 = pwgen::iPlus(var2, literal4);", "auto const var4 = pwgen::iMul(arg0, var3);"],
  "HasBias": 1,
  "HasReLU": 0,
  "TacticName": "sm80_xmma_fprop_implicit_gemm_f16f16_f16f16_f16_nhwckrsc_nhwc_tilesize128x256x32_stage3_warpsize2x4x1_g1_tensor16x8x16_linkable",
  "TacticValue": "0x3ad5c48c521207bf",
  "StreamId": 0,
  "Metadata": "[ONNX Layer: /model.4/cv2/conv/Conv]\u001e[ONNX Layer: /model.4/cv2/act/Sigmoid]\u001e[ONNX Layer: /model.4/cv2/act/Mul]"
},{
  "Name": "/model.5/conv/Conv + PWN(PWN(/model.5/act/Sigmoid), /model.5/act/Mul)",
  "LayerType": "CaskConvolution",
  "Inputs": [
  {
    "Name": "/model.15/Concat_output_0",
    "Location": "Device",
    "Dimensions": [1,256,80,80],
    "Format/Datatype": "Channel major FP16 format where channel % 8 == 0"
  }],
  "Outputs": [
  {
    "Name": "/model.5/act/Mul_output_0",
    "Location": "Device",
    "Dimensions": [1,256,40,40],
    "Format/Datatype": "Channel major FP16 format where channel % 8 == 0"
  }],
  "ParameterType": "Convolution",
  "Kernel": [3,3],
  "PaddingMode": "kEXPLICIT_ROUND_DOWN",
  "PrePadding": [1,1],
  "PostPadding": [1,1],
  "Stride": [2,2],
  "Dilation": [1,1],
  "OutMaps": 256,
  "Groups": 1,
  "Weights": {"Type": "Half", "Count": 589824},
  "Bias": {"Type": "Half", "Count": 256},
  "HasSparseWeights": 0,
  "HasDynamicFilter": 0,
  "HasDynamicBias": 0,
  "HasResidual": 0,
  "ConvXAsActInputIdx": -1,
  "BiasAsActInputIdx": -1,
  "ResAsActInputIdx": -1,
  "Activation": "GENERIC",
  "ParameterSubType": "PointWiseExpression",
  "NbPointWiseExpressionInputArgs": 1,
  "PointWiseExpressionInputArgs": ["arg0"],
  "NbPointWiseExpressionOutputVars": 1,
  "PointWiseExpressionOutputVars": ["var4"],
  "NbPointWiseExpressionParams": 0,
  "PointWiseExpressionParams": [],
  "NbPointWiseExpressionLiterals": 5,
  "PointWiseExpressionLiterals": ["0.000000e+00f", "1.000000e+00f", "0.000000e+00f", "0.000000e+00f", "5.000000e-01f"],
  "NbPointWiseExpressionOperations": 5,
  "PointWiseExpressionOperations": ["auto const var0 = pwgen::iMul(literal4, arg0);", "auto const var1 = pwgen::iTanh(var0);", "auto const var2 = pwgen::iMul(var1, literal4);", "auto const var3 = pwgen::iPlus(var2, literal4);", "auto const var4 = pwgen::iMul(arg0, var3);"],
  "HasBias": 1,
  "HasReLU": 0,
  "TacticName": "sm80_xmma_fprop_implicit_gemm_f16f16_f16f16_f16_nhwckrsc_nhwc_tilesize64x128x32_stage5_warpsize2x2x1_g1_tensor16x8x16_t1r3s3_linkable",
  "TacticValue": "0x1171249e97d91786",
  "StreamId": 0,
  "Metadata": "[ONNX Layer: /model.5/conv/Conv]\u001e[ONNX Layer: /model.5/act/Sigmoid]\u001e[ONNX Layer: /model.5/act/Mul]"
},{
  "Name": "/model.6/cv1/conv/Conv + PWN(PWN(/model.6/cv1/act/Sigmoid), /model.6/cv1/act/Mul)",
  "LayerType": "CaskConvolution",
  "Inputs": [
  {
    "Name": "/model.5/act/Mul_output_0",
    "Location": "Device",
    "Dimensions": [1,256,40,40],
    "Format/Datatype": "Channel major FP16 format where channel % 8 == 0"
  }],
  "Outputs": [
  {
    "Name": "Reformatted Output Tensor 0 to /model.6/cv1/conv/Conv + PWN(PWN(/model.6/cv1/act/Sigmoid), /model.6/cv1/act/Mul)",
    "Location": "Device",
    "Dimensions": [1,256,40,40],
    "Format/Datatype": "Channel major FP16 format where channel % 8 == 0"
  }],
  "ParameterType": "Convolution",
  "Kernel": [1,1],
  "PaddingMode": "kEXPLICIT_ROUND_DOWN",
  "PrePadding": [0,0],
  "PostPadding": [0,0],
  "Stride": [1,1],
  "Dilation": [1,1],
  "OutMaps": 256,
  "Groups": 1,
  "Weights": {"Type": "Half", "Count": 65536},
  "Bias": {"Type": "Half", "Count": 256},
  "HasSparseWeights": 0,
  "HasDynamicFilter": 0,
  "HasDynamicBias": 0,
  "HasResidual": 0,
  "ConvXAsActInputIdx": -1,
  "BiasAsActInputIdx": -1,
  "ResAsActInputIdx": -1,
  "Activation": "GENERIC",
  "ParameterSubType": "PointWiseExpression",
  "NbPointWiseExpressionInputArgs": 1,
  "PointWiseExpressionInputArgs": ["arg0"],
  "NbPointWiseExpressionOutputVars": 1,
  "PointWiseExpressionOutputVars": ["var4"],
  "NbPointWiseExpressionParams": 0,
  "PointWiseExpressionParams": [],
  "NbPointWiseExpressionLiterals": 5,
  "PointWiseExpressionLiterals": ["0.000000e+00f", "1.000000e+00f", "0.000000e+00f", "0.000000e+00f", "5.000000e-01f"],
  "NbPointWiseExpressionOperations": 5,
  "PointWiseExpressionOperations": ["auto const var0 = pwgen::iMul(literal4, arg0);", "auto const var1 = pwgen::iTanh(var0);", "auto const var2 = pwgen::iMul(var1, literal4);", "auto const var3 = pwgen::iPlus(var2, literal4);", "auto const var4 = pwgen::iMul(arg0, var3);"],
  "HasBias": 1,
  "HasReLU": 0,
  "TacticName": "sm80_xmma_fprop_implicit_gemm_f16f16_f16f16_f16_nhwckrsc_nhwc_tilesize128x64x32_stage5_warpsize2x2x1_g1_tensor16x8x16_simple_t1r1s1_linkable",
  "TacticValue": "0x5c50cbb261fc5db4",
  "StreamId": 0,
  "Metadata": "[ONNX Layer: /model.6/cv1/conv/Conv]\u001e[ONNX Layer: /model.6/cv1/act/Sigmoid]\u001e[ONNX Layer: /model.6/cv1/act/Mul]"
},{
  "Name": "Reformatting CopyNode for Output Tensor 0 to /model.6/cv1/conv/Conv + PWN(PWN(/model.6/cv1/act/Sigmoid), /model.6/cv1/act/Mul)",
  "LayerType": "Reformat",
  "Inputs": [
  {
    "Name": "Reformatted Output Tensor 0 to /model.6/cv1/conv/Conv + PWN(PWN(/model.6/cv1/act/Sigmoid), /model.6/cv1/act/Mul)",
    "Location": "Device",
    "Dimensions": [1,256,40,40],
    "Format/Datatype": "Channel major FP16 format where channel % 8 == 0"
  }],
  "Outputs": [
  {
    "Name": "/model.6/cv1/act/Mul_output_0",
    "Location": "Device",
    "Dimensions": [1,256,40,40],
    "Format/Datatype": "Row major linear FP32"
  }],
  "ParameterType": "Reformat",
  "Origin": "REFORMAT",
  "TacticValue": "0x0000000000000000",
  "StreamId": 0,
  "Metadata": ""
},{
  "Name": "Reformatting CopyNode for Input Tensor 0 to /model.6/m.0/cv1/conv/Conv || /model.6/m.0/cv2/conv/Conv",
  "LayerType": "Reformat",
  "Inputs": [
  {
    "Name": "/model.6/cv1/act/Mul_output_0",
    "Location": "Device",
    "Dimensions": [1,128,40,40],
    "Format/Datatype": "Row major linear FP32"
  }],
  "Outputs": [
  {
    "Name": "Reformatted Input Tensor 0 to /model.6/m.0/cv1/conv/Conv || /model.6/m.0/cv2/conv/Conv",
    "Location": "Device",
    "Dimensions": [1,128,40,40],
    "Format/Datatype": "Channel major FP16 format where channel % 8 == 0"
  }],
  "ParameterType": "Reformat",
  "Origin": "REFORMAT",
  "TacticValue": "0x00000000000003ea",
  "StreamId": 0,
  "Metadata": ""
},{
  "Name": "/model.6/m.0/cv1/conv/Conv || /model.6/m.0/cv2/conv/Conv",
  "LayerType": "CaskGemmConvolution",
  "Inputs": [
  {
    "Name": "Reformatted Input Tensor 0 to /model.6/m.0/cv1/conv/Conv || /model.6/m.0/cv2/conv/Conv",
    "Location": "Device",
    "Dimensions": [1,128,40,40],
    "Format/Datatype": "Channel major FP16 format where channel % 8 == 0"
  }],
  "Outputs": [
  {
    "Name": "Reformatted Output Tensor 0 to /model.6/m.0/cv1/conv/Conv || /model.6/m.0/cv2/conv/Conv",
    "Location": "Device",
    "Dimensions": [1,128,40,40],
    "Format/Datatype": "Channel major FP16 format where channel % 8 == 0"
  }],
  "ParameterType": "Convolution",
  "Kernel": [1,1],
  "PaddingMode": "kEXPLICIT_ROUND_DOWN",
  "PrePadding": [0,0],
  "PostPadding": [0,0],
  "Stride": [1,1],
  "Dilation": [1,1],
  "OutMaps": 128,
  "Groups": 1,
  "Weights": {"Type": "Half", "Count": 16384},
  "Bias": {"Type": "Half", "Count": 128},
  "HasSparseWeights": 0,
  "HasDynamicFilter": 0,
  "HasDynamicBias": 0,
  "HasResidual": 0,
  "ConvXAsActInputIdx": -1,
  "BiasAsActInputIdx": -1,
  "ResAsActInputIdx": -1,
  "Activation": "NONE",
  "TacticName": "ampere_h16816gemm_64x64_ldg8_relu_stages_64x5_tn_v1",
  "TacticValue": "0x000000000002075d",
  "StreamId": 0,
  "Metadata": "[ONNX Layer: /model.6/m.0/cv1/conv/Conv]\u001e[ONNX Layer: /model.6/m.0/cv2/conv/Conv]"
},{
  "Name": "Reformatting CopyNode for Output Tensor 0 to /model.6/m.0/cv1/conv/Conv || /model.6/m.0/cv2/conv/Conv",
  "LayerType": "NoOp",
  "Inputs": [
  {
    "Name": "Reformatted Output Tensor 0 to /model.6/m.0/cv1/conv/Conv || /model.6/m.0/cv2/conv/Conv",
    "Location": "Device",
    "Dimensions": [1,128,40,40],
    "Format/Datatype": "Channel major FP16 format where channel % 8 == 0"
  }],
  "Outputs": [
  {
    "Name": "/model.6/m.0/cv1/conv/Conv || /model.6/m.0/cv2/conv/Conv",
    "Location": "Device",
    "Dimensions": [1,128,40,40],
    "Format/Datatype": "Channel major FP16 format where channel % 2 == 0"
  }],
  "TacticValue": "0x0000000000000000",
  "StreamId": 0,
  "Metadata": ""
},{
  "Name": "PWN(PWN(/model.6/m.0/cv1/act/Sigmoid), /model.6/m.0/cv1/act/Mul)",
  "LayerType": "PointWiseV2",
  "Inputs": [
  {
    "Name": "/model.6/m.0/cv1/conv/Conv || /model.6/m.0/cv2/conv/Conv",
    "Location": "Device",
    "Dimensions": [1,64,40,40],
    "Format/Datatype": "Channel major FP16 format where channel % 2 == 0"
  }],
  "Outputs": [
  {
    "Name": "Reformatted Output Tensor 0 to PWN(PWN(/model.6/m.0/cv1/act/Sigmoid), /model.6/m.0/cv1/act/Mul)",
    "Location": "Device",
    "Dimensions": [1,64,40,40],
    "Format/Datatype": "Channel major FP16 format where channel % 2 == 0"
  }],
  "ParameterType": "PointWise",
  "ParameterSubType": "PointWiseExpression",
  "NbInputArgs": 1,
  "InputArgs": ["arg0"],
  "NbOutputVars": 1,
  "OutputVars": ["var4"],
  "NbParams": 0,
  "Params": [],
  "NbLiterals": 5,
  "Literals": ["0.000000e+00f", "1.000000e+00f", "0.000000e+00f", "0.000000e+00f", "5.000000e-01f"],
  "NbOperations": 5,
  "Operations": ["auto const var0 = pwgen::iMul(literal4, arg0);", "auto const var1 = pwgen::iTanh(var0);", "auto const var2 = pwgen::iMul(var1, literal4);", "auto const var3 = pwgen::iPlus(var2, literal4);", "auto const var4 = pwgen::iMul(arg0, var3);"],
  "TacticValue": "0x000000000000001c",
  "StreamId": 0,
  "Metadata": "[ONNX Layer: /model.6/m.0/cv1/act/Sigmoid]\u001e[ONNX Layer: /model.6/m.0/cv1/act/Mul]"
},{
  "Name": "Reformatting CopyNode for Output Tensor 0 to PWN(PWN(/model.6/m.0/cv1/act/Sigmoid), /model.6/m.0/cv1/act/Mul)",
  "LayerType": "NoOp",
  "Inputs": [
  {
    "Name": "Reformatted Output Tensor 0 to PWN(PWN(/model.6/m.0/cv1/act/Sigmoid), /model.6/m.0/cv1/act/Mul)",
    "Location": "Device",
    "Dimensions": [1,64,40,40],
    "Format/Datatype": "Channel major FP16 format where channel % 2 == 0"
  }],
  "Outputs": [
  {
    "Name": "/model.6/m.0/cv1/act/Mul_output_0",
    "Location": "Device",
    "Dimensions": [1,64,40,40],
    "Format/Datatype": "Channel major FP16 format where channel % 8 == 0"
  }],
  "TacticValue": "0x0000000000000000",
  "StreamId": 0,
  "Metadata": ""
},{
  "Name": "/model.6/m.0/m/m.0/cv1/conv/Conv + PWN(PWN(/model.6/m.0/m/m.0/cv1/act/Sigmoid), /model.6/m.0/m/m.0/cv1/act/Mul)",
  "LayerType": "CaskConvolution",
  "Inputs": [
  {
    "Name": "/model.6/m.0/cv1/act/Mul_output_0",
    "Location": "Device",
    "Dimensions": [1,64,40,40],
    "Format/Datatype": "Channel major FP16 format where channel % 8 == 0"
  }],
  "Outputs": [
  {
    "Name": "/model.6/m.0/m/m.0/cv1/act/Mul_output_0",
    "Location": "Device",
    "Dimensions": [1,64,40,40],
    "Format/Datatype": "Channel major FP16 format where channel % 8 == 0"
  }],
  "ParameterType": "Convolution",
  "Kernel": [3,3],
  "PaddingMode": "kEXPLICIT_ROUND_DOWN",
  "PrePadding": [1,1],
  "PostPadding": [1,1],
  "Stride": [1,1],
  "Dilation": [1,1],
  "OutMaps": 64,
  "Groups": 1,
  "Weights": {"Type": "Half", "Count": 36864},
  "Bias": {"Type": "Half", "Count": 64},
  "HasSparseWeights": 0,
  "HasDynamicFilter": 0,
  "HasDynamicBias": 0,
  "HasResidual": 0,
  "ConvXAsActInputIdx": -1,
  "BiasAsActInputIdx": -1,
  "ResAsActInputIdx": -1,
  "Activation": "GENERIC",
  "ParameterSubType": "PointWiseExpression",
  "NbPointWiseExpressionInputArgs": 1,
  "PointWiseExpressionInputArgs": ["arg0"],
  "NbPointWiseExpressionOutputVars": 1,
  "PointWiseExpressionOutputVars": ["var4"],
  "NbPointWiseExpressionParams": 0,
  "PointWiseExpressionParams": [],
  "NbPointWiseExpressionLiterals": 5,
  "PointWiseExpressionLiterals": ["0.000000e+00f", "1.000000e+00f", "0.000000e+00f", "0.000000e+00f", "5.000000e-01f"],
  "NbPointWiseExpressionOperations": 5,
  "PointWiseExpressionOperations": ["auto const var0 = pwgen::iMul(literal4, arg0);", "auto const var1 = pwgen::iTanh(var0);", "auto const var2 = pwgen::iMul(var1, literal4);", "auto const var3 = pwgen::iPlus(var2, literal4);", "auto const var4 = pwgen::iMul(arg0, var3);"],
  "HasBias": 1,
  "HasReLU": 0,
  "TacticName": "sm80_xmma_fprop_implicit_gemm_f16f16_f16f16_f16_nhwckrsc_nhwc_tilesize64x64x64_stage4_warpsize2x2x1_g1_tensor16x8x16_t1r3s3_linkable",
  "TacticValue": "0x624def210fcdfaed",
  "StreamId": 0,
  "Metadata": "[ONNX Layer: /model.6/m.0/m/m.0/cv1/conv/Conv]\u001e[ONNX Layer: /model.6/m.0/m/m.0/cv1/act/Sigmoid]\u001e[ONNX Layer: /model.6/m.0/m/m.0/cv1/act/Mul]"
},{
  "Name": "/model.6/m.0/m/m.0/cv2/conv/Conv",
  "LayerType": "CaskConvolution",
  "Inputs": [
  {
    "Name": "/model.6/m.0/m/m.0/cv1/act/Mul_output_0",
    "Location": "Device",
    "Dimensions": [1,64,40,40],
    "Format/Datatype": "Channel major FP16 format where channel % 8 == 0"
  }],
  "Outputs": [
  {
    "Name": "/model.6/m.0/m/m.0/cv2/conv/Conv_output_0",
    "Location": "Device",
    "Dimensions": [1,64,40,40],
    "Format/Datatype": "Channel major FP16 format where channel % 8 == 0"
  }],
  "ParameterType": "Convolution",
  "Kernel": [3,3],
  "PaddingMode": "kEXPLICIT_ROUND_DOWN",
  "PrePadding": [1,1],
  "PostPadding": [1,1],
  "Stride": [1,1],
  "Dilation": [1,1],
  "OutMaps": 64,
  "Groups": 1,
  "Weights": {"Type": "Half", "Count": 36864},
  "Bias": {"Type": "Half", "Count": 64},
  "HasSparseWeights": 0,
  "HasDynamicFilter": 0,
  "HasDynamicBias": 0,
  "HasResidual": 0,
  "ConvXAsActInputIdx": -1,
  "BiasAsActInputIdx": -1,
  "ResAsActInputIdx": -1,
  "Activation": "NONE",
  "HasBias": 1,
  "HasReLU": 0,
  "TacticName": "sm80_xmma_fprop_implicit_gemm_f16f16_f16f16_f16_nhwckrsc_nhwc_tilesize64x32x64_stage5_warpsize2x2x1_g1_tensor16x8x16_t1r3s3",
  "TacticValue": "0xa033e20ae9f412b2",
  "StreamId": 0,
  "Metadata": "[ONNX Layer: /model.6/m.0/m/m.0/cv2/conv/Conv]"
},{
  "Name": "PWN(PWN(PWN(/model.6/m.0/m/m.0/cv2/act/Sigmoid), /model.6/m.0/m/m.0/cv2/act/Mul), /model.6/m.0/m/m.0/Add)",
  "LayerType": "PointWiseV2",
  "Inputs": [
  {
    "Name": "/model.6/m.0/m/m.0/cv2/conv/Conv_output_0",
    "Location": "Device",
    "Dimensions": [1,64,40,40],
    "Format/Datatype": "Channel major FP16 format where channel % 8 == 0"
  },
  {
    "Name": "/model.6/m.0/cv1/act/Mul_output_0",
    "Location": "Device",
    "Dimensions": [1,64,40,40],
    "Format/Datatype": "Channel major FP16 format where channel % 8 == 0"
  }],
  "Outputs": [
  {
    "Name": "/model.6/m.0/m/m.0/Add_output_0",
    "Location": "Device",
    "Dimensions": [1,64,40,40],
    "Format/Datatype": "Channel major FP16 format where channel % 8 == 0"
  }],
  "ParameterType": "PointWise",
  "ParameterSubType": "PointWiseExpression",
  "NbInputArgs": 2,
  "InputArgs": ["arg0", "arg1"],
  "NbOutputVars": 1,
  "OutputVars": ["var5"],
  "NbParams": 0,
  "Params": [],
  "NbLiterals": 5,
  "Literals": ["0.000000e+00f", "1.000000e+00f", "0.000000e+00f", "0.000000e+00f", "5.000000e-01f"],
  "NbOperations": 6,
  "Operations": ["auto const var0 = pwgen::iMul(literal4, arg0);", "auto const var1 = pwgen::iTanh(var0);", "auto const var2 = pwgen::iMul(var1, literal4);", "auto const var3 = pwgen::iPlus(var2, literal4);", "auto const var4 = pwgen::iMul(arg0, var3);", "auto const var5 = pwgen::iPlus(arg1, var4);"],
  "TacticValue": "0x000000000000001d",
  "StreamId": 0,
  "Metadata": "[ONNX Layer: /model.6/m.0/m/m.0/cv2/act/Sigmoid]\u001e[ONNX Layer: /model.6/m.0/m/m.0/cv2/act/Mul]\u001e[ONNX Layer: /model.6/m.0/m/m.0/Add]"
},{
  "Name": "/model.6/m.0/m/m.1/cv1/conv/Conv + PWN(PWN(/model.6/m.0/m/m.1/cv1/act/Sigmoid), /model.6/m.0/m/m.1/cv1/act/Mul)",
  "LayerType": "CaskConvolution",
  "Inputs": [
  {
    "Name": "/model.6/m.0/m/m.0/Add_output_0",
    "Location": "Device",
    "Dimensions": [1,64,40,40],
    "Format/Datatype": "Channel major FP16 format where channel % 8 == 0"
  }],
  "Outputs": [
  {
    "Name": "/model.6/m.0/m/m.1/cv1/act/Mul_output_0",
    "Location": "Device",
    "Dimensions": [1,64,40,40],
    "Format/Datatype": "Channel major FP16 format where channel % 8 == 0"
  }],
  "ParameterType": "Convolution",
  "Kernel": [3,3],
  "PaddingMode": "kEXPLICIT_ROUND_DOWN",
  "PrePadding": [1,1],
  "PostPadding": [1,1],
  "Stride": [1,1],
  "Dilation": [1,1],
  "OutMaps": 64,
  "Groups": 1,
  "Weights": {"Type": "Half", "Count": 36864},
  "Bias": {"Type": "Half", "Count": 64},
  "HasSparseWeights": 0,
  "HasDynamicFilter": 0,
  "HasDynamicBias": 0,
  "HasResidual": 0,
  "ConvXAsActInputIdx": -1,
  "BiasAsActInputIdx": -1,
  "ResAsActInputIdx": -1,
  "Activation": "GENERIC",
  "ParameterSubType": "PointWiseExpression",
  "NbPointWiseExpressionInputArgs": 1,
  "PointWiseExpressionInputArgs": ["arg0"],
  "NbPointWiseExpressionOutputVars": 1,
  "PointWiseExpressionOutputVars": ["var4"],
  "NbPointWiseExpressionParams": 0,
  "PointWiseExpressionParams": [],
  "NbPointWiseExpressionLiterals": 5,
  "PointWiseExpressionLiterals": ["0.000000e+00f", "1.000000e+00f", "0.000000e+00f", "0.000000e+00f", "5.000000e-01f"],
  "NbPointWiseExpressionOperations": 5,
  "PointWiseExpressionOperations": ["auto const var0 = pwgen::iMul(literal4, arg0);", "auto const var1 = pwgen::iTanh(var0);", "auto const var2 = pwgen::iMul(var1, literal4);", "auto const var3 = pwgen::iPlus(var2, literal4);", "auto const var4 = pwgen::iMul(arg0, var3);"],
  "HasBias": 1,
  "HasReLU": 0,
  "TacticName": "sm80_xmma_fprop_implicit_gemm_f16f16_f16f16_f16_nhwckrsc_nhwc_tilesize64x64x64_stage4_warpsize2x2x1_g1_tensor16x8x16_t1r3s3_linkable",
  "TacticValue": "0x624def210fcdfaed",
  "StreamId": 0,
  "Metadata": "[ONNX Layer: /model.6/m.0/m/m.1/cv1/conv/Conv]\u001e[ONNX Layer: /model.6/m.0/m/m.1/cv1/act/Sigmoid]\u001e[ONNX Layer: /model.6/m.0/m/m.1/cv1/act/Mul]"
},{
  "Name": "/model.6/m.0/m/m.1/cv2/conv/Conv",
  "LayerType": "CaskConvolution",
  "Inputs": [
  {
    "Name": "/model.6/m.0/m/m.1/cv1/act/Mul_output_0",
    "Location": "Device",
    "Dimensions": [1,64,40,40],
    "Format/Datatype": "Channel major FP16 format where channel % 8 == 0"
  }],
  "Outputs": [
  {
    "Name": "/model.6/m.0/m/m.1/cv2/conv/Conv_output_0",
    "Location": "Device",
    "Dimensions": [1,64,40,40],
    "Format/Datatype": "Channel major FP16 format where channel % 8 == 0"
  }],
  "ParameterType": "Convolution",
  "Kernel": [3,3],
  "PaddingMode": "kEXPLICIT_ROUND_DOWN",
  "PrePadding": [1,1],
  "PostPadding": [1,1],
  "Stride": [1,1],
  "Dilation": [1,1],
  "OutMaps": 64,
  "Groups": 1,
  "Weights": {"Type": "Half", "Count": 36864},
  "Bias": {"Type": "Half", "Count": 64},
  "HasSparseWeights": 0,
  "HasDynamicFilter": 0,
  "HasDynamicBias": 0,
  "HasResidual": 0,
  "ConvXAsActInputIdx": -1,
  "BiasAsActInputIdx": -1,
  "ResAsActInputIdx": -1,
  "Activation": "NONE",
  "HasBias": 1,
  "HasReLU": 0,
  "TacticName": "sm80_xmma_fprop_implicit_gemm_f16f16_f16f16_f16_nhwckrsc_nhwc_tilesize64x32x64_stage5_warpsize2x2x1_g1_tensor16x8x16_t1r3s3",
  "TacticValue": "0xa033e20ae9f412b2",
  "StreamId": 0,
  "Metadata": "[ONNX Layer: /model.6/m.0/m/m.1/cv2/conv/Conv]"
},{
  "Name": "Reformatting CopyNode for Input Tensor 0 to PWN(PWN(PWN(/model.6/m.0/m/m.1/cv2/act/Sigmoid), /model.6/m.0/m/m.1/cv2/act/Mul), /model.6/m.0/m/m.1/Add)",
  "LayerType": "NoOp",
  "Inputs": [
  {
    "Name": "/model.6/m.0/m/m.1/cv2/conv/Conv_output_0",
    "Location": "Device",
    "Dimensions": [1,64,40,40],
    "Format/Datatype": "Channel major FP16 format where channel % 8 == 0"
  }],
  "Outputs": [
  {
    "Name": "Reformatted Input Tensor 0 to PWN(PWN(PWN(/model.6/m.0/m/m.1/cv2/act/Sigmoid), /model.6/m.0/m/m.1/cv2/act/Mul), /model.6/m.0/m/m.1/Add)",
    "Location": "Device",
    "Dimensions": [1,64,40,40],
    "Format/Datatype": "Channel major FP16 format where channel % 2 == 0"
  }],
  "TacticValue": "0x0000000000000000",
  "StreamId": 0,
  "Metadata": ""
},{
  "Name": "Reformatting CopyNode for Input Tensor 1 to PWN(PWN(PWN(/model.6/m.0/m/m.1/cv2/act/Sigmoid), /model.6/m.0/m/m.1/cv2/act/Mul), /model.6/m.0/m/m.1/Add)",
  "LayerType": "NoOp",
  "Inputs": [
  {
    "Name": "/model.6/m.0/m/m.0/Add_output_0",
    "Location": "Device",
    "Dimensions": [1,64,40,40],
    "Format/Datatype": "Channel major FP16 format where channel % 8 == 0"
  }],
  "Outputs": [
  {
    "Name": "Reformatted Input Tensor 1 to PWN(PWN(PWN(/model.6/m.0/m/m.1/cv2/act/Sigmoid), /model.6/m.0/m/m.1/cv2/act/Mul), /model.6/m.0/m/m.1/Add)",
    "Location": "Device",
    "Dimensions": [1,64,40,40],
    "Format/Datatype": "Channel major FP16 format where channel % 2 == 0"
  }],
  "TacticValue": "0x0000000000000000",
  "StreamId": 0,
  "Metadata": ""
},{
  "Name": "PWN(PWN(PWN(/model.6/m.0/m/m.1/cv2/act/Sigmoid), /model.6/m.0/m/m.1/cv2/act/Mul), /model.6/m.0/m/m.1/Add)",
  "LayerType": "PointWiseV2",
  "Inputs": [
  {
    "Name": "Reformatted Input Tensor 0 to PWN(PWN(PWN(/model.6/m.0/m/m.1/cv2/act/Sigmoid), /model.6/m.0/m/m.1/cv2/act/Mul), /model.6/m.0/m/m.1/Add)",
    "Location": "Device",
    "Dimensions": [1,64,40,40],
    "Format/Datatype": "Channel major FP16 format where channel % 2 == 0"
  },
  {
    "Name": "Reformatted Input Tensor 1 to PWN(PWN(PWN(/model.6/m.0/m/m.1/cv2/act/Sigmoid), /model.6/m.0/m/m.1/cv2/act/Mul), /model.6/m.0/m/m.1/Add)",
    "Location": "Device",
    "Dimensions": [1,64,40,40],
    "Format/Datatype": "Channel major FP16 format where channel % 2 == 0"
  }],
  "Outputs": [
  {
    "Name": "/model.6/m.0/Concat_output_0",
    "Location": "Device",
    "Dimensions": [1,64,40,40],
    "Format/Datatype": "Channel major FP16 format where channel % 2 == 0"
  }],
  "ParameterType": "PointWise",
  "ParameterSubType": "PointWiseExpression",
  "NbInputArgs": 2,
  "InputArgs": ["arg0", "arg1"],
  "NbOutputVars": 1,
  "OutputVars": ["var5"],
  "NbParams": 0,
  "Params": [],
  "NbLiterals": 5,
  "Literals": ["0.000000e+00f", "1.000000e+00f", "0.000000e+00f", "0.000000e+00f", "5.000000e-01f"],
  "NbOperations": 6,
  "Operations": ["auto const var0 = pwgen::iMul(literal4, arg0);", "auto const var1 = pwgen::iTanh(var0);", "auto const var2 = pwgen::iMul(var1, literal4);", "auto const var3 = pwgen::iPlus(var2, literal4);", "auto const var4 = pwgen::iMul(arg0, var3);", "auto const var5 = pwgen::iPlus(arg1, var4);"],
  "TacticValue": "0x0000000000000000",
  "StreamId": 0,
  "Metadata": "[ONNX Layer: /model.6/m.0/m/m.1/cv2/act/Sigmoid]\u001e[ONNX Layer: /model.6/m.0/m/m.1/cv2/act/Mul]\u001e[ONNX Layer: /model.6/m.0/m/m.1/Add]"
},{
  "Name": "PWN(PWN(/model.6/m.0/cv2/act/Sigmoid), /model.6/m.0/cv2/act/Mul)",
  "LayerType": "PointWiseV2",
  "Inputs": [
  {
    "Name": "/model.6/m.0/cv1/conv/Conv || /model.6/m.0/cv2/conv/Conv",
    "Location": "Device",
    "Dimensions": [1,64,40,40],
    "Format/Datatype": "Channel major FP16 format where channel % 2 == 0"
  }],
  "Outputs": [
  {
    "Name": "/model.6/m.0/Concat_output_0",
    "Location": "Device",
    "Dimensions": [1,64,40,40],
    "Format/Datatype": "Channel major FP16 format where channel % 2 == 0"
  }],
  "ParameterType": "PointWise",
  "ParameterSubType": "PointWiseExpression",
  "NbInputArgs": 1,
  "InputArgs": ["arg0"],
  "NbOutputVars": 1,
  "OutputVars": ["var4"],
  "NbParams": 0,
  "Params": [],
  "NbLiterals": 5,
  "Literals": ["0.000000e+00f", "1.000000e+00f", "0.000000e+00f", "0.000000e+00f", "5.000000e-01f"],
  "NbOperations": 5,
  "Operations": ["auto const var0 = pwgen::iMul(literal4, arg0);", "auto const var1 = pwgen::iTanh(var0);", "auto const var2 = pwgen::iMul(var1, literal4);", "auto const var3 = pwgen::iPlus(var2, literal4);", "auto const var4 = pwgen::iMul(arg0, var3);"],
  "TacticValue": "0x0000000000000001",
  "StreamId": 0,
  "Metadata": "[ONNX Layer: /model.6/m.0/cv2/act/Sigmoid]\u001e[ONNX Layer: /model.6/m.0/cv2/act/Mul]"
},{
  "Name": "Reformatting CopyNode for Input Tensor 0 to /model.6/m.0/cv3/conv/Conv + PWN(PWN(/model.6/m.0/cv3/act/Sigmoid), /model.6/m.0/cv3/act/Mul)",
  "LayerType": "NoOp",
  "Inputs": [
  {
    "Name": "/model.6/m.0/Concat_output_0",
    "Location": "Device",
    "Dimensions": [1,128,40,40],
    "Format/Datatype": "Channel major FP16 format where channel % 2 == 0"
  }],
  "Outputs": [
  {
    "Name": "Reformatted Input Tensor 0 to /model.6/m.0/cv3/conv/Conv + PWN(PWN(/model.6/m.0/cv3/act/Sigmoid), /model.6/m.0/cv3/act/Mul)",
    "Location": "Device",
    "Dimensions": [1,128,40,40],
    "Format/Datatype": "Channel major FP16 format where channel % 8 == 0"
  }],
  "TacticValue": "0x0000000000000000",
  "StreamId": 0,
  "Metadata": ""
},{
  "Name": "/model.6/m.0/cv3/conv/Conv + PWN(PWN(/model.6/m.0/cv3/act/Sigmoid), /model.6/m.0/cv3/act/Mul)",
  "LayerType": "CaskConvolution",
  "Inputs": [
  {
    "Name": "Reformatted Input Tensor 0 to /model.6/m.0/cv3/conv/Conv + PWN(PWN(/model.6/m.0/cv3/act/Sigmoid), /model.6/m.0/cv3/act/Mul)",
    "Location": "Device",
    "Dimensions": [1,128,40,40],
    "Format/Datatype": "Channel major FP16 format where channel % 8 == 0"
  }],
  "Outputs": [
  {
    "Name": "/model.6/Concat_output_0",
    "Location": "Device",
    "Dimensions": [1,128,40,40],
    "Format/Datatype": "Channel major FP16 format where channel % 8 == 0"
  }],
  "ParameterType": "Convolution",
  "Kernel": [1,1],
  "PaddingMode": "kEXPLICIT_ROUND_DOWN",
  "PrePadding": [0,0],
  "PostPadding": [0,0],
  "Stride": [1,1],
  "Dilation": [1,1],
  "OutMaps": 128,
  "Groups": 1,
  "Weights": {"Type": "Half", "Count": 16384},
  "Bias": {"Type": "Half", "Count": 128},
  "HasSparseWeights": 0,
  "HasDynamicFilter": 0,
  "HasDynamicBias": 0,
  "HasResidual": 0,
  "ConvXAsActInputIdx": -1,
  "BiasAsActInputIdx": -1,
  "ResAsActInputIdx": -1,
  "Activation": "GENERIC",
  "ParameterSubType": "PointWiseExpression",
  "NbPointWiseExpressionInputArgs": 1,
  "PointWiseExpressionInputArgs": ["arg0"],
  "NbPointWiseExpressionOutputVars": 1,
  "PointWiseExpressionOutputVars": ["var4"],
  "NbPointWiseExpressionParams": 0,
  "PointWiseExpressionParams": [],
  "NbPointWiseExpressionLiterals": 5,
  "PointWiseExpressionLiterals": ["0.000000e+00f", "1.000000e+00f", "0.000000e+00f", "0.000000e+00f", "5.000000e-01f"],
  "NbPointWiseExpressionOperations": 5,
  "PointWiseExpressionOperations": ["auto const var0 = pwgen::iMul(literal4, arg0);", "auto const var1 = pwgen::iTanh(var0);", "auto const var2 = pwgen::iMul(var1, literal4);", "auto const var3 = pwgen::iPlus(var2, literal4);", "auto const var4 = pwgen::iMul(arg0, var3);"],
  "HasBias": 1,
  "HasReLU": 0,
  "TacticName": "sm80_xmma_fprop_implicit_gemm_f16f16_f16f16_f16_nhwckrsc_nhwc_tilesize128x32x32_stage4_warpsize4x1x1_g1_tensor16x8x16_linkable",
  "TacticValue": "0x92650053128339fe",
  "StreamId": 0,
  "Metadata": "[ONNX Layer: /model.6/m.0/cv3/conv/Conv]\u001e[ONNX Layer: /model.6/m.0/cv3/act/Sigmoid]\u001e[ONNX Layer: /model.6/m.0/cv3/act/Mul]"
},{
  "Name": "/model.6/Split_output_0 copy",
  "LayerType": "Reformat",
  "Inputs": [
  {
    "Name": "/model.6/cv1/act/Mul_output_0",
    "Location": "Device",
    "Dimensions": [1,128,40,40],
    "Format/Datatype": "Row major linear FP32"
  }],
  "Outputs": [
  {
    "Name": "/model.6/Concat_output_0",
    "Location": "Device",
    "Dimensions": [1,128,40,40],
    "Format/Datatype": "Channel major FP16 format where channel % 8 == 0"
  }],
  "ParameterType": "Reformat",
  "Origin": "CONCAT",
  "TacticValue": "0x00000000000003ea",
  "StreamId": 0,
  "Metadata": "[ONNX Layer: /model.6/Concat]"
},{
  "Name": "/model.6/Split_output_1 copy",
  "LayerType": "Reformat",
  "Inputs": [
  {
    "Name": "/model.6/cv1/act/Mul_output_0",
    "Location": "Device",
    "Dimensions": [1,128,40,40],
    "Format/Datatype": "Row major linear FP32"
  }],
  "Outputs": [
  {
    "Name": "/model.6/Concat_output_0",
    "Location": "Device",
    "Dimensions": [1,128,40,40],
    "Format/Datatype": "Channel major FP16 format where channel % 8 == 0"
  }],
  "ParameterType": "Reformat",
  "Origin": "CONCAT",
  "TacticValue": "0x00000000000003ea",
  "StreamId": 0,
  "Metadata": "[ONNX Layer: /model.6/Concat]"
},{
  "Name": "/model.6/cv2/conv/Conv + PWN(PWN(/model.6/cv2/act/Sigmoid), /model.6/cv2/act/Mul)",
  "LayerType": "CaskConvolution",
  "Inputs": [
  {
    "Name": "/model.6/Concat_output_0",
    "Location": "Device",
    "Dimensions": [1,384,40,40],
    "Format/Datatype": "Channel major FP16 format where channel % 8 == 0"
  }],
  "Outputs": [
  {
    "Name": "/model.12/Concat_output_0",
    "Location": "Device",
    "Dimensions": [1,256,40,40],
    "Format/Datatype": "Channel major FP16 format where channel % 8 == 0"
  }],
  "ParameterType": "Convolution",
  "Kernel": [1,1],
  "PaddingMode": "kEXPLICIT_ROUND_DOWN",
  "PrePadding": [0,0],
  "PostPadding": [0,0],
  "Stride": [1,1],
  "Dilation": [1,1],
  "OutMaps": 256,
  "Groups": 1,
  "Weights": {"Type": "Half", "Count": 98304},
  "Bias": {"Type": "Half", "Count": 256},
  "HasSparseWeights": 0,
  "HasDynamicFilter": 0,
  "HasDynamicBias": 0,
  "HasResidual": 0,
  "ConvXAsActInputIdx": -1,
  "BiasAsActInputIdx": -1,
  "ResAsActInputIdx": -1,
  "Activation": "GENERIC",
  "ParameterSubType": "PointWiseExpression",
  "NbPointWiseExpressionInputArgs": 1,
  "PointWiseExpressionInputArgs": ["arg0"],
  "NbPointWiseExpressionOutputVars": 1,
  "PointWiseExpressionOutputVars": ["var4"],
  "NbPointWiseExpressionParams": 0,
  "PointWiseExpressionParams": [],
  "NbPointWiseExpressionLiterals": 5,
  "PointWiseExpressionLiterals": ["0.000000e+00f", "1.000000e+00f", "0.000000e+00f", "0.000000e+00f", "5.000000e-01f"],
  "NbPointWiseExpressionOperations": 5,
  "PointWiseExpressionOperations": ["auto const var0 = pwgen::iMul(literal4, arg0);", "auto const var1 = pwgen::iTanh(var0);", "auto const var2 = pwgen::iMul(var1, literal4);", "auto const var3 = pwgen::iPlus(var2, literal4);", "auto const var4 = pwgen::iMul(arg0, var3);"],
  "HasBias": 1,
  "HasReLU": 0,
  "TacticName": "sm80_xmma_fprop_implicit_gemm_f16f16_f16f16_f16_nhwckrsc_nhwc_tilesize128x64x64_stage3_warpsize2x2x1_g1_tensor16x8x16_linkable",
  "TacticValue": "0xc1ac7831dbcadcce",
  "StreamId": 0,
  "Metadata": "[ONNX Layer: /model.6/cv2/conv/Conv]\u001e[ONNX Layer: /model.6/cv2/act/Sigmoid]\u001e[ONNX Layer: /model.6/cv2/act/Mul]"
},{
  "Name": "/model.7/conv/Conv + PWN(PWN(/model.7/act/Sigmoid), /model.7/act/Mul)",
  "LayerType": "CaskConvolution",
  "Inputs": [
  {
    "Name": "/model.12/Concat_output_0",
    "Location": "Device",
    "Dimensions": [1,256,40,40],
    "Format/Datatype": "Channel major FP16 format where channel % 8 == 0"
  }],
  "Outputs": [
  {
    "Name": "/model.7/act/Mul_output_0",
    "Location": "Device",
    "Dimensions": [1,512,20,20],
    "Format/Datatype": "Channel major FP16 format where channel % 8 == 0"
  }],
  "ParameterType": "Convolution",
  "Kernel": [3,3],
  "PaddingMode": "kEXPLICIT_ROUND_DOWN",
  "PrePadding": [1,1],
  "PostPadding": [1,1],
  "Stride": [2,2],
  "Dilation": [1,1],
  "OutMaps": 512,
  "Groups": 1,
  "Weights": {"Type": "Half", "Count": 1179648},
  "Bias": {"Type": "Half", "Count": 512},
  "HasSparseWeights": 0,
  "HasDynamicFilter": 0,
  "HasDynamicBias": 0,
  "HasResidual": 0,
  "ConvXAsActInputIdx": -1,
  "BiasAsActInputIdx": -1,
  "ResAsActInputIdx": -1,
  "Activation": "GENERIC",
  "ParameterSubType": "PointWiseExpression",
  "NbPointWiseExpressionInputArgs": 1,
  "PointWiseExpressionInputArgs": ["arg0"],
  "NbPointWiseExpressionOutputVars": 1,
  "PointWiseExpressionOutputVars": ["var4"],
  "NbPointWiseExpressionParams": 0,
  "PointWiseExpressionParams": [],
  "NbPointWiseExpressionLiterals": 5,
  "PointWiseExpressionLiterals": ["0.000000e+00f", "1.000000e+00f", "0.000000e+00f", "0.000000e+00f", "5.000000e-01f"],
  "NbPointWiseExpressionOperations": 5,
  "PointWiseExpressionOperations": ["auto const var0 = pwgen::iMul(literal4, arg0);", "auto const var1 = pwgen::iTanh(var0);", "auto const var2 = pwgen::iMul(var1, literal4);", "auto const var3 = pwgen::iPlus(var2, literal4);", "auto const var4 = pwgen::iMul(arg0, var3);"],
  "HasBias": 1,
  "HasReLU": 0,
  "TacticName": "sm80_xmma_fprop_implicit_gemm_f16f16_f16f16_f16_nhwckrsc_nhwc_tilesize64x64x64_stage4_warpsize2x2x1_g1_tensor16x8x16_t1r3s3_linkable",
  "TacticValue": "0x624def210fcdfaed",
  "StreamId": 0,
  "Metadata": "[ONNX Layer: /model.7/conv/Conv]\u001e[ONNX Layer: /model.7/act/Sigmoid]\u001e[ONNX Layer: /model.7/act/Mul]"
},{
  "Name": "/model.8/cv1/conv/Conv + PWN(PWN(/model.8/cv1/act/Sigmoid), /model.8/cv1/act/Mul)",
  "LayerType": "CaskConvolution",
  "Inputs": [
  {
    "Name": "/model.7/act/Mul_output_0",
    "Location": "Device",
    "Dimensions": [1,512,20,20],
    "Format/Datatype": "Channel major FP16 format where channel % 8 == 0"
  }],
  "Outputs": [
  {
    "Name": "/model.8/cv1/act/Mul_output_0",
    "Location": "Device",
    "Dimensions": [1,512,20,20],
    "Format/Datatype": "Channel major FP16 format where channel % 8 == 0"
  }],
  "ParameterType": "Convolution",
  "Kernel": [1,1],
  "PaddingMode": "kEXPLICIT_ROUND_DOWN",
  "PrePadding": [0,0],
  "PostPadding": [0,0],
  "Stride": [1,1],
  "Dilation": [1,1],
  "OutMaps": 512,
  "Groups": 1,
  "Weights": {"Type": "Half", "Count": 262144},
  "Bias": {"Type": "Half", "Count": 512},
  "HasSparseWeights": 0,
  "HasDynamicFilter": 0,
  "HasDynamicBias": 0,
  "HasResidual": 0,
  "ConvXAsActInputIdx": -1,
  "BiasAsActInputIdx": -1,
  "ResAsActInputIdx": -1,
  "Activation": "GENERIC",
  "ParameterSubType": "PointWiseExpression",
  "NbPointWiseExpressionInputArgs": 1,
  "PointWiseExpressionInputArgs": ["arg0"],
  "NbPointWiseExpressionOutputVars": 1,
  "PointWiseExpressionOutputVars": ["var4"],
  "NbPointWiseExpressionParams": 0,
  "PointWiseExpressionParams": [],
  "NbPointWiseExpressionLiterals": 5,
  "PointWiseExpressionLiterals": ["0.000000e+00f", "1.000000e+00f", "0.000000e+00f", "0.000000e+00f", "5.000000e-01f"],
  "NbPointWiseExpressionOperations": 5,
  "PointWiseExpressionOperations": ["auto const var0 = pwgen::iMul(literal4, arg0);", "auto const var1 = pwgen::iTanh(var0);", "auto const var2 = pwgen::iMul(var1, literal4);", "auto const var3 = pwgen::iPlus(var2, literal4);", "auto const var4 = pwgen::iMul(arg0, var3);"],
  "HasBias": 1,
  "HasReLU": 0,
  "TacticName": "sm80_xmma_fprop_implicit_gemm_f16f16_f16f16_f16_nhwckrsc_nhwc_tilesize64x64x64_stage4_warpsize2x2x1_g1_tensor16x8x16_t1r1s1_linkable",
  "TacticValue": "0x8f3fdd4c960cf6fe",
  "StreamId": 0,
  "Metadata": "[ONNX Layer: /model.8/cv1/conv/Conv]\u001e[ONNX Layer: /model.8/cv1/act/Sigmoid]\u001e[ONNX Layer: /model.8/cv1/act/Mul]"
},{
  "Name": "/model.8/m.0/cv1/conv/Conv || /model.8/m.0/cv2/conv/Conv",
  "LayerType": "CaskGemmConvolution",
  "Inputs": [
  {
    "Name": "/model.8/cv1/act/Mul_output_0",
    "Location": "Device",
    "Dimensions": [1,256,20,20],
    "Format/Datatype": "Channel major FP16 format where channel % 8 == 0"
  }],
  "Outputs": [
  {
    "Name": "Reformatted Output Tensor 0 to /model.8/m.0/cv1/conv/Conv || /model.8/m.0/cv2/conv/Conv",
    "Location": "Device",
    "Dimensions": [1,256,20,20],
    "Format/Datatype": "Channel major FP16 format where channel % 8 == 0"
  }],
  "ParameterType": "Convolution",
  "Kernel": [1,1],
  "PaddingMode": "kEXPLICIT_ROUND_DOWN",
  "PrePadding": [0,0],
  "PostPadding": [0,0],
  "Stride": [1,1],
  "Dilation": [1,1],
  "OutMaps": 256,
  "Groups": 1,
  "Weights": {"Type": "Half", "Count": 65536},
  "Bias": {"Type": "Half", "Count": 256},
  "HasSparseWeights": 0,
  "HasDynamicFilter": 0,
  "HasDynamicBias": 0,
  "HasResidual": 0,
  "ConvXAsActInputIdx": -1,
  "BiasAsActInputIdx": -1,
  "ResAsActInputIdx": -1,
  "Activation": "NONE",
  "TacticName": "sm80_xmma_gemm_f16f16_f16f16_f16_nn_n_tilesize64x32x64_stage5_warpsize2x2x1_tensor16x8x16",
  "TacticValue": "0x0000000000020633",
  "StreamId": 0,
  "Metadata": "[ONNX Layer: /model.8/m.0/cv1/conv/Conv]\u001e[ONNX Layer: /model.8/m.0/cv2/conv/Conv]"
},{
  "Name": "Reformatting CopyNode for Output Tensor 0 to /model.8/m.0/cv1/conv/Conv || /model.8/m.0/cv2/conv/Conv",
  "LayerType": "NoOp",
  "Inputs": [
  {
    "Name": "Reformatted Output Tensor 0 to /model.8/m.0/cv1/conv/Conv || /model.8/m.0/cv2/conv/Conv",
    "Location": "Device",
    "Dimensions": [1,256,20,20],
    "Format/Datatype": "Channel major FP16 format where channel % 8 == 0"
  }],
  "Outputs": [
  {
    "Name": "/model.8/m.0/cv1/conv/Conv || /model.8/m.0/cv2/conv/Conv",
    "Location": "Device",
    "Dimensions": [1,256,20,20],
    "Format/Datatype": "Channel major FP16 format where channel % 16 == 0"
  }],
  "TacticValue": "0x0000000000000000",
  "StreamId": 0,
  "Metadata": ""
},{
  "Name": "PWN(PWN(/model.8/m.0/cv1/act/Sigmoid), /model.8/m.0/cv1/act/Mul)",
  "LayerType": "PointWiseV2",
  "Inputs": [
  {
    "Name": "/model.8/m.0/cv1/conv/Conv || /model.8/m.0/cv2/conv/Conv",
    "Location": "Device",
    "Dimensions": [1,128,20,20],
    "Format/Datatype": "Channel major FP16 format where channel % 16 == 0"
  }],
  "Outputs": [
  {
    "Name": "Reformatted Output Tensor 0 to PWN(PWN(/model.8/m.0/cv1/act/Sigmoid), /model.8/m.0/cv1/act/Mul)",
    "Location": "Device",
    "Dimensions": [1,128,20,20],
    "Format/Datatype": "Channel major FP16 format where channel % 16 == 0"
  }],
  "ParameterType": "PointWise",
  "ParameterSubType": "PointWiseExpression",
  "NbInputArgs": 1,
  "InputArgs": ["arg0"],
  "NbOutputVars": 1,
  "OutputVars": ["var4"],
  "NbParams": 0,
  "Params": [],
  "NbLiterals": 5,
  "Literals": ["0.000000e+00f", "1.000000e+00f", "0.000000e+00f", "0.000000e+00f", "5.000000e-01f"],
  "NbOperations": 5,
  "Operations": ["auto const var0 = pwgen::iMul(literal4, arg0);", "auto const var1 = pwgen::iTanh(var0);", "auto const var2 = pwgen::iMul(var1, literal4);", "auto const var3 = pwgen::iPlus(var2, literal4);", "auto const var4 = pwgen::iMul(arg0, var3);"],
  "TacticValue": "0x0000000000000014",
  "StreamId": 0,
  "Metadata": "[ONNX Layer: /model.8/m.0/cv1/act/Sigmoid]\u001e[ONNX Layer: /model.8/m.0/cv1/act/Mul]"
},{
  "Name": "Reformatting CopyNode for Output Tensor 0 to PWN(PWN(/model.8/m.0/cv1/act/Sigmoid), /model.8/m.0/cv1/act/Mul)",
  "LayerType": "NoOp",
  "Inputs": [
  {
    "Name": "Reformatted Output Tensor 0 to PWN(PWN(/model.8/m.0/cv1/act/Sigmoid), /model.8/m.0/cv1/act/Mul)",
    "Location": "Device",
    "Dimensions": [1,128,20,20],
    "Format/Datatype": "Channel major FP16 format where channel % 16 == 0"
  }],
  "Outputs": [
  {
    "Name": "/model.8/m.0/cv1/act/Mul_output_0",
    "Location": "Device",
    "Dimensions": [1,128,20,20],
    "Format/Datatype": "Channel major FP16 format where channel % 8 == 0"
  }],
  "TacticValue": "0x0000000000000000",
  "StreamId": 0,
  "Metadata": ""
},{
  "Name": "/model.8/m.0/m/m.0/cv1/conv/Conv + PWN(PWN(/model.8/m.0/m/m.0/cv1/act/Sigmoid), /model.8/m.0/m/m.0/cv1/act/Mul)",
  "LayerType": "CaskConvolution",
  "Inputs": [
  {
    "Name": "/model.8/m.0/cv1/act/Mul_output_0",
    "Location": "Device",
    "Dimensions": [1,128,20,20],
    "Format/Datatype": "Channel major FP16 format where channel % 8 == 0"
  }],
  "Outputs": [
  {
    "Name": "/model.8/m.0/m/m.0/cv1/act/Mul_output_0",
    "Location": "Device",
    "Dimensions": [1,128,20,20],
    "Format/Datatype": "Channel major FP16 format where channel % 8 == 0"
  }],
  "ParameterType": "Convolution",
  "Kernel": [3,3],
  "PaddingMode": "kEXPLICIT_ROUND_DOWN",
  "PrePadding": [1,1],
  "PostPadding": [1,1],
  "Stride": [1,1],
  "Dilation": [1,1],
  "OutMaps": 128,
  "Groups": 1,
  "Weights": {"Type": "Half", "Count": 147456},
  "Bias": {"Type": "Half", "Count": 128},
  "HasSparseWeights": 0,
  "HasDynamicFilter": 0,
  "HasDynamicBias": 0,
  "HasResidual": 0,
  "ConvXAsActInputIdx": -1,
  "BiasAsActInputIdx": -1,
  "ResAsActInputIdx": -1,
  "Activation": "GENERIC",
  "ParameterSubType": "PointWiseExpression",
  "NbPointWiseExpressionInputArgs": 1,
  "PointWiseExpressionInputArgs": ["arg0"],
  "NbPointWiseExpressionOutputVars": 1,
  "PointWiseExpressionOutputVars": ["var4"],
  "NbPointWiseExpressionParams": 0,
  "PointWiseExpressionParams": [],
  "NbPointWiseExpressionLiterals": 5,
  "PointWiseExpressionLiterals": ["0.000000e+00f", "1.000000e+00f", "0.000000e+00f", "0.000000e+00f", "5.000000e-01f"],
  "NbPointWiseExpressionOperations": 5,
  "PointWiseExpressionOperations": ["auto const var0 = pwgen::iMul(literal4, arg0);", "auto const var1 = pwgen::iTanh(var0);", "auto const var2 = pwgen::iMul(var1, literal4);", "auto const var3 = pwgen::iPlus(var2, literal4);", "auto const var4 = pwgen::iMul(arg0, var3);"],
  "HasBias": 1,
  "HasReLU": 0,
  "TacticName": "sm80_xmma_fprop_implicit_gemm_f16f16_f16f16_f16_nhwckrsc_nhwc_tilesize64x32x64_stage5_warpsize2x2x1_g1_tensor16x8x16_linkable",
  "TacticValue": "0x566ebbcc3bece0aa",
  "StreamId": 0,
  "Metadata": "[ONNX Layer: /model.8/m.0/m/m.0/cv1/conv/Conv]\u001e[ONNX Layer: /model.8/m.0/m/m.0/cv1/act/Sigmoid]\u001e[ONNX Layer: /model.8/m.0/m/m.0/cv1/act/Mul]"
},{
  "Name": "/model.8/m.0/m/m.0/cv2/conv/Conv",
  "LayerType": "CaskConvolution",
  "Inputs": [
  {
    "Name": "/model.8/m.0/m/m.0/cv1/act/Mul_output_0",
    "Location": "Device",
    "Dimensions": [1,128,20,20],
    "Format/Datatype": "Channel major FP16 format where channel % 8 == 0"
  }],
  "Outputs": [
  {
    "Name": "/model.8/m.0/m/m.0/cv2/conv/Conv_output_0",
    "Location": "Device",
    "Dimensions": [1,128,20,20],
    "Format/Datatype": "Channel major FP16 format where channel % 8 == 0"
  }],
  "ParameterType": "Convolution",
  "Kernel": [3,3],
  "PaddingMode": "kEXPLICIT_ROUND_DOWN",
  "PrePadding": [1,1],
  "PostPadding": [1,1],
  "Stride": [1,1],
  "Dilation": [1,1],
  "OutMaps": 128,
  "Groups": 1,
  "Weights": {"Type": "Half", "Count": 147456},
  "Bias": {"Type": "Half", "Count": 128},
  "HasSparseWeights": 0,
  "HasDynamicFilter": 0,
  "HasDynamicBias": 0,
  "HasResidual": 0,
  "ConvXAsActInputIdx": -1,
  "BiasAsActInputIdx": -1,
  "ResAsActInputIdx": -1,
  "Activation": "NONE",
  "HasBias": 1,
  "HasReLU": 0,
  "TacticName": "sm80_xmma_fprop_implicit_gemm_f16f16_f16f16_f16_nhwckrsc_nhwc_tilesize64x32x64_stage5_warpsize2x2x1_g1_tensor16x8x16",
  "TacticValue": "0x5820b3dda403c4d0",
  "StreamId": 0,
  "Metadata": "[ONNX Layer: /model.8/m.0/m/m.0/cv2/conv/Conv]"
},{
  "Name": "PWN(PWN(PWN(/model.8/m.0/m/m.0/cv2/act/Sigmoid), /model.8/m.0/m/m.0/cv2/act/Mul), /model.8/m.0/m/m.0/Add)",
  "LayerType": "PointWiseV2",
  "Inputs": [
  {
    "Name": "/model.8/m.0/m/m.0/cv2/conv/Conv_output_0",
    "Location": "Device",
    "Dimensions": [1,128,20,20],
    "Format/Datatype": "Channel major FP16 format where channel % 8 == 0"
  },
  {
    "Name": "/model.8/m.0/cv1/act/Mul_output_0",
    "Location": "Device",
    "Dimensions": [1,128,20,20],
    "Format/Datatype": "Channel major FP16 format where channel % 8 == 0"
  }],
  "Outputs": [
  {
    "Name": "/model.8/m.0/m/m.0/Add_output_0",
    "Location": "Device",
    "Dimensions": [1,128,20,20],
    "Format/Datatype": "Channel major FP16 format where channel % 8 == 0"
  }],
  "ParameterType": "PointWise",
  "ParameterSubType": "PointWiseExpression",
  "NbInputArgs": 2,
  "InputArgs": ["arg0", "arg1"],
  "NbOutputVars": 1,
  "OutputVars": ["var5"],
  "NbParams": 0,
  "Params": [],
  "NbLiterals": 5,
  "Literals": ["0.000000e+00f", "1.000000e+00f", "0.000000e+00f", "0.000000e+00f", "5.000000e-01f"],
  "NbOperations": 6,
  "Operations": ["auto const var0 = pwgen::iMul(literal4, arg0);", "auto const var1 = pwgen::iTanh(var0);", "auto const var2 = pwgen::iMul(var1, literal4);", "auto const var3 = pwgen::iPlus(var2, literal4);", "auto const var4 = pwgen::iMul(arg0, var3);", "auto const var5 = pwgen::iPlus(arg1, var4);"],
  "TacticValue": "0x000000000000001d",
  "StreamId": 0,
  "Metadata": "[ONNX Layer: /model.8/m.0/m/m.0/cv2/act/Sigmoid]\u001e[ONNX Layer: /model.8/m.0/m/m.0/cv2/act/Mul]\u001e[ONNX Layer: /model.8/m.0/m/m.0/Add]"
},{
  "Name": "/model.8/m.0/m/m.1/cv1/conv/Conv + PWN(PWN(/model.8/m.0/m/m.1/cv1/act/Sigmoid), /model.8/m.0/m/m.1/cv1/act/Mul)",
  "LayerType": "CaskConvolution",
  "Inputs": [
  {
    "Name": "/model.8/m.0/m/m.0/Add_output_0",
    "Location": "Device",
    "Dimensions": [1,128,20,20],
    "Format/Datatype": "Channel major FP16 format where channel % 8 == 0"
  }],
  "Outputs": [
  {
    "Name": "/model.8/m.0/m/m.1/cv1/act/Mul_output_0",
    "Location": "Device",
    "Dimensions": [1,128,20,20],
    "Format/Datatype": "Channel major FP16 format where channel % 8 == 0"
  }],
  "ParameterType": "Convolution",
  "Kernel": [3,3],
  "PaddingMode": "kEXPLICIT_ROUND_DOWN",
  "PrePadding": [1,1],
  "PostPadding": [1,1],
  "Stride": [1,1],
  "Dilation": [1,1],
  "OutMaps": 128,
  "Groups": 1,
  "Weights": {"Type": "Half", "Count": 147456},
  "Bias": {"Type": "Half", "Count": 128},
  "HasSparseWeights": 0,
  "HasDynamicFilter": 0,
  "HasDynamicBias": 0,
  "HasResidual": 0,
  "ConvXAsActInputIdx": -1,
  "BiasAsActInputIdx": -1,
  "ResAsActInputIdx": -1,
  "Activation": "GENERIC",
  "ParameterSubType": "PointWiseExpression",
  "NbPointWiseExpressionInputArgs": 1,
  "PointWiseExpressionInputArgs": ["arg0"],
  "NbPointWiseExpressionOutputVars": 1,
  "PointWiseExpressionOutputVars": ["var4"],
  "NbPointWiseExpressionParams": 0,
  "PointWiseExpressionParams": [],
  "NbPointWiseExpressionLiterals": 5,
  "PointWiseExpressionLiterals": ["0.000000e+00f", "1.000000e+00f", "0.000000e+00f", "0.000000e+00f", "5.000000e-01f"],
  "NbPointWiseExpressionOperations": 5,
  "PointWiseExpressionOperations": ["auto const var0 = pwgen::iMul(literal4, arg0);", "auto const var1 = pwgen::iTanh(var0);", "auto const var2 = pwgen::iMul(var1, literal4);", "auto const var3 = pwgen::iPlus(var2, literal4);", "auto const var4 = pwgen::iMul(arg0, var3);"],
  "HasBias": 1,
  "HasReLU": 0,
  "TacticName": "sm80_xmma_fprop_implicit_gemm_f16f16_f16f16_f16_nhwckrsc_nhwc_tilesize64x32x64_stage5_warpsize2x2x1_g1_tensor16x8x16_linkable",
  "TacticValue": "0x566ebbcc3bece0aa",
  "StreamId": 0,
  "Metadata": "[ONNX Layer: /model.8/m.0/m/m.1/cv1/conv/Conv]\u001e[ONNX Layer: /model.8/m.0/m/m.1/cv1/act/Sigmoid]\u001e[ONNX Layer: /model.8/m.0/m/m.1/cv1/act/Mul]"
},{
  "Name": "/model.8/m.0/m/m.1/cv2/conv/Conv",
  "LayerType": "CaskConvolution",
  "Inputs": [
  {
    "Name": "/model.8/m.0/m/m.1/cv1/act/Mul_output_0",
    "Location": "Device",
    "Dimensions": [1,128,20,20],
    "Format/Datatype": "Channel major FP16 format where channel % 8 == 0"
  }],
  "Outputs": [
  {
    "Name": "/model.8/m.0/m/m.1/cv2/conv/Conv_output_0",
    "Location": "Device",
    "Dimensions": [1,128,20,20],
    "Format/Datatype": "Channel major FP16 format where channel % 8 == 0"
  }],
  "ParameterType": "Convolution",
  "Kernel": [3,3],
  "PaddingMode": "kEXPLICIT_ROUND_DOWN",
  "PrePadding": [1,1],
  "PostPadding": [1,1],
  "Stride": [1,1],
  "Dilation": [1,1],
  "OutMaps": 128,
  "Groups": 1,
  "Weights": {"Type": "Half", "Count": 147456},
  "Bias": {"Type": "Half", "Count": 128},
  "HasSparseWeights": 0,
  "HasDynamicFilter": 0,
  "HasDynamicBias": 0,
  "HasResidual": 0,
  "ConvXAsActInputIdx": -1,
  "BiasAsActInputIdx": -1,
  "ResAsActInputIdx": -1,
  "Activation": "NONE",
  "HasBias": 1,
  "HasReLU": 0,
  "TacticName": "sm80_xmma_fprop_implicit_gemm_f16f16_f16f16_f16_nhwckrsc_nhwc_tilesize64x32x64_stage5_warpsize2x2x1_g1_tensor16x8x16",
  "TacticValue": "0x5820b3dda403c4d0",
  "StreamId": 0,
  "Metadata": "[ONNX Layer: /model.8/m.0/m/m.1/cv2/conv/Conv]"
},{
  "Name": "Reformatting CopyNode for Input Tensor 0 to PWN(PWN(PWN(/model.8/m.0/m/m.1/cv2/act/Sigmoid), /model.8/m.0/m/m.1/cv2/act/Mul), /model.8/m.0/m/m.1/Add)",
  "LayerType": "NoOp",
  "Inputs": [
  {
    "Name": "/model.8/m.0/m/m.1/cv2/conv/Conv_output_0",
    "Location": "Device",
    "Dimensions": [1,128,20,20],
    "Format/Datatype": "Channel major FP16 format where channel % 8 == 0"
  }],
  "Outputs": [
  {
    "Name": "Reformatted Input Tensor 0 to PWN(PWN(PWN(/model.8/m.0/m/m.1/cv2/act/Sigmoid), /model.8/m.0/m/m.1/cv2/act/Mul), /model.8/m.0/m/m.1/Add)",
    "Location": "Device",
    "Dimensions": [1,128,20,20],
    "Format/Datatype": "Channel major FP16 format where channel % 16 == 0"
  }],
  "TacticValue": "0x0000000000000000",
  "StreamId": 0,
  "Metadata": ""
},{
  "Name": "Reformatting CopyNode for Input Tensor 1 to PWN(PWN(PWN(/model.8/m.0/m/m.1/cv2/act/Sigmoid), /model.8/m.0/m/m.1/cv2/act/Mul), /model.8/m.0/m/m.1/Add)",
  "LayerType": "NoOp",
  "Inputs": [
  {
    "Name": "/model.8/m.0/m/m.0/Add_output_0",
    "Location": "Device",
    "Dimensions": [1,128,20,20],
    "Format/Datatype": "Channel major FP16 format where channel % 8 == 0"
  }],
  "Outputs": [
  {
    "Name": "Reformatted Input Tensor 1 to PWN(PWN(PWN(/model.8/m.0/m/m.1/cv2/act/Sigmoid), /model.8/m.0/m/m.1/cv2/act/Mul), /model.8/m.0/m/m.1/Add)",
    "Location": "Device",
    "Dimensions": [1,128,20,20],
    "Format/Datatype": "Channel major FP16 format where channel % 16 == 0"
  }],
  "TacticValue": "0x0000000000000000",
  "StreamId": 0,
  "Metadata": ""
},{
  "Name": "PWN(PWN(PWN(/model.8/m.0/m/m.1/cv2/act/Sigmoid), /model.8/m.0/m/m.1/cv2/act/Mul), /model.8/m.0/m/m.1/Add)",
  "LayerType": "PointWiseV2",
  "Inputs": [
  {
    "Name": "Reformatted Input Tensor 0 to PWN(PWN(PWN(/model.8/m.0/m/m.1/cv2/act/Sigmoid), /model.8/m.0/m/m.1/cv2/act/Mul), /model.8/m.0/m/m.1/Add)",
    "Location": "Device",
    "Dimensions": [1,128,20,20],
    "Format/Datatype": "Channel major FP16 format where channel % 16 == 0"
  },
  {
    "Name": "Reformatted Input Tensor 1 to PWN(PWN(PWN(/model.8/m.0/m/m.1/cv2/act/Sigmoid), /model.8/m.0/m/m.1/cv2/act/Mul), /model.8/m.0/m/m.1/Add)",
    "Location": "Device",
    "Dimensions": [1,128,20,20],
    "Format/Datatype": "Channel major FP16 format where channel % 16 == 0"
  }],
  "Outputs": [
  {
    "Name": "/model.8/m.0/Concat_output_0",
    "Location": "Device",
    "Dimensions": [1,128,20,20],
    "Format/Datatype": "Channel major FP16 format where channel % 16 == 0"
  }],
  "ParameterType": "PointWise",
  "ParameterSubType": "PointWiseExpression",
  "NbInputArgs": 2,
  "InputArgs": ["arg0", "arg1"],
  "NbOutputVars": 1,
  "OutputVars": ["var5"],
  "NbParams": 0,
  "Params": [],
  "NbLiterals": 5,
  "Literals": ["0.000000e+00f", "1.000000e+00f", "0.000000e+00f", "0.000000e+00f", "5.000000e-01f"],
  "NbOperations": 6,
  "Operations": ["auto const var0 = pwgen::iMul(literal4, arg0);", "auto const var1 = pwgen::iTanh(var0);", "auto const var2 = pwgen::iMul(var1, literal4);", "auto const var3 = pwgen::iPlus(var2, literal4);", "auto const var4 = pwgen::iMul(arg0, var3);", "auto const var5 = pwgen::iPlus(arg1, var4);"],
  "TacticValue": "0x000000000000000b",
  "StreamId": 0,
  "Metadata": "[ONNX Layer: /model.8/m.0/m/m.1/cv2/act/Sigmoid]\u001e[ONNX Layer: /model.8/m.0/m/m.1/cv2/act/Mul]\u001e[ONNX Layer: /model.8/m.0/m/m.1/Add]"
},{
  "Name": "PWN(PWN(/model.8/m.0/cv2/act/Sigmoid), /model.8/m.0/cv2/act/Mul)",
  "LayerType": "PointWiseV2",
  "Inputs": [
  {
    "Name": "/model.8/m.0/cv1/conv/Conv || /model.8/m.0/cv2/conv/Conv",
    "Location": "Device",
    "Dimensions": [1,128,20,20],
    "Format/Datatype": "Channel major FP16 format where channel % 16 == 0"
  }],
  "Outputs": [
  {
    "Name": "/model.8/m.0/Concat_output_0",
    "Location": "Device",
    "Dimensions": [1,128,20,20],
    "Format/Datatype": "Channel major FP16 format where channel % 16 == 0"
  }],
  "ParameterType": "PointWise",
  "ParameterSubType": "PointWiseExpression",
  "NbInputArgs": 1,
  "InputArgs": ["arg0"],
  "NbOutputVars": 1,
  "OutputVars": ["var4"],
  "NbParams": 0,
  "Params": [],
  "NbLiterals": 5,
  "Literals": ["0.000000e+00f", "1.000000e+00f", "0.000000e+00f", "0.000000e+00f", "5.000000e-01f"],
  "NbOperations": 5,
  "Operations": ["auto const var0 = pwgen::iMul(literal4, arg0);", "auto const var1 = pwgen::iTanh(var0);", "auto const var2 = pwgen::iMul(var1, literal4);", "auto const var3 = pwgen::iPlus(var2, literal4);", "auto const var4 = pwgen::iMul(arg0, var3);"],
  "TacticValue": "0x000000000000001d",
  "StreamId": 0,
  "Metadata": "[ONNX Layer: /model.8/m.0/cv2/act/Sigmoid]\u001e[ONNX Layer: /model.8/m.0/cv2/act/Mul]"
},{
  "Name": "Reformatting CopyNode for Input Tensor 0 to /model.8/m.0/cv3/conv/Conv + PWN(PWN(/model.8/m.0/cv3/act/Sigmoid), /model.8/m.0/cv3/act/Mul)",
  "LayerType": "NoOp",
  "Inputs": [
  {
    "Name": "/model.8/m.0/Concat_output_0",
    "Location": "Device",
    "Dimensions": [1,256,20,20],
    "Format/Datatype": "Channel major FP16 format where channel % 16 == 0"
  }],
  "Outputs": [
  {
    "Name": "Reformatted Input Tensor 0 to /model.8/m.0/cv3/conv/Conv + PWN(PWN(/model.8/m.0/cv3/act/Sigmoid), /model.8/m.0/cv3/act/Mul)",
    "Location": "Device",
    "Dimensions": [1,256,20,20],
    "Format/Datatype": "Channel major FP16 format where channel % 8 == 0"
  }],
  "TacticValue": "0x0000000000000000",
  "StreamId": 0,
  "Metadata": ""
},{
  "Name": "/model.8/m.0/cv3/conv/Conv + PWN(PWN(/model.8/m.0/cv3/act/Sigmoid), /model.8/m.0/cv3/act/Mul)",
  "LayerType": "CaskConvolution",
  "Inputs": [
  {
    "Name": "Reformatted Input Tensor 0 to /model.8/m.0/cv3/conv/Conv + PWN(PWN(/model.8/m.0/cv3/act/Sigmoid), /model.8/m.0/cv3/act/Mul)",
    "Location": "Device",
    "Dimensions": [1,256,20,20],
    "Format/Datatype": "Channel major FP16 format where channel % 8 == 0"
  }],
  "Outputs": [
  {
    "Name": "/model.8/Concat_output_0",
    "Location": "Device",
    "Dimensions": [1,256,20,20],
    "Format/Datatype": "Channel major FP16 format where channel % 8 == 0"
  }],
  "ParameterType": "Convolution",
  "Kernel": [1,1],
  "PaddingMode": "kEXPLICIT_ROUND_DOWN",
  "PrePadding": [0,0],
  "PostPadding": [0,0],
  "Stride": [1,1],
  "Dilation": [1,1],
  "OutMaps": 256,
  "Groups": 1,
  "Weights": {"Type": "Half", "Count": 65536},
  "Bias": {"Type": "Half", "Count": 256},
  "HasSparseWeights": 0,
  "HasDynamicFilter": 0,
  "HasDynamicBias": 0,
  "HasResidual": 0,
  "ConvXAsActInputIdx": -1,
  "BiasAsActInputIdx": -1,
  "ResAsActInputIdx": -1,
  "Activation": "GENERIC",
  "ParameterSubType": "PointWiseExpression",
  "NbPointWiseExpressionInputArgs": 1,
  "PointWiseExpressionInputArgs": ["arg0"],
  "NbPointWiseExpressionOutputVars": 1,
  "PointWiseExpressionOutputVars": ["var4"],
  "NbPointWiseExpressionParams": 0,
  "PointWiseExpressionParams": [],
  "NbPointWiseExpressionLiterals": 5,
  "PointWiseExpressionLiterals": ["0.000000e+00f", "1.000000e+00f", "0.000000e+00f", "0.000000e+00f", "5.000000e-01f"],
  "NbPointWiseExpressionOperations": 5,
  "PointWiseExpressionOperations": ["auto const var0 = pwgen::iMul(literal4, arg0);", "auto const var1 = pwgen::iTanh(var0);", "auto const var2 = pwgen::iMul(var1, literal4);", "auto const var3 = pwgen::iPlus(var2, literal4);", "auto const var4 = pwgen::iMul(arg0, var3);"],
  "HasBias": 1,
  "HasReLU": 0,
  "TacticName": "sm80_xmma_fprop_implicit_gemm_f16f16_f16f16_f16_nhwckrsc_nhwc_tilesize64x32x64_stage5_warpsize2x2x1_g1_tensor16x8x16_t1r1s1_linkable",
  "TacticValue": "0x922672fed8fc9bc9",
  "StreamId": 0,
  "Metadata": "[ONNX Layer: /model.8/m.0/cv3/conv/Conv]\u001e[ONNX Layer: /model.8/m.0/cv3/act/Sigmoid]\u001e[ONNX Layer: /model.8/m.0/cv3/act/Mul]"
},{
  "Name": "/model.8/Split_output_0 copy",
  "LayerType": "Reformat",
  "Inputs": [
  {
    "Name": "/model.8/cv1/act/Mul_output_0",
    "Location": "Device",
    "Dimensions": [1,256,20,20],
    "Format/Datatype": "Channel major FP16 format where channel % 8 == 0"
  }],
  "Outputs": [
  {
    "Name": "/model.8/Concat_output_0",
    "Location": "Device",
    "Dimensions": [1,256,20,20],
    "Format/Datatype": "Channel major FP16 format where channel % 8 == 0"
  }],
  "ParameterType": "Reformat",
  "Origin": "CONCAT",
  "TacticValue": "0x0000000000000000",
  "StreamId": 0,
  "Metadata": "[ONNX Layer: /model.8/Concat]"
},{
  "Name": "/model.8/Split_output_1 copy",
  "LayerType": "Reformat",
  "Inputs": [
  {
    "Name": "/model.8/cv1/act/Mul_output_0",
    "Location": "Device",
    "Dimensions": [1,256,20,20],
    "Format/Datatype": "Channel major FP16 format where channel % 8 == 0"
  }],
  "Outputs": [
  {
    "Name": "/model.8/Concat_output_0",
    "Location": "Device",
    "Dimensions": [1,256,20,20],
    "Format/Datatype": "Channel major FP16 format where channel % 8 == 0"
  }],
  "ParameterType": "Reformat",
  "Origin": "CONCAT",
  "TacticValue": "0x0000000000000000",
  "StreamId": 0,
  "Metadata": "[ONNX Layer: /model.8/Concat]"
},{
  "Name": "/model.8/cv2/conv/Conv + PWN(PWN(/model.8/cv2/act/Sigmoid), /model.8/cv2/act/Mul)",
  "LayerType": "CaskConvolution",
  "Inputs": [
  {
    "Name": "/model.8/Concat_output_0",
    "Location": "Device",
    "Dimensions": [1,768,20,20],
    "Format/Datatype": "Channel major FP16 format where channel % 8 == 0"
  }],
  "Outputs": [
  {
    "Name": "/model.8/cv2/act/Mul_output_0",
    "Location": "Device",
    "Dimensions": [1,512,20,20],
    "Format/Datatype": "Channel major FP16 format where channel % 8 == 0"
  }],
  "ParameterType": "Convolution",
  "Kernel": [1,1],
  "PaddingMode": "kEXPLICIT_ROUND_DOWN",
  "PrePadding": [0,0],
  "PostPadding": [0,0],
  "Stride": [1,1],
  "Dilation": [1,1],
  "OutMaps": 512,
  "Groups": 1,
  "Weights": {"Type": "Half", "Count": 393216},
  "Bias": {"Type": "Half", "Count": 512},
  "HasSparseWeights": 0,
  "HasDynamicFilter": 0,
  "HasDynamicBias": 0,
  "HasResidual": 0,
  "ConvXAsActInputIdx": -1,
  "BiasAsActInputIdx": -1,
  "ResAsActInputIdx": -1,
  "Activation": "GENERIC",
  "ParameterSubType": "PointWiseExpression",
  "NbPointWiseExpressionInputArgs": 1,
  "PointWiseExpressionInputArgs": ["arg0"],
  "NbPointWiseExpressionOutputVars": 1,
  "PointWiseExpressionOutputVars": ["var4"],
  "NbPointWiseExpressionParams": 0,
  "PointWiseExpressionParams": [],
  "NbPointWiseExpressionLiterals": 5,
  "PointWiseExpressionLiterals": ["0.000000e+00f", "1.000000e+00f", "0.000000e+00f", "0.000000e+00f", "5.000000e-01f"],
  "NbPointWiseExpressionOperations": 5,
  "PointWiseExpressionOperations": ["auto const var0 = pwgen::iMul(literal4, arg0);", "auto const var1 = pwgen::iTanh(var0);", "auto const var2 = pwgen::iMul(var1, literal4);", "auto const var3 = pwgen::iPlus(var2, literal4);", "auto const var4 = pwgen::iMul(arg0, var3);"],
  "HasBias": 1,
  "HasReLU": 0,
  "TacticName": "sm80_xmma_fprop_implicit_gemm_f16f16_f16f16_f16_nhwckrsc_nhwc_tilesize64x64x64_stage4_warpsize2x2x1_g1_tensor16x8x16_simple_t1r1s1_linkable",
  "TacticValue": "0x7f0d5746ec359c20",
  "StreamId": 0,
  "Metadata": "[ONNX Layer: /model.8/cv2/conv/Conv]\u001e[ONNX Layer: /model.8/cv2/act/Sigmoid]\u001e[ONNX Layer: /model.8/cv2/act/Mul]"
},{
  "Name": "/model.9/cv1/conv/Conv + PWN(PWN(/model.9/cv1/act/Sigmoid), /model.9/cv1/act/Mul)",
  "LayerType": "CaskConvolution",
  "Inputs": [
  {
    "Name": "/model.8/cv2/act/Mul_output_0",
    "Location": "Device",
    "Dimensions": [1,512,20,20],
    "Format/Datatype": "Channel major FP16 format where channel % 8 == 0"
  }],
  "Outputs": [
  {
    "Name": "/model.9/cv1/act/Mul_output_0",
    "Location": "Device",
    "Dimensions": [1,256,20,20],
    "Format/Datatype": "Channel major FP16 format where channel % 8 == 0"
  }],
  "ParameterType": "Convolution",
  "Kernel": [1,1],
  "PaddingMode": "kEXPLICIT_ROUND_DOWN",
  "PrePadding": [0,0],
  "PostPadding": [0,0],
  "Stride": [1,1],
  "Dilation": [1,1],
  "OutMaps": 256,
  "Groups": 1,
  "Weights": {"Type": "Half", "Count": 131072},
  "Bias": {"Type": "Half", "Count": 256},
  "HasSparseWeights": 0,
  "HasDynamicFilter": 0,
  "HasDynamicBias": 0,
  "HasResidual": 0,
  "ConvXAsActInputIdx": -1,
  "BiasAsActInputIdx": -1,
  "ResAsActInputIdx": -1,
  "Activation": "GENERIC",
  "ParameterSubType": "PointWiseExpression",
  "NbPointWiseExpressionInputArgs": 1,
  "PointWiseExpressionInputArgs": ["arg0"],
  "NbPointWiseExpressionOutputVars": 1,
  "PointWiseExpressionOutputVars": ["var4"],
  "NbPointWiseExpressionParams": 0,
  "PointWiseExpressionParams": [],
  "NbPointWiseExpressionLiterals": 5,
  "PointWiseExpressionLiterals": ["0.000000e+00f", "1.000000e+00f", "0.000000e+00f", "0.000000e+00f", "5.000000e-01f"],
  "NbPointWiseExpressionOperations": 5,
  "PointWiseExpressionOperations": ["auto const var0 = pwgen::iMul(literal4, arg0);", "auto const var1 = pwgen::iTanh(var0);", "auto const var2 = pwgen::iMul(var1, literal4);", "auto const var3 = pwgen::iPlus(var2, literal4);", "auto const var4 = pwgen::iMul(arg0, var3);"],
  "HasBias": 1,
  "HasReLU": 0,
  "TacticName": "sm80_xmma_fprop_implicit_gemm_f16f16_f16f16_f16_nhwckrsc_nhwc_tilesize64x32x64_stage5_warpsize2x2x1_g1_tensor16x8x16_simple_t1r1s1_linkable",
  "TacticValue": "0x5484e10a83bbe5e7",
  "StreamId": 0,
  "Metadata": "[ONNX Layer: /model.9/cv1/conv/Conv]\u001e[ONNX Layer: /model.9/cv1/act/Sigmoid]\u001e[ONNX Layer: /model.9/cv1/act/Mul]"
},{
  "Name": "Reformatting CopyNode for Input Tensor 0 to /model.9/m/MaxPool",
  "LayerType": "Reformat",
  "Inputs": [
  {
    "Name": "/model.9/cv1/act/Mul_output_0",
    "Location": "Device",
    "Dimensions": [1,256,20,20],
    "Format/Datatype": "Channel major FP16 format where channel % 8 == 0"
  }],
  "Outputs": [
  {
    "Name": "Reformatted Input Tensor 0 to /model.9/m/MaxPool",
    "Location": "Device",
    "Dimensions": [1,256,20,20],
    "Format/Datatype": "Row major linear FP32"
  }],
  "ParameterType": "Reformat",
  "Origin": "REFORMAT",
  "TacticValue": "0x0000000000000000",
  "StreamId": 0,
  "Metadata": ""
},{
  "Name": "/model.9/m/MaxPool",
  "LayerType": "CaskPooling",
  "Inputs": [
  {
    "Name": "Reformatted Input Tensor 0 to /model.9/m/MaxPool",
    "Location": "Device",
    "Dimensions": [1,256,20,20],
    "Format/Datatype": "Row major linear FP32"
  }],
  "Outputs": [
  {
    "Name": "/model.9/m/MaxPool_output_0",
    "Location": "Device",
    "Dimensions": [1,256,20,20],
    "Format/Datatype": "Row major linear FP32"
  }],
  "ParameterType": "Pooling",
  "PoolingType": "MAX",
  "WindowSize": [5,5],
  "PaddingMode": "kEXPLICIT_ROUND_DOWN",
  "PrePadding": [2,2],
  "PostPadding": [2,2],
  "Stride": [1,1],
  "BlendFactor": 0,
  "AverageCountExcludesPadding": 1,
  "TacticName": "sm50_xmma_pooling_nd_NCDHW_kMAX_kGENERIC_3D_POOLING_MODE_kFLOAT_0",
  "TacticValue": "0x5faf4a0a8a5670ed",
  "StreamId": 0,
  "Metadata": "[ONNX Layer: /model.9/m/MaxPool]"
},{
  "Name": "/model.9/m_1/MaxPool",
  "LayerType": "CaskPooling",
  "Inputs": [
  {
    "Name": "/model.9/m/MaxPool_output_0",
    "Location": "Device",
    "Dimensions": [1,256,20,20],
    "Format/Datatype": "Row major linear FP32"
  }],
  "Outputs": [
  {
    "Name": "/model.9/m_1/MaxPool_output_0",
    "Location": "Device",
    "Dimensions": [1,256,20,20],
    "Format/Datatype": "Row major linear FP32"
  }],
  "ParameterType": "Pooling",
  "PoolingType": "MAX",
  "WindowSize": [5,5],
  "PaddingMode": "kEXPLICIT_ROUND_DOWN",
  "PrePadding": [2,2],
  "PostPadding": [2,2],
  "Stride": [1,1],
  "BlendFactor": 0,
  "AverageCountExcludesPadding": 1,
  "TacticName": "sm50_xmma_pooling_nd_NCDHW_kMAX_kGENERIC_3D_POOLING_MODE_kFLOAT_0",
  "TacticValue": "0x5faf4a0a8a5670ed",
  "StreamId": 0,
  "Metadata": "[ONNX Layer: /model.9/m_1/MaxPool]"
},{
  "Name": "/model.9/m_2/MaxPool",
  "LayerType": "CaskPooling",
  "Inputs": [
  {
    "Name": "/model.9/m_1/MaxPool_output_0",
    "Location": "Device",
    "Dimensions": [1,256,20,20],
    "Format/Datatype": "Row major linear FP32"
  }],
  "Outputs": [
  {
    "Name": "Reformatted Output Tensor 0 to /model.9/m_2/MaxPool",
    "Location": "Device",
    "Dimensions": [1,256,20,20],
    "Format/Datatype": "Row major linear FP32"
  }],
  "ParameterType": "Pooling",
  "PoolingType": "MAX",
  "WindowSize": [5,5],
  "PaddingMode": "kEXPLICIT_ROUND_DOWN",
  "PrePadding": [2,2],
  "PostPadding": [2,2],
  "Stride": [1,1],
  "BlendFactor": 0,
  "AverageCountExcludesPadding": 1,
  "TacticName": "sm50_xmma_pooling_nd_NCDHW_kMAX_kGENERIC_3D_POOLING_MODE_kFLOAT_0",
  "TacticValue": "0x5faf4a0a8a5670ed",
  "StreamId": 0,
  "Metadata": "[ONNX Layer: /model.9/m_2/MaxPool]"
},{
  "Name": "Reformatting CopyNode for Output Tensor 0 to /model.9/m_2/MaxPool",
  "LayerType": "Reformat",
  "Inputs": [
  {
    "Name": "Reformatted Output Tensor 0 to /model.9/m_2/MaxPool",
    "Location": "Device",
    "Dimensions": [1,256,20,20],
    "Format/Datatype": "Row major linear FP32"
  }],
  "Outputs": [
  {
    "Name": "/model.9/Concat_output_0",
    "Location": "Device",
    "Dimensions": [1,256,20,20],
    "Format/Datatype": "Channel major FP16 format where channel % 2 == 0"
  }],
  "ParameterType": "Reformat",
  "Origin": "REFORMAT",
  "TacticValue": "0x00000000000003ea",
  "StreamId": 0,
  "Metadata": ""
},{
  "Name": "/model.9/cv1/act/Mul_output_0 copy",
  "LayerType": "Reformat",
  "Inputs": [
  {
    "Name": "/model.9/cv1/act/Mul_output_0",
    "Location": "Device",
    "Dimensions": [1,256,20,20],
    "Format/Datatype": "Channel major FP16 format where channel % 8 == 0"
  }],
  "Outputs": [
  {
    "Name": "/model.9/Concat_output_0",
    "Location": "Device",
    "Dimensions": [1,256,20,20],
    "Format/Datatype": "Channel major FP16 format where channel % 2 == 0"
  }],
  "ParameterType": "Reformat",
  "Origin": "CONCAT",
  "TacticValue": "0x0000000000000000",
  "StreamId": 0,
  "Metadata": "[ONNX Layer: /model.9/Concat]"
},{
  "Name": "/model.9/m/MaxPool_output_0 copy",
  "LayerType": "Reformat",
  "Inputs": [
  {
    "Name": "/model.9/m/MaxPool_output_0",
    "Location": "Device",
    "Dimensions": [1,256,20,20],
    "Format/Datatype": "Row major linear FP32"
  }],
  "Outputs": [
  {
    "Name": "/model.9/Concat_output_0",
    "Location": "Device",
    "Dimensions": [1,256,20,20],
    "Format/Datatype": "Channel major FP16 format where channel % 2 == 0"
  }],
  "ParameterType": "Reformat",
  "Origin": "CONCAT",
  "TacticValue": "0x00000000000003ea",
  "StreamId": 0,
  "Metadata": "[ONNX Layer: /model.9/Concat]"
},{
  "Name": "/model.9/m_1/MaxPool_output_0 copy",
  "LayerType": "Reformat",
  "Inputs": [
  {
    "Name": "/model.9/m_1/MaxPool_output_0",
    "Location": "Device",
    "Dimensions": [1,256,20,20],
    "Format/Datatype": "Row major linear FP32"
  }],
  "Outputs": [
  {
    "Name": "/model.9/Concat_output_0",
    "Location": "Device",
    "Dimensions": [1,256,20,20],
    "Format/Datatype": "Channel major FP16 format where channel % 2 == 0"
  }],
  "ParameterType": "Reformat",
  "Origin": "CONCAT",
  "TacticValue": "0x00000000000003e8",
  "StreamId": 0,
  "Metadata": "[ONNX Layer: /model.9/Concat]"
},{
  "Name": "Reformatting CopyNode for Input Tensor 0 to /model.9/cv2/conv/Conv + PWN(PWN(/model.9/cv2/act/Sigmoid), /model.9/cv2/act/Mul)",
  "LayerType": "NoOp",
  "Inputs": [
  {
    "Name": "/model.9/Concat_output_0",
    "Location": "Device",
    "Dimensions": [1,1024,20,20],
    "Format/Datatype": "Channel major FP16 format where channel % 2 == 0"
  }],
  "Outputs": [
  {
    "Name": "Reformatted Input Tensor 0 to /model.9/cv2/conv/Conv + PWN(PWN(/model.9/cv2/act/Sigmoid), /model.9/cv2/act/Mul)",
    "Location": "Device",
    "Dimensions": [1,1024,20,20],
    "Format/Datatype": "Channel major FP16 format where channel % 8 == 0"
  }],
  "TacticValue": "0x0000000000000000",
  "StreamId": 0,
  "Metadata": ""
},{
  "Name": "/model.9/cv2/conv/Conv + PWN(PWN(/model.9/cv2/act/Sigmoid), /model.9/cv2/act/Mul)",
  "LayerType": "CaskConvolution",
  "Inputs": [
  {
    "Name": "Reformatted Input Tensor 0 to /model.9/cv2/conv/Conv + PWN(PWN(/model.9/cv2/act/Sigmoid), /model.9/cv2/act/Mul)",
    "Location": "Device",
    "Dimensions": [1,1024,20,20],
    "Format/Datatype": "Channel major FP16 format where channel % 8 == 0"
  }],
  "Outputs": [
  {
    "Name": "/model.9/cv2/act/Mul_output_0",
    "Location": "Device",
    "Dimensions": [1,512,20,20],
    "Format/Datatype": "Channel major FP16 format where channel % 8 == 0"
  }],
  "ParameterType": "Convolution",
  "Kernel": [1,1],
  "PaddingMode": "kEXPLICIT_ROUND_DOWN",
  "PrePadding": [0,0],
  "PostPadding": [0,0],
  "Stride": [1,1],
  "Dilation": [1,1],
  "OutMaps": 512,
  "Groups": 1,
  "Weights": {"Type": "Half", "Count": 524288},
  "Bias": {"Type": "Half", "Count": 512},
  "HasSparseWeights": 0,
  "HasDynamicFilter": 0,
  "HasDynamicBias": 0,
  "HasResidual": 0,
  "ConvXAsActInputIdx": -1,
  "BiasAsActInputIdx": -1,
  "ResAsActInputIdx": -1,
  "Activation": "GENERIC",
  "ParameterSubType": "PointWiseExpression",
  "NbPointWiseExpressionInputArgs": 1,
  "PointWiseExpressionInputArgs": ["arg0"],
  "NbPointWiseExpressionOutputVars": 1,
  "PointWiseExpressionOutputVars": ["var4"],
  "NbPointWiseExpressionParams": 0,
  "PointWiseExpressionParams": [],
  "NbPointWiseExpressionLiterals": 5,
  "PointWiseExpressionLiterals": ["0.000000e+00f", "1.000000e+00f", "0.000000e+00f", "0.000000e+00f", "5.000000e-01f"],
  "NbPointWiseExpressionOperations": 5,
  "PointWiseExpressionOperations": ["auto const var0 = pwgen::iMul(literal4, arg0);", "auto const var1 = pwgen::iTanh(var0);", "auto const var2 = pwgen::iMul(var1, literal4);", "auto const var3 = pwgen::iPlus(var2, literal4);", "auto const var4 = pwgen::iMul(arg0, var3);"],
  "HasBias": 1,
  "HasReLU": 0,
  "TacticName": "sm80_xmma_fprop_implicit_gemm_f16f16_f16f16_f16_nhwckrsc_nhwc_tilesize64x64x64_stage4_warpsize2x2x1_g1_tensor16x8x16_simple_t1r1s1_linkable",
  "TacticValue": "0x7f0d5746ec359c20",
  "StreamId": 0,
  "Metadata": "[ONNX Layer: /model.9/cv2/conv/Conv]\u001e[ONNX Layer: /model.9/cv2/act/Sigmoid]\u001e[ONNX Layer: /model.9/cv2/act/Mul]"
},{
  "Name": "/model.10/cv1/conv/Conv + PWN(PWN(/model.10/cv1/act/Sigmoid), /model.10/cv1/act/Mul)",
  "LayerType": "CaskConvolution",
  "Inputs": [
  {
    "Name": "/model.9/cv2/act/Mul_output_0",
    "Location": "Device",
    "Dimensions": [1,512,20,20],
    "Format/Datatype": "Channel major FP16 format where channel % 8 == 0"
  }],
  "Outputs": [
  {
    "Name": "/model.10/cv1/act/Mul_output_0",
    "Location": "Device",
    "Dimensions": [1,512,20,20],
    "Format/Datatype": "Channel major FP16 format where channel % 8 == 0"
  }],
  "ParameterType": "Convolution",
  "Kernel": [1,1],
  "PaddingMode": "kEXPLICIT_ROUND_DOWN",
  "PrePadding": [0,0],
  "PostPadding": [0,0],
  "Stride": [1,1],
  "Dilation": [1,1],
  "OutMaps": 512,
  "Groups": 1,
  "Weights": {"Type": "Half", "Count": 262144},
  "Bias": {"Type": "Half", "Count": 512},
  "HasSparseWeights": 0,
  "HasDynamicFilter": 0,
  "HasDynamicBias": 0,
  "HasResidual": 0,
  "ConvXAsActInputIdx": -1,
  "BiasAsActInputIdx": -1,
  "ResAsActInputIdx": -1,
  "Activation": "GENERIC",
  "ParameterSubType": "PointWiseExpression",
  "NbPointWiseExpressionInputArgs": 1,
  "PointWiseExpressionInputArgs": ["arg0"],
  "NbPointWiseExpressionOutputVars": 1,
  "PointWiseExpressionOutputVars": ["var4"],
  "NbPointWiseExpressionParams": 0,
  "PointWiseExpressionParams": [],
  "NbPointWiseExpressionLiterals": 5,
  "PointWiseExpressionLiterals": ["0.000000e+00f", "1.000000e+00f", "0.000000e+00f", "0.000000e+00f", "5.000000e-01f"],
  "NbPointWiseExpressionOperations": 5,
  "PointWiseExpressionOperations": ["auto const var0 = pwgen::iMul(literal4, arg0);", "auto const var1 = pwgen::iTanh(var0);", "auto const var2 = pwgen::iMul(var1, literal4);", "auto const var3 = pwgen::iPlus(var2, literal4);", "auto const var4 = pwgen::iMul(arg0, var3);"],
  "HasBias": 1,
  "HasReLU": 0,
  "TacticName": "sm80_xmma_fprop_implicit_gemm_f16f16_f16f16_f16_nhwckrsc_nhwc_tilesize64x64x64_stage4_warpsize2x2x1_g1_tensor16x8x16_t1r1s1_linkable",
  "TacticValue": "0x8f3fdd4c960cf6fe",
  "StreamId": 0,
  "Metadata": "[ONNX Layer: /model.10/cv1/conv/Conv]\u001e[ONNX Layer: /model.10/cv1/act/Sigmoid]\u001e[ONNX Layer: /model.10/cv1/act/Mul]"
},{
  "Name": "/model.10/Split_18",
  "LayerType": "Reformat",
  "Inputs": [
  {
    "Name": "/model.10/cv1/act/Mul_output_0",
    "Location": "Device",
    "Dimensions": [1,256,20,20],
    "Format/Datatype": "Channel major FP16 format where channel % 8 == 0"
  }],
  "Outputs": [
  {
    "Name": "/model.10/Split_output_1",
    "Location": "Device",
    "Dimensions": [1,256,20,20],
    "Format/Datatype": "Row major linear FP32"
  }],
  "ParameterType": "Reformat",
  "Origin": "SLICE",
  "TacticValue": "0x00000000000003ea",
  "StreamId": 0,
  "Metadata": "[ONNX Layer: /model.10/Split]"
},{
  "Name": "/model.10/m/m.0/attn/qkv/conv/Conv",
  "LayerType": "CaskConvolution",
  "Inputs": [
  {
    "Name": "/model.10/Split_output_1",
    "Location": "Device",
    "Dimensions": [1,256,20,20],
    "Format/Datatype": "Row major linear FP32"
  }],
  "Outputs": [
  {
    "Name": "/model.10/m/m.0/attn/qkv/conv/Conv_output_0",
    "Location": "Device",
    "Dimensions": [1,512,20,20],
    "Format/Datatype": "Row major linear FP32"
  }],
  "ParameterType": "Convolution",
  "Kernel": [1,1],
  "PaddingMode": "kEXPLICIT_ROUND_DOWN",
  "PrePadding": [0,0],
  "PostPadding": [0,0],
  "Stride": [1,1],
  "Dilation": [1,1],
  "OutMaps": 512,
  "Groups": 1,
  "Weights": {"Type": "Float", "Count": 131072},
  "Bias": {"Type": "Float", "Count": 512},
  "HasSparseWeights": 0,
  "HasDynamicFilter": 0,
  "HasDynamicBias": 0,
  "HasResidual": 0,
  "ConvXAsActInputIdx": -1,
  "BiasAsActInputIdx": -1,
  "ResAsActInputIdx": -1,
  "Activation": "NONE",
  "HasBias": 1,
  "HasReLU": 0,
  "TacticName": "sm80_xmma_fprop_implicit_gemm_f32f32_f32f32_f32_nchwkcrs_nchw_tilesize64x64x8_stage3_warpsize1x4x1_g1_ffma_aligna4_alignc4",
  "TacticValue": "0xa31d27de74b895ff",
  "StreamId": 0,
  "Metadata": "[ONNX Layer: /model.10/m/m.0/attn/qkv/conv/Conv]"
},{
  "Name": "/model.10/m/m.0/attn/Reshape",
  "LayerType": "NoOp",
  "Inputs": [
  {
    "Name": "/model.10/m/m.0/attn/qkv/conv/Conv_output_0",
    "Location": "Device",
    "Dimensions": [1,512,20,20],
    "Format/Datatype": "Row major linear FP32"
  }],
  "Outputs": [
  {
    "Name": "/model.10/m/m.0/attn/Reshape_output_0",
    "Location": "Device",
    "Dimensions": [1,4,128,400],
    "Format/Datatype": "Row major linear FP32"
  }],
  "TacticValue": "0x0000000000000000",
  "StreamId": 0,
  "Metadata": "[ONNX Layer: /model.10/m/m.0/attn/Reshape]"
},{
  "Name": "/model.10/m/m.0/attn/Split",
  "LayerType": "Reformat",
  "Inputs": [
  {
    "Name": "/model.10/m/m.0/attn/Reshape_output_0",
    "Location": "Device",
    "Dimensions": [1,4,32,400],
    "Format/Datatype": "Row major linear FP32"
  }],
  "Outputs": [
  {
    "Name": "/model.10/m/m.0/attn/Split_output_0",
    "Location": "Device",
    "Dimensions": [1,4,32,400],
    "Format/Datatype": "Row major linear FP16 format"
  }],
  "ParameterType": "Reformat",
  "Origin": "SLICE",
  "TacticValue": "0x00000000000003e8",
  "StreamId": 0,
  "Metadata": "[ONNX Layer: /model.10/m/m.0/attn/Split]"
},{
  "Name": "/model.10/m/m.0/attn/Split_19",
  "LayerType": "Reformat",
  "Inputs": [
  {
    "Name": "/model.10/m/m.0/attn/Reshape_output_0",
    "Location": "Device",
    "Dimensions": [1,4,32,400],
    "Format/Datatype": "Row major linear FP32"
  }],
  "Outputs": [
  {
    "Name": "/model.10/m/m.0/attn/Split_output_1",
    "Location": "Device",
    "Dimensions": [1,4,32,400],
    "Format/Datatype": "Row major linear FP16 format"
  }],
  "ParameterType": "Reformat",
  "Origin": "SLICE",
  "TacticValue": "0x0000000000000000",
  "StreamId": 0,
  "Metadata": "[ONNX Layer: /model.10/m/m.0/attn/Split]"
},{
  "Name": "/model.10/m/m.0/attn/MatMul",
  "LayerType": "CaskGemmMatrixMultiply",
  "Inputs": [
  {
    "Name": "/model.10/m/m.0/attn/Split_output_0",
    "Location": "Device",
    "Dimensions": [1,4,32,400],
    "Format/Datatype": "Row major linear FP16 format"
  },
  {
    "Name": "/model.10/m/m.0/attn/Split_output_1",
    "Location": "Device",
    "Dimensions": [1,4,32,400],
    "Format/Datatype": "Row major linear FP16 format"
  }],
  "Outputs": [
  {
    "Name": "/model.10/m/m.0/attn/Mul_output_0",
    "Location": "Device",
    "Dimensions": [1,4,400,400],
    "Format/Datatype": "Row major linear FP16 format"
  }],
  "ParameterType": "MatrixMultiply",
  "MatrixOpA": "TRANSPOSE",
  "MatrixOpB": "NONE",
  "Alpha": 0.176777,
  "Beta": 0,
  "TacticName": "ampere_h16816gemm_128x128_ldg8_stages_32x5_nt_v1",
  "TacticValue": "0x0000000000020862",
  "StreamId": 0,
  "Metadata": "[ONNX Layer: /model.10/m/m.0/attn/MatMul]"
},{
  "Name": "/model.10/m/m.0/attn/Softmax",
  "LayerType": "CaskSoftMaxV2",
  "Inputs": [
  {
    "Name": "/model.10/m/m.0/attn/Mul_output_0",
    "Location": "Device",
    "Dimensions": [1,4,400,400],
    "Format/Datatype": "Row major linear FP16 format"
  }],
  "Outputs": [
  {
    "Name": "(Unnamed Layer* 140) [Softmax]_output",
    "Location": "Device",
    "Dimensions": [1,4,400,400],
    "Format/Datatype": "Row major linear FP16 format"
  }],
  "ParameterType": "SoftMax",
  "Axes": 8,
  "HasLog": 0,
  "TacticValue": "0x4c311f19c8424918",
  "StreamId": 0,
  "Metadata": "[ONNX Layer: /model.10/m/m.0/attn/Softmax]"
},{
  "Name": "/model.10/m/m.0/attn/Split_20",
  "LayerType": "Reformat",
  "Inputs": [
  {
    "Name": "/model.10/m/m.0/attn/Reshape_output_0",
    "Location": "Device",
    "Dimensions": [1,4,64,400],
    "Format/Datatype": "Row major linear FP32"
  }],
  "Outputs": [
  {
    "Name": "/model.10/m/m.0/attn/Split_output_2",
    "Location": "Device",
    "Dimensions": [1,4,64,400],
    "Format/Datatype": "Row major linear FP16 format"
  }],
  "ParameterType": "Reformat",
  "Origin": "SLICE",
  "TacticValue": "0x00000000000003e8",
  "StreamId": 0,
  "Metadata": "[ONNX Layer: /model.10/m/m.0/attn/Split]"
},{
  "Name": "/model.10/m/m.0/attn/Reshape_2",
  "LayerType": "NoOp",
  "Inputs": [
  {
    "Name": "/model.10/m/m.0/attn/Split_output_2",
    "Location": "Device",
    "Dimensions": [1,4,64,400],
    "Format/Datatype": "Row major linear FP16 format"
  }],
  "Outputs": [
  {
    "Name": "/model.10/m/m.0/attn/Reshape_2_output_0",
    "Location": "Device",
    "Dimensions": [1,256,20,20],
    "Format/Datatype": "Row major linear FP16 format"
  }],
  "TacticValue": "0x0000000000000000",
  "StreamId": 0,
  "Metadata": "[ONNX Layer: /model.10/m/m.0/attn/Reshape_2]"
},{
  "Name": "/model.10/m/m.0/attn/MatMul_1",
  "LayerType": "CaskGemmMatrixMultiply",
  "Inputs": [
  {
    "Name": "/model.10/m/m.0/attn/Split_output_2",
    "Location": "Device",
    "Dimensions": [1,4,64,400],
    "Format/Datatype": "Row major linear FP16 format"
  },
  {
    "Name": "(Unnamed Layer* 140) [Softmax]_output",
    "Location": "Device",
    "Dimensions": [1,4,400,400],
    "Format/Datatype": "Row major linear FP16 format"
  }],
  "Outputs": [
  {
    "Name": "/model.10/m/m.0/attn/MatMul_1_output_0",
    "Location": "Device",
    "Dimensions": [1,4,64,400],
    "Format/Datatype": "Row major linear FP16 format"
  }],
  "ParameterType": "MatrixMultiply",
  "MatrixOpA": "NONE",
  "MatrixOpB": "TRANSPOSE",
  "Alpha": 1,
  "Beta": 0,
  "TacticName": "ampere_h16816gemm_64x64_sliced1x2_ldg8_stages_64x5_tn_v1",
  "TacticValue": "0x000000000002096b",
  "StreamId": 0,
  "Metadata": "[ONNX Layer: /model.10/m/m.0/attn/MatMul_1]"
},{
  "Name": "/model.10/m/m.0/attn/Reshape_1",
  "LayerType": "NoOp",
  "Inputs": [
  {
    "Name": "/model.10/m/m.0/attn/MatMul_1_output_0",
    "Location": "Device",
    "Dimensions": [1,4,64,400],
    "Format/Datatype": "Row major linear FP16 format"
  }],
  "Outputs": [
  {
    "Name": "/model.10/m/m.0/attn/Reshape_1_output_0",
    "Location": "Device",
    "Dimensions": [1,256,20,20],
    "Format/Datatype": "Row major linear FP16 format"
  }],
  "TacticValue": "0x0000000000000000",
  "StreamId": 0,
  "Metadata": "[ONNX Layer: /model.10/m/m.0/attn/Reshape_1]"
},{
  "Name": "Reformatting CopyNode for Input Tensor 0 to /model.10/m/m.0/attn/pe/conv/Conv + /model.10/m/m.0/attn/Add",
  "LayerType": "Reformat",
  "Inputs": [
  {
    "Name": "/model.10/m/m.0/attn/Reshape_2_output_0",
    "Location": "Device",
    "Dimensions": [1,256,20,20],
    "Format/Datatype": "Row major linear FP16 format"
  }],
  "Outputs": [
  {
    "Name": "Reformatted Input Tensor 0 to /model.10/m/m.0/attn/pe/conv/Conv + /model.10/m/m.0/attn/Add",
    "Location": "Device",
    "Dimensions": [1,256,20,20],
    "Format/Datatype": "Row major linear FP32"
  }],
  "ParameterType": "Reformat",
  "Origin": "REFORMAT",
  "TacticValue": "0x00000000000003ea",
  "StreamId": 0,
  "Metadata": ""
},{
  "Name": "Reformatting CopyNode for Input Tensor 1 to /model.10/m/m.0/attn/pe/conv/Conv + /model.10/m/m.0/attn/Add",
  "LayerType": "Reformat",
  "Inputs": [
  {
    "Name": "/model.10/m/m.0/attn/Reshape_1_output_0",
    "Location": "Device",
    "Dimensions": [1,256,20,20],
    "Format/Datatype": "Row major linear FP16 format"
  }],
  "Outputs": [
  {
    "Name": "Reformatted Input Tensor 1 to /model.10/m/m.0/attn/pe/conv/Conv + /model.10/m/m.0/attn/Add",
    "Location": "Device",
    "Dimensions": [1,256,20,20],
    "Format/Datatype": "Row major linear FP32"
  }],
  "ParameterType": "Reformat",
  "Origin": "REFORMAT",
  "TacticValue": "0x00000000000003ea",
  "StreamId": 0,
  "Metadata": ""
},{
  "Name": "/model.10/m/m.0/attn/pe/conv/Conv + /model.10/m/m.0/attn/Add",
  "LayerType": "CaskConvolution",
  "Inputs": [
  {
    "Name": "Reformatted Input Tensor 0 to /model.10/m/m.0/attn/pe/conv/Conv + /model.10/m/m.0/attn/Add",
    "Location": "Device",
    "Dimensions": [1,256,20,20],
    "Format/Datatype": "Row major linear FP32"
  },
  {
    "Name": "Reformatted Input Tensor 1 to /model.10/m/m.0/attn/pe/conv/Conv + /model.10/m/m.0/attn/Add",
    "Location": "Device",
    "Dimensions": [1,256,20,20],
    "Format/Datatype": "Row major linear FP32"
  }],
  "Outputs": [
  {
    "Name": "/model.10/m/m.0/attn/Add_output_0",
    "Location": "Device",
    "Dimensions": [1,256,20,20],
    "Format/Datatype": "Row major linear FP32"
  }],
  "ParameterType": "Convolution",
  "Kernel": [3,3],
  "PaddingMode": "kEXPLICIT_ROUND_DOWN",
  "PrePadding": [1,1],
  "PostPadding": [1,1],
  "Stride": [1,1],
  "Dilation": [1,1],
  "OutMaps": 256,
  "Groups": 256,
  "Weights": {"Type": "Float", "Count": 2304},
  "Bias": {"Type": "Float", "Count": 256},
  "HasSparseWeights": 0,
  "HasDynamicFilter": 0,
  "HasDynamicBias": 0,
  "HasResidual": 1,
  "ConvXAsActInputIdx": -1,
  "BiasAsActInputIdx": -1,
  "ResAsActInputIdx": -1,
  "Activation": "NONE",
  "HasBias": 1,
  "HasReLU": 0,
  "TacticName": "sm50_xmma_fprop_conv3d_c1_k1_f32f32_f32_f32_ncdhwkctrs_ncdhw_tilesize32x8_threadsize32x4_general",
  "TacticValue": "0x93ba18009b18a330",
  "StreamId": 0,
  "Metadata": "[ONNX Layer: /model.10/m/m.0/attn/pe/conv/Conv]\u001e[ONNX Layer: /model.10/m/m.0/attn/Add]"
},{
  "Name": "/model.10/m/m.0/attn/proj/conv/Conv + /model.10/m/m.0/Add",
  "LayerType": "CaskConvolution",
  "Inputs": [
  {
    "Name": "/model.10/m/m.0/attn/Add_output_0",
    "Location": "Device",
    "Dimensions": [1,256,20,20],
    "Format/Datatype": "Row major linear FP32"
  },
  {
    "Name": "/model.10/Split_output_1",
    "Location": "Device",
    "Dimensions": [1,256,20,20],
    "Format/Datatype": "Row major linear FP32"
  }],
  "Outputs": [
  {
    "Name": "Reformatted Output Tensor 0 to /model.10/m/m.0/attn/proj/conv/Conv + /model.10/m/m.0/Add",
    "Location": "Device",
    "Dimensions": [1,256,20,20],
    "Format/Datatype": "Row major linear FP32"
  }],
  "ParameterType": "Convolution",
  "Kernel": [1,1],
  "PaddingMode": "kEXPLICIT_ROUND_DOWN",
  "PrePadding": [0,0],
  "PostPadding": [0,0],
  "Stride": [1,1],
  "Dilation": [1,1],
  "OutMaps": 256,
  "Groups": 1,
  "Weights": {"Type": "Float", "Count": 65536},
  "Bias": {"Type": "Float", "Count": 256},
  "HasSparseWeights": 0,
  "HasDynamicFilter": 0,
  "HasDynamicBias": 0,
  "HasResidual": 1,
  "ConvXAsActInputIdx": -1,
  "BiasAsActInputIdx": -1,
  "ResAsActInputIdx": -1,
  "Activation": "NONE",
  "HasBias": 1,
  "HasReLU": 0,
  "TacticName": "sm80_xmma_fprop_implicit_gemm_f32f32_f32f32_f32_nchwkcrs_nchw_tilesize32x32x8_stage3_warpsize1x2x1_g1_ffma_aligna4_alignc4",
  "TacticValue": "0xb0bf940d5e0f9f45",
  "StreamId": 0,
  "Metadata": "[ONNX Layer: /model.10/m/m.0/attn/proj/conv/Conv]\u001e[ONNX Layer: /model.10/m/m.0/Add]"
},{
  "Name": "Reformatting CopyNode for Output Tensor 0 to /model.10/m/m.0/attn/proj/conv/Conv + /model.10/m/m.0/Add",
  "LayerType": "Reformat",
  "Inputs": [
  {
    "Name": "Reformatted Output Tensor 0 to /model.10/m/m.0/attn/proj/conv/Conv + /model.10/m/m.0/Add",
    "Location": "Device",
    "Dimensions": [1,256,20,20],
    "Format/Datatype": "Row major linear FP32"
  }],
  "Outputs": [
  {
    "Name": "/model.10/m/m.0/Add_output_0",
    "Location": "Device",
    "Dimensions": [1,256,20,20],
    "Format/Datatype": "Channel major FP16 format where channel % 4 == 0"
  }],
  "ParameterType": "Reformat",
  "Origin": "REFORMAT",
  "TacticValue": "0x00000000000003ea",
  "StreamId": 0,
  "Metadata": ""
},{
  "Name": "Reformatting CopyNode for Input Tensor 0 to /model.10/m/m.0/ffn/ffn.0/conv/Conv + PWN(PWN(/model.10/m/m.0/ffn/ffn.0/act/Sigmoid), /model.10/m/m.0/ffn/ffn.0/act/Mul)",
  "LayerType": "NoOp",
  "Inputs": [
  {
    "Name": "/model.10/m/m.0/Add_output_0",
    "Location": "Device",
    "Dimensions": [1,256,20,20],
    "Format/Datatype": "Channel major FP16 format where channel % 4 == 0"
  }],
  "Outputs": [
  {
    "Name": "Reformatted Input Tensor 0 to /model.10/m/m.0/ffn/ffn.0/conv/Conv + PWN(PWN(/model.10/m/m.0/ffn/ffn.0/act/Sigmoid), /model.10/m/m.0/ffn/ffn.0/act/Mul)",
    "Location": "Device",
    "Dimensions": [1,256,20,20],
    "Format/Datatype": "Channel major FP16 format where channel % 8 == 0"
  }],
  "TacticValue": "0x0000000000000000",
  "StreamId": 0,
  "Metadata": ""
},{
  "Name": "/model.10/m/m.0/ffn/ffn.0/conv/Conv + PWN(PWN(/model.10/m/m.0/ffn/ffn.0/act/Sigmoid), /model.10/m/m.0/ffn/ffn.0/act/Mul)",
  "LayerType": "CaskConvolution",
  "Inputs": [
  {
    "Name": "Reformatted Input Tensor 0 to /model.10/m/m.0/ffn/ffn.0/conv/Conv + PWN(PWN(/model.10/m/m.0/ffn/ffn.0/act/Sigmoid), /model.10/m/m.0/ffn/ffn.0/act/Mul)",
    "Location": "Device",
    "Dimensions": [1,256,20,20],
    "Format/Datatype": "Channel major FP16 format where channel % 8 == 0"
  }],
  "Outputs": [
  {
    "Name": "/model.10/m/m.0/ffn/ffn.0/act/Mul_output_0",
    "Location": "Device",
    "Dimensions": [1,512,20,20],
    "Format/Datatype": "Channel major FP16 format where channel % 8 == 0"
  }],
  "ParameterType": "Convolution",
  "Kernel": [1,1],
  "PaddingMode": "kEXPLICIT_ROUND_DOWN",
  "PrePadding": [0,0],
  "PostPadding": [0,0],
  "Stride": [1,1],
  "Dilation": [1,1],
  "OutMaps": 512,
  "Groups": 1,
  "Weights": {"Type": "Half", "Count": 131072},
  "Bias": {"Type": "Half", "Count": 512},
  "HasSparseWeights": 0,
  "HasDynamicFilter": 0,
  "HasDynamicBias": 0,
  "HasResidual": 0,
  "ConvXAsActInputIdx": -1,
  "BiasAsActInputIdx": -1,
  "ResAsActInputIdx": -1,
  "Activation": "GENERIC",
  "ParameterSubType": "PointWiseExpression",
  "NbPointWiseExpressionInputArgs": 1,
  "PointWiseExpressionInputArgs": ["arg0"],
  "NbPointWiseExpressionOutputVars": 1,
  "PointWiseExpressionOutputVars": ["var4"],
  "NbPointWiseExpressionParams": 0,
  "PointWiseExpressionParams": [],
  "NbPointWiseExpressionLiterals": 5,
  "PointWiseExpressionLiterals": ["0.000000e+00f", "1.000000e+00f", "0.000000e+00f", "0.000000e+00f", "5.000000e-01f"],
  "NbPointWiseExpressionOperations": 5,
  "PointWiseExpressionOperations": ["auto const var0 = pwgen::iMul(literal4, arg0);", "auto const var1 = pwgen::iTanh(var0);", "auto const var2 = pwgen::iMul(var1, literal4);", "auto const var3 = pwgen::iPlus(var2, literal4);", "auto const var4 = pwgen::iMul(arg0, var3);"],
  "HasBias": 1,
  "HasReLU": 0,
  "TacticName": "sm80_xmma_fprop_implicit_gemm_f16f16_f16f16_f16_nhwckrsc_nhwc_tilesize64x64x64_stage4_warpsize2x2x1_g1_tensor16x8x16_t1r1s1_linkable",
  "TacticValue": "0x8f3fdd4c960cf6fe",
  "StreamId": 0,
  "Metadata": "[ONNX Layer: /model.10/m/m.0/ffn/ffn.0/conv/Conv]\u001e[ONNX Layer: /model.10/m/m.0/ffn/ffn.0/act/Sigmoid]\u001e[ONNX Layer: /model.10/m/m.0/ffn/ffn.0/act/Mul]"
},{
  "Name": "Reformatting CopyNode for Input Tensor 1 to /model.10/m/m.0/ffn/ffn.1/conv/Conv + /model.10/m/m.0/Add_1",
  "LayerType": "NoOp",
  "Inputs": [
  {
    "Name": "/model.10/m/m.0/Add_output_0",
    "Location": "Device",
    "Dimensions": [1,256,20,20],
    "Format/Datatype": "Channel major FP16 format where channel % 4 == 0"
  }],
  "Outputs": [
  {
    "Name": "Reformatted Input Tensor 1 to /model.10/m/m.0/ffn/ffn.1/conv/Conv + /model.10/m/m.0/Add_1",
    "Location": "Device",
    "Dimensions": [1,256,20,20],
    "Format/Datatype": "Channel major FP16 format where channel % 8 == 0"
  }],
  "TacticValue": "0x0000000000000000",
  "StreamId": 0,
  "Metadata": ""
},{
  "Name": "/model.10/m/m.0/ffn/ffn.1/conv/Conv + /model.10/m/m.0/Add_1",
  "LayerType": "CaskGemmConvolution",
  "Inputs": [
  {
    "Name": "/model.10/m/m.0/ffn/ffn.0/act/Mul_output_0",
    "Location": "Device",
    "Dimensions": [1,512,20,20],
    "Format/Datatype": "Channel major FP16 format where channel % 8 == 0"
  },
  {
    "Name": "Reformatted Input Tensor 1 to /model.10/m/m.0/ffn/ffn.1/conv/Conv + /model.10/m/m.0/Add_1",
    "Location": "Device",
    "Dimensions": [1,256,20,20],
    "Format/Datatype": "Channel major FP16 format where channel % 8 == 0"
  }],
  "Outputs": [
  {
    "Name": "/model.10/m/m.0/Add_1_output_0",
    "Location": "Device",
    "Dimensions": [1,256,20,20],
    "Format/Datatype": "Channel major FP16 format where channel % 8 == 0"
  }],
  "ParameterType": "Convolution",
  "Kernel": [1,1],
  "PaddingMode": "kEXPLICIT_ROUND_DOWN",
  "PrePadding": [0,0],
  "PostPadding": [0,0],
  "Stride": [1,1],
  "Dilation": [1,1],
  "OutMaps": 256,
  "Groups": 1,
  "Weights": {"Type": "Half", "Count": 131072},
  "Bias": {"Type": "Half", "Count": 256},
  "HasSparseWeights": 0,
  "HasDynamicFilter": 0,
  "HasDynamicBias": 0,
  "HasResidual": 1,
  "ConvXAsActInputIdx": -1,
  "BiasAsActInputIdx": -1,
  "ResAsActInputIdx": -1,
  "Activation": "NONE",
  "TacticName": "sm80_xmma_gemm_f16f16_f16f16_f16_nn_n_tilesize64x32x64_stage5_warpsize2x2x1_tensor16x8x16",
  "TacticValue": "0x0000000000020633",
  "StreamId": 0,
  "Metadata": "[ONNX Layer: /model.10/m/m.0/ffn/ffn.1/conv/Conv]\u001e[ONNX Layer: /model.10/m/m.0/Add_1]"
},{
  "Name": "/model.10/Split_output_0 copy",
  "LayerType": "Reformat",
  "Inputs": [
  {
    "Name": "/model.10/cv1/act/Mul_output_0",
    "Location": "Device",
    "Dimensions": [1,256,20,20],
    "Format/Datatype": "Channel major FP16 format where channel % 8 == 0"
  }],
  "Outputs": [
  {
    "Name": "/model.10/Concat_output_0",
    "Location": "Device",
    "Dimensions": [1,256,20,20],
    "Format/Datatype": "Two wide channel vectorized row major FP16 format"
  }],
  "ParameterType": "Reformat",
  "Origin": "CONCAT",
  "TacticValue": "0x0000000000000000",
  "StreamId": 0,
  "Metadata": "[ONNX Layer: /model.10/Concat]"
},{
  "Name": "/model.10/m/m.0/Add_1_output_0 copy",
  "LayerType": "Reformat",
  "Inputs": [
  {
    "Name": "/model.10/m/m.0/Add_1_output_0",
    "Location": "Device",
    "Dimensions": [1,256,20,20],
    "Format/Datatype": "Channel major FP16 format where channel % 8 == 0"
  }],
  "Outputs": [
  {
    "Name": "/model.10/Concat_output_0",
    "Location": "Device",
    "Dimensions": [1,256,20,20],
    "Format/Datatype": "Two wide channel vectorized row major FP16 format"
  }],
  "ParameterType": "Reformat",
  "Origin": "CONCAT",
  "TacticValue": "0x0000000000000000",
  "StreamId": 0,
  "Metadata": "[ONNX Layer: /model.10/Concat]"
},{
  "Name": "Reformatting CopyNode for Input Tensor 0 to /model.10/cv2/conv/Conv + PWN(PWN(/model.10/cv2/act/Sigmoid), /model.10/cv2/act/Mul)",
  "LayerType": "Reformat",
  "Inputs": [
  {
    "Name": "/model.10/Concat_output_0",
    "Location": "Device",
    "Dimensions": [1,512,20,20],
    "Format/Datatype": "Two wide channel vectorized row major FP16 format"
  }],
  "Outputs": [
  {
    "Name": "Reformatted Input Tensor 0 to /model.10/cv2/conv/Conv + PWN(PWN(/model.10/cv2/act/Sigmoid), /model.10/cv2/act/Mul)",
    "Location": "Device",
    "Dimensions": [1,512,20,20],
    "Format/Datatype": "Channel major FP16 format where channel % 8 == 0"
  }],
  "ParameterType": "Reformat",
  "Origin": "REFORMAT",
  "TacticValue": "0x00000000000003ea",
  "StreamId": 0,
  "Metadata": ""
},{
  "Name": "/model.10/cv2/conv/Conv + PWN(PWN(/model.10/cv2/act/Sigmoid), /model.10/cv2/act/Mul)",
  "LayerType": "CaskConvolution",
  "Inputs": [
  {
    "Name": "Reformatted Input Tensor 0 to /model.10/cv2/conv/Conv + PWN(PWN(/model.10/cv2/act/Sigmoid), /model.10/cv2/act/Mul)",
    "Location": "Device",
    "Dimensions": [1,512,20,20],
    "Format/Datatype": "Channel major FP16 format where channel % 8 == 0"
  }],
  "Outputs": [
  {
    "Name": "/model.10/cv2/act/Mul_output_0",
    "Location": "Device",
    "Dimensions": [1,512,20,20],
    "Format/Datatype": "Channel major FP16 format where channel % 8 == 0"
  }],
  "ParameterType": "Convolution",
  "Kernel": [1,1],
  "PaddingMode": "kEXPLICIT_ROUND_DOWN",
  "PrePadding": [0,0],
  "PostPadding": [0,0],
  "Stride": [1,1],
  "Dilation": [1,1],
  "OutMaps": 512,
  "Groups": 1,
  "Weights": {"Type": "Half", "Count": 262144},
  "Bias": {"Type": "Half", "Count": 512},
  "HasSparseWeights": 0,
  "HasDynamicFilter": 0,
  "HasDynamicBias": 0,
  "HasResidual": 0,
  "ConvXAsActInputIdx": -1,
  "BiasAsActInputIdx": -1,
  "ResAsActInputIdx": -1,
  "Activation": "GENERIC",
  "ParameterSubType": "PointWiseExpression",
  "NbPointWiseExpressionInputArgs": 1,
  "PointWiseExpressionInputArgs": ["arg0"],
  "NbPointWiseExpressionOutputVars": 1,
  "PointWiseExpressionOutputVars": ["var4"],
  "NbPointWiseExpressionParams": 0,
  "PointWiseExpressionParams": [],
  "NbPointWiseExpressionLiterals": 5,
  "PointWiseExpressionLiterals": ["0.000000e+00f", "1.000000e+00f", "0.000000e+00f", "0.000000e+00f", "5.000000e-01f"],
  "NbPointWiseExpressionOperations": 5,
  "PointWiseExpressionOperations": ["auto const var0 = pwgen::iMul(literal4, arg0);", "auto const var1 = pwgen::iTanh(var0);", "auto const var2 = pwgen::iMul(var1, literal4);", "auto const var3 = pwgen::iPlus(var2, literal4);", "auto const var4 = pwgen::iMul(arg0, var3);"],
  "HasBias": 1,
  "HasReLU": 0,
  "TacticName": "sm80_xmma_fprop_implicit_gemm_f16f16_f16f16_f16_nhwckrsc_nhwc_tilesize64x64x64_stage4_warpsize2x2x1_g1_tensor16x8x16_t1r1s1_linkable",
  "TacticValue": "0x8f3fdd4c960cf6fe",
  "StreamId": 0,
  "Metadata": "[ONNX Layer: /model.10/cv2/conv/Conv]\u001e[ONNX Layer: /model.10/cv2/act/Sigmoid]\u001e[ONNX Layer: /model.10/cv2/act/Mul]"
},{
  "Name": "Reformatting CopyNode for Input Tensor 0 to /model.11/Resize",
  "LayerType": "Reformat",
  "Inputs": [
  {
    "Name": "/model.10/cv2/act/Mul_output_0",
    "Location": "Device",
    "Dimensions": [1,512,20,20],
    "Format/Datatype": "Channel major FP16 format where channel % 8 == 0"
  }],
  "Outputs": [
  {
    "Name": "Reformatted Input Tensor 0 to /model.11/Resize",
    "Location": "Device",
    "Dimensions": [1,512,20,20],
    "Format/Datatype": "Row major linear FP32"
  }],
  "ParameterType": "Reformat",
  "Origin": "REFORMAT",
  "TacticValue": "0x00000000000003ea",
  "StreamId": 0,
  "Metadata": ""
},{
  "Name": "/model.11/Resize",
  "LayerType": "Resize",
  "Inputs": [
  {
    "Name": "Reformatted Input Tensor 0 to /model.11/Resize",
    "Location": "Device",
    "Dimensions": [1,512,20,20],
    "Format/Datatype": "Row major linear FP32"
  }],
  "Outputs": [
  {
    "Name": "/model.11/Resize_output_0",
    "Location": "Device",
    "Dimensions": [1,512,40,40],
    "Format/Datatype": "Row major linear FP32"
  }],
  "ParameterType": "Resize",
  "ResizeMode": "NEAREST",
  "ResizeScales": [1, 1, 2, 2, 0, 0, 0, 0],
  "ExcludeOutside": 0,
  "CubicCoeff": -0.75,
  "CoordTransform": "kASYMMETRIC",
  "ResizeSelector": "kFORMULA",
  "NNRounding": "kFLOOR",
  "TacticValue": "0x0000000000000000",
  "StreamId": 0,
  "Metadata": "[ONNX Layer: /model.11/Resize]"
},{
  "Name": "/model.11/Resize_output_0 copy",
  "LayerType": "Reformat",
  "Inputs": [
  {
    "Name": "/model.11/Resize_output_0",
    "Location": "Device",
    "Dimensions": [1,512,40,40],
    "Format/Datatype": "Row major linear FP32"
  }],
  "Outputs": [
  {
    "Name": "/model.12/Concat_output_0",
    "Location": "Device",
    "Dimensions": [1,512,40,40],
    "Format/Datatype": "Channel major FP16 format where channel % 8 == 0"
  }],
  "ParameterType": "Reformat",
  "Origin": "CONCAT",
  "TacticValue": "0x00000000000003ea",
  "StreamId": 0,
  "Metadata": "[ONNX Layer: /model.12/Concat]"
},{
  "Name": "/model.13/cv1/conv/Conv + PWN(PWN(/model.13/cv1/act/Sigmoid), /model.13/cv1/act/Mul)",
  "LayerType": "CaskConvolution",
  "Inputs": [
  {
    "Name": "/model.12/Concat_output_0",
    "Location": "Device",
    "Dimensions": [1,768,40,40],
    "Format/Datatype": "Channel major FP16 format where channel % 8 == 0"
  }],
  "Outputs": [
  {
    "Name": "Reformatted Output Tensor 0 to /model.13/cv1/conv/Conv + PWN(PWN(/model.13/cv1/act/Sigmoid), /model.13/cv1/act/Mul)",
    "Location": "Device",
    "Dimensions": [1,256,40,40],
    "Format/Datatype": "Channel major FP16 format where channel % 8 == 0"
  }],
  "ParameterType": "Convolution",
  "Kernel": [1,1],
  "PaddingMode": "kEXPLICIT_ROUND_DOWN",
  "PrePadding": [0,0],
  "PostPadding": [0,0],
  "Stride": [1,1],
  "Dilation": [1,1],
  "OutMaps": 256,
  "Groups": 1,
  "Weights": {"Type": "Half", "Count": 196608},
  "Bias": {"Type": "Half", "Count": 256},
  "HasSparseWeights": 0,
  "HasDynamicFilter": 0,
  "HasDynamicBias": 0,
  "HasResidual": 0,
  "ConvXAsActInputIdx": -1,
  "BiasAsActInputIdx": -1,
  "ResAsActInputIdx": -1,
  "Activation": "GENERIC",
  "ParameterSubType": "PointWiseExpression",
  "NbPointWiseExpressionInputArgs": 1,
  "PointWiseExpressionInputArgs": ["arg0"],
  "NbPointWiseExpressionOutputVars": 1,
  "PointWiseExpressionOutputVars": ["var4"],
  "NbPointWiseExpressionParams": 0,
  "PointWiseExpressionParams": [],
  "NbPointWiseExpressionLiterals": 5,
  "PointWiseExpressionLiterals": ["0.000000e+00f", "1.000000e+00f", "0.000000e+00f", "0.000000e+00f", "5.000000e-01f"],
  "NbPointWiseExpressionOperations": 5,
  "PointWiseExpressionOperations": ["auto const var0 = pwgen::iMul(literal4, arg0);", "auto const var1 = pwgen::iTanh(var0);", "auto const var2 = pwgen::iMul(var1, literal4);", "auto const var3 = pwgen::iPlus(var2, literal4);", "auto const var4 = pwgen::iMul(arg0, var3);"],
  "HasBias": 1,
  "HasReLU": 0,
  "TacticName": "sm80_xmma_fprop_implicit_gemm_f16f16_f16f16_f16_nhwckrsc_nhwc_tilesize64x128x32_stage5_warpsize2x2x1_g1_tensor16x8x16_simple_t1r1s1_linkable",
  "TacticValue": "0xf302b613c8da7848",
  "StreamId": 0,
  "Metadata": "[ONNX Layer: /model.13/cv1/conv/Conv]\u001e[ONNX Layer: /model.13/cv1/act/Sigmoid]\u001e[ONNX Layer: /model.13/cv1/act/Mul]"
},{
  "Name": "Reformatting CopyNode for Output Tensor 0 to /model.13/cv1/conv/Conv + PWN(PWN(/model.13/cv1/act/Sigmoid), /model.13/cv1/act/Mul)",
  "LayerType": "NoOp",
  "Inputs": [
  {
    "Name": "Reformatted Output Tensor 0 to /model.13/cv1/conv/Conv + PWN(PWN(/model.13/cv1/act/Sigmoid), /model.13/cv1/act/Mul)",
    "Location": "Device",
    "Dimensions": [1,256,40,40],
    "Format/Datatype": "Channel major FP16 format where channel % 8 == 0"
  }],
  "Outputs": [
  {
    "Name": "/model.13/cv1/act/Mul_output_0",
    "Location": "Device",
    "Dimensions": [1,256,40,40],
    "Format/Datatype": "Channel major FP16 format where channel % 4 == 0"
  }],
  "TacticValue": "0x0000000000000000",
  "StreamId": 0,
  "Metadata": ""
},{
  "Name": "Reformatting CopyNode for Input Tensor 0 to /model.13/m.0/cv1/conv/Conv + PWN(PWN(/model.13/m.0/cv1/act/Sigmoid), /model.13/m.0/cv1/act/Mul)",
  "LayerType": "Reformat",
  "Inputs": [
  {
    "Name": "/model.13/cv1/act/Mul_output_0",
    "Location": "Device",
    "Dimensions": [1,128,40,40],
    "Format/Datatype": "Channel major FP16 format where channel % 4 == 0"
  }],
  "Outputs": [
  {
    "Name": "Reformatted Input Tensor 0 to /model.13/m.0/cv1/conv/Conv + PWN(PWN(/model.13/m.0/cv1/act/Sigmoid), /model.13/m.0/cv1/act/Mul)",
    "Location": "Device",
    "Dimensions": [1,128,40,40],
    "Format/Datatype": "Channel major FP16 format where channel % 8 == 0"
  }],
  "ParameterType": "Reformat",
  "Origin": "REFORMAT",
  "TacticValue": "0x00000000000003e8",
  "StreamId": 0,
  "Metadata": ""
},{
  "Name": "/model.13/m.0/cv1/conv/Conv + PWN(PWN(/model.13/m.0/cv1/act/Sigmoid), /model.13/m.0/cv1/act/Mul)",
  "LayerType": "CaskConvolution",
  "Inputs": [
  {
    "Name": "Reformatted Input Tensor 0 to /model.13/m.0/cv1/conv/Conv + PWN(PWN(/model.13/m.0/cv1/act/Sigmoid), /model.13/m.0/cv1/act/Mul)",
    "Location": "Device",
    "Dimensions": [1,128,40,40],
    "Format/Datatype": "Channel major FP16 format where channel % 8 == 0"
  }],
  "Outputs": [
  {
    "Name": "/model.13/m.0/cv1/act/Mul_output_0",
    "Location": "Device",
    "Dimensions": [1,64,40,40],
    "Format/Datatype": "Channel major FP16 format where channel % 8 == 0"
  }],
  "ParameterType": "Convolution",
  "Kernel": [3,3],
  "PaddingMode": "kEXPLICIT_ROUND_DOWN",
  "PrePadding": [1,1],
  "PostPadding": [1,1],
  "Stride": [1,1],
  "Dilation": [1,1],
  "OutMaps": 64,
  "Groups": 1,
  "Weights": {"Type": "Half", "Count": 73728},
  "Bias": {"Type": "Half", "Count": 64},
  "HasSparseWeights": 0,
  "HasDynamicFilter": 0,
  "HasDynamicBias": 0,
  "HasResidual": 0,
  "ConvXAsActInputIdx": -1,
  "BiasAsActInputIdx": -1,
  "ResAsActInputIdx": -1,
  "Activation": "GENERIC",
  "ParameterSubType": "PointWiseExpression",
  "NbPointWiseExpressionInputArgs": 1,
  "PointWiseExpressionInputArgs": ["arg0"],
  "NbPointWiseExpressionOutputVars": 1,
  "PointWiseExpressionOutputVars": ["var4"],
  "NbPointWiseExpressionParams": 0,
  "PointWiseExpressionParams": [],
  "NbPointWiseExpressionLiterals": 5,
  "PointWiseExpressionLiterals": ["0.000000e+00f", "1.000000e+00f", "0.000000e+00f", "0.000000e+00f", "5.000000e-01f"],
  "NbPointWiseExpressionOperations": 5,
  "PointWiseExpressionOperations": ["auto const var0 = pwgen::iMul(literal4, arg0);", "auto const var1 = pwgen::iTanh(var0);", "auto const var2 = pwgen::iMul(var1, literal4);", "auto const var3 = pwgen::iPlus(var2, literal4);", "auto const var4 = pwgen::iMul(arg0, var3);"],
  "HasBias": 1,
  "HasReLU": 0,
  "TacticName": "sm80_xmma_fprop_implicit_gemm_f16f16_f16f16_f16_nhwckrsc_nhwc_tilesize64x64x64_stage4_warpsize2x2x1_g1_tensor16x8x16_linkable",
  "TacticValue": "0x69f0248c464a2b1b",
  "StreamId": 0,
  "Metadata": "[ONNX Layer: /model.13/m.0/cv1/conv/Conv]\u001e[ONNX Layer: /model.13/m.0/cv1/act/Sigmoid]\u001e[ONNX Layer: /model.13/m.0/cv1/act/Mul]"
},{
  "Name": "/model.13/m.0/cv2/conv/Conv",
  "LayerType": "CaskConvolution",
  "Inputs": [
  {
    "Name": "/model.13/m.0/cv1/act/Mul_output_0",
    "Location": "Device",
    "Dimensions": [1,64,40,40],
    "Format/Datatype": "Channel major FP16 format where channel % 8 == 0"
  }],
  "Outputs": [
  {
    "Name": "/model.13/m.0/cv2/conv/Conv_output_0",
    "Location": "Device",
    "Dimensions": [1,128,40,40],
    "Format/Datatype": "Channel major FP16 format where channel % 8 == 0"
  }],
  "ParameterType": "Convolution",
  "Kernel": [3,3],
  "PaddingMode": "kEXPLICIT_ROUND_DOWN",
  "PrePadding": [1,1],
  "PostPadding": [1,1],
  "Stride": [1,1],
  "Dilation": [1,1],
  "OutMaps": 128,
  "Groups": 1,
  "Weights": {"Type": "Half", "Count": 73728},
  "Bias": {"Type": "Half", "Count": 128},
  "HasSparseWeights": 0,
  "HasDynamicFilter": 0,
  "HasDynamicBias": 0,
  "HasResidual": 0,
  "ConvXAsActInputIdx": -1,
  "BiasAsActInputIdx": -1,
  "ResAsActInputIdx": -1,
  "Activation": "NONE",
  "HasBias": 1,
  "HasReLU": 0,
  "TacticName": "sm80_xmma_fprop_implicit_gemm_indexed_f16f16_f16f16_f16_nhwckrsc_nhwc_tilesize64x64x64_stage4_warpsize2x2x1_g1_tensor16x8x16",
  "TacticValue": "0x4a81ea1e51436a30",
  "StreamId": 0,
  "Metadata": "[ONNX Layer: /model.13/m.0/cv2/conv/Conv]"
},{
  "Name": "Reformatting CopyNode for Input Tensor 0 to PWN(PWN(PWN(/model.13/m.0/cv2/act/Sigmoid), /model.13/m.0/cv2/act/Mul), /model.13/m.0/Add)",
  "LayerType": "NoOp",
  "Inputs": [
  {
    "Name": "/model.13/m.0/cv2/conv/Conv_output_0",
    "Location": "Device",
    "Dimensions": [1,128,40,40],
    "Format/Datatype": "Channel major FP16 format where channel % 8 == 0"
  }],
  "Outputs": [
  {
    "Name": "Reformatted Input Tensor 0 to PWN(PWN(PWN(/model.13/m.0/cv2/act/Sigmoid), /model.13/m.0/cv2/act/Mul), /model.13/m.0/Add)",
    "Location": "Device",
    "Dimensions": [1,128,40,40],
    "Format/Datatype": "Channel major FP16 format where channel % 2 == 0"
  }],
  "TacticValue": "0x0000000000000000",
  "StreamId": 0,
  "Metadata": ""
},{
  "Name": "Reformatting CopyNode for Input Tensor 1 to PWN(PWN(PWN(/model.13/m.0/cv2/act/Sigmoid), /model.13/m.0/cv2/act/Mul), /model.13/m.0/Add)",
  "LayerType": "Reformat",
  "Inputs": [
  {
    "Name": "/model.13/cv1/act/Mul_output_0",
    "Location": "Device",
    "Dimensions": [1,128,40,40],
    "Format/Datatype": "Channel major FP16 format where channel % 4 == 0"
  }],
  "Outputs": [
  {
    "Name": "Reformatted Input Tensor 1 to PWN(PWN(PWN(/model.13/m.0/cv2/act/Sigmoid), /model.13/m.0/cv2/act/Mul), /model.13/m.0/Add)",
    "Location": "Device",
    "Dimensions": [1,128,40,40],
    "Format/Datatype": "Channel major FP16 format where channel % 2 == 0"
  }],
  "ParameterType": "Reformat",
  "Origin": "REFORMAT",
  "TacticValue": "0x00000000000003e8",
  "StreamId": 0,
  "Metadata": ""
},{
  "Name": "PWN(PWN(PWN(/model.13/m.0/cv2/act/Sigmoid), /model.13/m.0/cv2/act/Mul), /model.13/m.0/Add)",
  "LayerType": "PointWiseV2",
  "Inputs": [
  {
    "Name": "Reformatted Input Tensor 0 to PWN(PWN(PWN(/model.13/m.0/cv2/act/Sigmoid), /model.13/m.0/cv2/act/Mul), /model.13/m.0/Add)",
    "Location": "Device",
    "Dimensions": [1,128,40,40],
    "Format/Datatype": "Channel major FP16 format where channel % 2 == 0"
  },
  {
    "Name": "Reformatted Input Tensor 1 to PWN(PWN(PWN(/model.13/m.0/cv2/act/Sigmoid), /model.13/m.0/cv2/act/Mul), /model.13/m.0/Add)",
    "Location": "Device",
    "Dimensions": [1,128,40,40],
    "Format/Datatype": "Channel major FP16 format where channel % 2 == 0"
  }],
  "Outputs": [
  {
    "Name": "/model.13/Concat_output_0",
    "Location": "Device",
    "Dimensions": [1,128,40,40],
    "Format/Datatype": "Channel major FP16 format where channel % 2 == 0"
  }],
  "ParameterType": "PointWise",
  "ParameterSubType": "PointWiseExpression",
  "NbInputArgs": 2,
  "InputArgs": ["arg0", "arg1"],
  "NbOutputVars": 1,
  "OutputVars": ["var5"],
  "NbParams": 0,
  "Params": [],
  "NbLiterals": 5,
  "Literals": ["0.000000e+00f", "1.000000e+00f", "0.000000e+00f", "0.000000e+00f", "5.000000e-01f"],
  "NbOperations": 6,
  "Operations": ["auto const var0 = pwgen::iMul(literal4, arg0);", "auto const var1 = pwgen::iTanh(var0);", "auto const var2 = pwgen::iMul(var1, literal4);", "auto const var3 = pwgen::iPlus(var2, literal4);", "auto const var4 = pwgen::iMul(arg0, var3);", "auto const var5 = pwgen::iPlus(arg1, var4);"],
  "TacticValue": "0x000000000000000d",
  "StreamId": 0,
  "Metadata": "[ONNX Layer: /model.13/m.0/cv2/act/Sigmoid]\u001e[ONNX Layer: /model.13/m.0/cv2/act/Mul]\u001e[ONNX Layer: /model.13/m.0/Add]"
},{
  "Name": "/model.13/Split_output_0 copy",
  "LayerType": "Reformat",
  "Inputs": [
  {
    "Name": "/model.13/cv1/act/Mul_output_0",
    "Location": "Device",
    "Dimensions": [1,128,40,40],
    "Format/Datatype": "Channel major FP16 format where channel % 4 == 0"
  }],
  "Outputs": [
  {
    "Name": "/model.13/Concat_output_0",
    "Location": "Device",
    "Dimensions": [1,128,40,40],
    "Format/Datatype": "Channel major FP16 format where channel % 2 == 0"
  }],
  "ParameterType": "Reformat",
  "Origin": "CONCAT",
  "TacticValue": "0x0000000000000000",
  "StreamId": 0,
  "Metadata": "[ONNX Layer: /model.13/Concat]"
},{
  "Name": "/model.13/Split_output_1 copy",
  "LayerType": "Reformat",
  "Inputs": [
  {
    "Name": "/model.13/cv1/act/Mul_output_0",
    "Location": "Device",
    "Dimensions": [1,128,40,40],
    "Format/Datatype": "Channel major FP16 format where channel % 4 == 0"
  }],
  "Outputs": [
  {
    "Name": "/model.13/Concat_output_0",
    "Location": "Device",
    "Dimensions": [1,128,40,40],
    "Format/Datatype": "Channel major FP16 format where channel % 2 == 0"
  }],
  "ParameterType": "Reformat",
  "Origin": "CONCAT",
  "TacticValue": "0x0000000000000000",
  "StreamId": 0,
  "Metadata": "[ONNX Layer: /model.13/Concat]"
},{
  "Name": "Reformatting CopyNode for Input Tensor 0 to /model.13/cv2/conv/Conv + PWN(PWN(/model.13/cv2/act/Sigmoid), /model.13/cv2/act/Mul)",
  "LayerType": "NoOp",
  "Inputs": [
  {
    "Name": "/model.13/Concat_output_0",
    "Location": "Device",
    "Dimensions": [1,384,40,40],
    "Format/Datatype": "Channel major FP16 format where channel % 2 == 0"
  }],
  "Outputs": [
  {
    "Name": "Reformatted Input Tensor 0 to /model.13/cv2/conv/Conv + PWN(PWN(/model.13/cv2/act/Sigmoid), /model.13/cv2/act/Mul)",
    "Location": "Device",
    "Dimensions": [1,384,40,40],
    "Format/Datatype": "Channel major FP16 format where channel % 8 == 0"
  }],
  "TacticValue": "0x0000000000000000",
  "StreamId": 0,
  "Metadata": ""
},{
  "Name": "/model.13/cv2/conv/Conv + PWN(PWN(/model.13/cv2/act/Sigmoid), /model.13/cv2/act/Mul)",
  "LayerType": "CaskConvolution",
  "Inputs": [
  {
    "Name": "Reformatted Input Tensor 0 to /model.13/cv2/conv/Conv + PWN(PWN(/model.13/cv2/act/Sigmoid), /model.13/cv2/act/Mul)",
    "Location": "Device",
    "Dimensions": [1,384,40,40],
    "Format/Datatype": "Channel major FP16 format where channel % 8 == 0"
  }],
  "Outputs": [
  {
    "Name": "/model.13/cv2/act/Mul_output_0",
    "Location": "Device",
    "Dimensions": [1,256,40,40],
    "Format/Datatype": "Channel major FP16 format where channel % 8 == 0"
  }],
  "ParameterType": "Convolution",
  "Kernel": [1,1],
  "PaddingMode": "kEXPLICIT_ROUND_DOWN",
  "PrePadding": [0,0],
  "PostPadding": [0,0],
  "Stride": [1,1],
  "Dilation": [1,1],
  "OutMaps": 256,
  "Groups": 1,
  "Weights": {"Type": "Half", "Count": 98304},
  "Bias": {"Type": "Half", "Count": 256},
  "HasSparseWeights": 0,
  "HasDynamicFilter": 0,
  "HasDynamicBias": 0,
  "HasResidual": 0,
  "ConvXAsActInputIdx": -1,
  "BiasAsActInputIdx": -1,
  "ResAsActInputIdx": -1,
  "Activation": "GENERIC",
  "ParameterSubType": "PointWiseExpression",
  "NbPointWiseExpressionInputArgs": 1,
  "PointWiseExpressionInputArgs": ["arg0"],
  "NbPointWiseExpressionOutputVars": 1,
  "PointWiseExpressionOutputVars": ["var4"],
  "NbPointWiseExpressionParams": 0,
  "PointWiseExpressionParams": [],
  "NbPointWiseExpressionLiterals": 5,
  "PointWiseExpressionLiterals": ["0.000000e+00f", "1.000000e+00f", "0.000000e+00f", "0.000000e+00f", "5.000000e-01f"],
  "NbPointWiseExpressionOperations": 5,
  "PointWiseExpressionOperations": ["auto const var0 = pwgen::iMul(literal4, arg0);", "auto const var1 = pwgen::iTanh(var0);", "auto const var2 = pwgen::iMul(var1, literal4);", "auto const var3 = pwgen::iPlus(var2, literal4);", "auto const var4 = pwgen::iMul(arg0, var3);"],
  "HasBias": 1,
  "HasReLU": 0,
  "TacticName": "sm80_xmma_fprop_implicit_gemm_f16f16_f16f16_f16_nhwckrsc_nhwc_tilesize64x128x32_stage5_warpsize2x2x1_g1_tensor16x8x16_simple_t1r1s1_linkable",
  "TacticValue": "0xf302b613c8da7848",
  "StreamId": 0,
  "Metadata": "[ONNX Layer: /model.13/cv2/conv/Conv]\u001e[ONNX Layer: /model.13/cv2/act/Sigmoid]\u001e[ONNX Layer: /model.13/cv2/act/Mul]"
},{
  "Name": "/model.14/Resize",
  "LayerType": "Resize",
  "Inputs": [
  {
    "Name": "/model.13/cv2/act/Mul_output_0",
    "Location": "Device",
    "Dimensions": [1,256,40,40],
    "Format/Datatype": "Channel major FP16 format where channel % 8 == 0"
  }],
  "Outputs": [
  {
    "Name": "/model.14/Resize_output_0",
    "Location": "Device",
    "Dimensions": [1,256,80,80],
    "Format/Datatype": "Channel major FP16 format where channel % 8 == 0"
  }],
  "ParameterType": "Resize",
  "ResizeMode": "NEAREST",
  "ResizeScales": [1, 1, 2, 2, 0, 0, 0, 0],
  "ExcludeOutside": 0,
  "CubicCoeff": -0.75,
  "CoordTransform": "kASYMMETRIC",
  "ResizeSelector": "kFORMULA",
…
    "Format/Datatype": "Channel major FP16 format where channel % 8 == 0"
  }],
  "ParameterType": "Convolution",
  "Kernel": [1,1],
  "PaddingMode": "kEXPLICIT_ROUND_DOWN",
  "PrePadding": [0,0],
  "PostPadding": [0,0],
  "Stride": [1,1],
  "Dilation": [1,1],
  "OutMaps": 64,
  "Groups": 1,
  "Weights": {"Type": "Half", "Count": 4096},
  "Bias": {"Type": "Half", "Count": 64},
  "HasSparseWeights": 0,
  "HasDynamicFilter": 0,
  "HasDynamicBias": 0,
  "HasResidual": 0,
  "ConvXAsActInputIdx": -1,
  "BiasAsActInputIdx": -1,
  "ResAsActInputIdx": -1,
  "Activation": "NONE",
  "TacticName": "sm80_xmma_gemm_f16f16_f16f16_f16_nn_n_tilesize64x32x64_stage5_warpsize2x2x1_tensor16x8x16",
  "TacticValue": "0x0000000000020633",
  "StreamId": 0,
  "Metadata": "[ONNX Layer: /model.23/cv2.1/cv2.1.2/Conv]"
},{
  "Name": "/model.23/cv3.1/cv3.1.0/cv3.1.0.0/conv/Conv",
  "LayerType": "CaskConvolution",
  "Inputs": [
  {
    "Name": "/model.19/cv2/act/Mul_output_0",
    "Location": "Device",
    "Dimensions": [1,256,40,40],
    "Format/Datatype": "Channel major FP16 format where channel % 8 == 0"
  }],
  "Outputs": [
  {
    "Name": "/model.23/cv3.1/cv3.1.0/cv3.1.0.0/conv/Conv_output_0",
    "Location": "Device",
    "Dimensions": [1,256,40,40],
    "Format/Datatype": "Channel major FP16 format where channel % 8 == 0"
  }],
  "ParameterType": "Convolution",
  "Kernel": [3,3],
  "PaddingMode": "kEXPLICIT_ROUND_DOWN",
  "PrePadding": [1,1],
  "PostPadding": [1,1],
  "Stride": [1,1],
  "Dilation": [1,1],
  "OutMaps": 256,
  "Groups": 256,
  "Weights": {"Type": "Half", "Count": 2304},
  "Bias": {"Type": "Half", "Count": 256},
  "HasSparseWeights": 0,
  "HasDynamicFilter": 0,
  "HasDynamicBias": 0,
  "HasResidual": 0,
  "ConvXAsActInputIdx": -1,
  "BiasAsActInputIdx": -1,
  "ResAsActInputIdx": -1,
  "Activation": "NONE",
  "HasBias": 1,
  "HasReLU": 0,
  "TacticName": "sm50_xmma_convolution_depthwiseHMMA_FP16NHWCx8_TR3_TS3_STRIDEH1_STRIDEW1",
  "TacticValue": "0xf9f6e2e1b0fd88e6",
  "StreamId": 0,
  "Metadata": "[ONNX Layer: /model.23/cv3.1/cv3.1.0/cv3.1.0.0/conv/Conv]"
},{
  "Name": "Reformatting CopyNode for Input Tensor 0 to PWN(PWN(/model.23/cv3.1/cv3.1.0/cv3.1.0.0/act/Sigmoid), /model.23/cv3.1/cv3.1.0/cv3.1.0.0/act/Mul)",
  "LayerType": "NoOp",
  "Inputs": [
  {
    "Name": "/model.23/cv3.1/cv3.1.0/cv3.1.0.0/conv/Conv_output_0",
    "Location": "Device",
    "Dimensions": [1,256,40,40],
    "Format/Datatype": "Channel major FP16 format where channel % 8 == 0"
  }],
  "Outputs": [
  {
    "Name": "Reformatted Input Tensor 0 to PWN(PWN(/model.23/cv3.1/cv3.1.0/cv3.1.0.0/act/Sigmoid), /model.23/cv3.1/cv3.1.0/cv3.1.0.0/act/Mul)",
    "Location": "Device",
    "Dimensions": [1,256,40,40],
    "Format/Datatype": "Channel major FP16 format where channel % 16 == 0"
  }],
  "TacticValue": "0x0000000000000000",
  "StreamId": 0,
  "Metadata": ""
},{
  "Name": "PWN(PWN(/model.23/cv3.1/cv3.1.0/cv3.1.0.0/act/Sigmoid), /model.23/cv3.1/cv3.1.0/cv3.1.0.0/act/Mul)",
  "LayerType": "PointWiseV2",
  "Inputs": [
  {
    "Name": "Reformatted Input Tensor 0 to PWN(PWN(/model.23/cv3.1/cv3.1.0/cv3.1.0.0/act/Sigmoid), /model.23/cv3.1/cv3.1.0/cv3.1.0.0/act/Mul)",
    "Location": "Device",
    "Dimensions": [1,256,40,40],
    "Format/Datatype": "Channel major FP16 format where channel % 16 == 0"
  }],
  "Outputs": [
  {
    "Name": "/model.23/cv3.1/cv3.1.0/cv3.1.0.0/act/Mul_output_0",
    "Location": "Device",
    "Dimensions": [1,256,40,40],
    "Format/Datatype": "Channel major FP16 format where channel % 16 == 0"
  }],
  "ParameterType": "PointWise",
  "ParameterSubType": "PointWiseExpression",
  "NbInputArgs": 1,
  "InputArgs": ["arg0"],
  "NbOutputVars": 1,
  "OutputVars": ["var4"],
  "NbParams": 0,
  "Params": [],
  "NbLiterals": 5,
  "Literals": ["0.000000e+00f", "1.000000e+00f", "0.000000e+00f", "0.000000e+00f", "5.000000e-01f"],
  "NbOperations": 5,
  "Operations": ["auto const var0 = pwgen::iMul(literal4, arg0);", "auto const var1 = pwgen::iTanh(var0);", "auto const var2 = pwgen::iMul(var1, literal4);", "auto const var3 = pwgen::iPlus(var2, literal4);", "auto const var4 = pwgen::iMul(arg0, var3);"],
  "TacticValue": "0x000000000000001d",
  "StreamId": 0,
  "Metadata": "[ONNX Layer: /model.23/cv3.1/cv3.1.0/cv3.1.0.0/act/Sigmoid]\u001e[ONNX Layer: /model.23/cv3.1/cv3.1.0/cv3.1.0.0/act/Mul]"
},{
  "Name": "Reformatting CopyNode for Input Tensor 0 to /model.23/cv3.1/cv3.1.0/cv3.1.0.1/conv/Conv + PWN(PWN(/model.23/cv3.1/cv3.1.0/cv3.1.0.1/act/Sigmoid), /model.23/cv3.1/cv3.1.0/cv3.1.0.1/act/Mul)",
  "LayerType": "NoOp",
  "Inputs": [
  {
    "Name": "/model.23/cv3.1/cv3.1.0/cv3.1.0.0/act/Mul_output_0",
    "Location": "Device",
    "Dimensions": [1,256,40,40],
    "Format/Datatype": "Channel major FP16 format where channel % 16 == 0"
  }],
  "Outputs": [
  {
    "Name": "Reformatted Input Tensor 0 to /model.23/cv3.1/cv3.1.0/cv3.1.0.1/conv/Conv + PWN(PWN(/model.23/cv3.1/cv3.1.0/cv3.1.0.1/act/Sigmoid), /model.23/cv3.1/cv3.1.0/cv3.1.0.1/act/Mul)",
    "Location": "Device",
    "Dimensions": [1,256,40,40],
    "Format/Datatype": "Channel major FP16 format where channel % 8 == 0"
  }],
  "TacticValue": "0x0000000000000000",
  "StreamId": 0,
  "Metadata": ""
},{
  "Name": "/model.23/cv3.1/cv3.1.0/cv3.1.0.1/conv/Conv + PWN(PWN(/model.23/cv3.1/cv3.1.0/cv3.1.0.1/act/Sigmoid), /model.23/cv3.1/cv3.1.0/cv3.1.0.1/act/Mul)",
  "LayerType": "CaskConvolution",
  "Inputs": [
  {
    "Name": "Reformatted Input Tensor 0 to /model.23/cv3.1/cv3.1.0/cv3.1.0.1/conv/Conv + PWN(PWN(/model.23/cv3.1/cv3.1.0/cv3.1.0.1/act/Sigmoid), /model.23/cv3.1/cv3.1.0/cv3.1.0.1/act/Mul)",
    "Location": "Device",
    "Dimensions": [1,256,40,40],
    "Format/Datatype": "Channel major FP16 format where channel % 8 == 0"
  }],
  "Outputs": [
  {
    "Name": "/model.23/cv3.1/cv3.1.0/cv3.1.0.1/act/Mul_output_0",
    "Location": "Device",
    "Dimensions": [1,128,40,40],
    "Format/Datatype": "Channel major FP16 format where channel % 8 == 0"
  }],
  "ParameterType": "Convolution",
  "Kernel": [1,1],
  "PaddingMode": "kEXPLICIT_ROUND_DOWN",
  "PrePadding": [0,0],
  "PostPadding": [0,0],
  "Stride": [1,1],
  "Dilation": [1,1],
  "OutMaps": 128,
  "Groups": 1,
  "Weights": {"Type": "Half", "Count": 32768},
  "Bias": {"Type": "Half", "Count": 128},
  "HasSparseWeights": 0,
  "HasDynamicFilter": 0,
  "HasDynamicBias": 0,
  "HasResidual": 0,
  "ConvXAsActInputIdx": -1,
  "BiasAsActInputIdx": -1,
  "ResAsActInputIdx": -1,
  "Activation": "GENERIC",
  "ParameterSubType": "PointWiseExpression",
  "NbPointWiseExpressionInputArgs": 1,
  "PointWiseExpressionInputArgs": ["arg0"],
  "NbPointWiseExpressionOutputVars": 1,
  "PointWiseExpressionOutputVars": ["var4"],
  "NbPointWiseExpressionParams": 0,
  "PointWiseExpressionParams": [],
  "NbPointWiseExpressionLiterals": 5,
  "PointWiseExpressionLiterals": ["0.000000e+00f", "1.000000e+00f", "0.000000e+00f", "0.000000e+00f", "5.000000e-01f"],
  "NbPointWiseExpressionOperations": 5,
  "PointWiseExpressionOperations": ["auto const var0 = pwgen::iMul(literal4, arg0);", "auto const var1 = pwgen::iTanh(var0);", "auto const var2 = pwgen::iMul(var1, literal4);", "auto const var3 = pwgen::iPlus(var2, literal4);", "auto const var4 = pwgen::iMul(arg0, var3);"],
  "HasBias": 1,
  "HasReLU": 0,
  "TacticName": "sm80_xmma_fprop_implicit_gemm_f16f16_f16f16_f16_nhwckrsc_nhwc_tilesize128x32x32_stage4_warpsize4x1x1_g1_tensor16x8x16_simple_t1r1s1_linkable",
  "TacticValue": "0x83140fbc4d25e909",
  "StreamId": 0,
  "Metadata": "[ONNX Layer: /model.23/cv3.1/cv3.1.0/cv3.1.0.1/conv/Conv]\u001e[ONNX Layer: /model.23/cv3.1/cv3.1.0/cv3.1.0.1/act/Sigmoid]\u001e[ONNX Layer: /model.23/cv3.1/cv3.1.0/cv3.1.0.1/act/Mul]"
},{
  "Name": "/model.23/cv3.1/cv3.1.1/cv3.1.1.0/conv/Conv",
  "LayerType": "CaskConvolution",
  "Inputs": [
  {
    "Name": "/model.23/cv3.1/cv3.1.0/cv3.1.0.1/act/Mul_output_0",
    "Location": "Device",
    "Dimensions": [1,128,40,40],
    "Format/Datatype": "Channel major FP16 format where channel % 8 == 0"
  }],
  "Outputs": [
  {
    "Name": "/model.23/cv3.1/cv3.1.1/cv3.1.1.0/conv/Conv_output_0",
    "Location": "Device",
    "Dimensions": [1,128,40,40],
    "Format/Datatype": "Channel major FP16 format where channel % 8 == 0"
  }],
  "ParameterType": "Convolution",
  "Kernel": [3,3],
  "PaddingMode": "kEXPLICIT_ROUND_DOWN",
  "PrePadding": [1,1],
  "PostPadding": [1,1],
  "Stride": [1,1],
  "Dilation": [1,1],
  "OutMaps": 128,
  "Groups": 128,
  "Weights": {"Type": "Half", "Count": 1152},
  "Bias": {"Type": "Half", "Count": 128},
  "HasSparseWeights": 0,
  "HasDynamicFilter": 0,
  "HasDynamicBias": 0,
  "HasResidual": 0,
  "ConvXAsActInputIdx": -1,
  "BiasAsActInputIdx": -1,
  "ResAsActInputIdx": -1,
  "Activation": "NONE",
  "HasBias": 1,
  "HasReLU": 0,
  "TacticName": "sm50_xmma_convolution_depthwiseHMMA_FP16NHWCx8_TR_TS_STRIDEH_STRIDEW",
  "TacticValue": "0x64275a11c9ed1722",
  "StreamId": 0,
  "Metadata": "[ONNX Layer: /model.23/cv3.1/cv3.1.1/cv3.1.1.0/conv/Conv]"
},{
  "Name": "PWN(PWN(/model.23/cv3.1/cv3.1.1/cv3.1.1.0/act/Sigmoid), /model.23/cv3.1/cv3.1.1/cv3.1.1.0/act/Mul)",
  "LayerType": "PointWiseV2",
  "Inputs": [
  {
    "Name": "/model.23/cv3.1/cv3.1.1/cv3.1.1.0/conv/Conv_output_0",
    "Location": "Device",
    "Dimensions": [1,128,40,40],
    "Format/Datatype": "Channel major FP16 format where channel % 8 == 0"
  }],
  "Outputs": [
  {
    "Name": "/model.23/cv3.1/cv3.1.1/cv3.1.1.0/act/Mul_output_0",
    "Location": "Device",
    "Dimensions": [1,128,40,40],
    "Format/Datatype": "Channel major FP16 format where channel % 8 == 0"
  }],
  "ParameterType": "PointWise",
  "ParameterSubType": "PointWiseExpression",
  "NbInputArgs": 1,
  "InputArgs": ["arg0"],
  "NbOutputVars": 1,
  "OutputVars": ["var4"],
  "NbParams": 0,
  "Params": [],
  "NbLiterals": 5,
  "Literals": ["0.000000e+00f", "1.000000e+00f", "0.000000e+00f", "0.000000e+00f", "5.000000e-01f"],
  "NbOperations": 5,
  "Operations": ["auto const var0 = pwgen::iMul(literal4, arg0);", "auto const var1 = pwgen::iTanh(var0);", "auto const var2 = pwgen::iMul(var1, literal4);", "auto const var3 = pwgen::iPlus(var2, literal4);", "auto const var4 = pwgen::iMul(arg0, var3);"],
  "TacticValue": "0x0000000000000000",
  "StreamId": 0,
  "Metadata": "[ONNX Layer: /model.23/cv3.1/cv3.1.1/cv3.1.1.0/act/Sigmoid]\u001e[ONNX Layer: /model.23/cv3.1/cv3.1.1/cv3.1.1.0/act/Mul]"
},{
  "Name": "/model.23/cv3.1/cv3.1.1/cv3.1.1.1/conv/Conv + PWN(PWN(/model.23/cv3.1/cv3.1.1/cv3.1.1.1/act/Sigmoid), /model.23/cv3.1/cv3.1.1/cv3.1.1.1/act/Mul)",
  "LayerType": "CaskConvolution",
  "Inputs": [
  {
    "Name": "/model.23/cv3.1/cv3.1.1/cv3.1.1.0/act/Mul_output_0",
    "Location": "Device",
    "Dimensions": [1,128,40,40],
    "Format/Datatype": "Channel major FP16 format where channel % 8 == 0"
  }],
  "Outputs": [
  {
    "Name": "/model.23/cv3.1/cv3.1.1/cv3.1.1.1/act/Mul_output_0",
    "Location": "Device",
    "Dimensions": [1,128,40,40],
    "Format/Datatype": "Channel major FP16 format where channel % 8 == 0"
  }],
  "ParameterType": "Convolution",
  "Kernel": [1,1],
  "PaddingMode": "kEXPLICIT_ROUND_DOWN",
  "PrePadding": [0,0],
  "PostPadding": [0,0],
  "Stride": [1,1],
  "Dilation": [1,1],
  "OutMaps": 128,
  "Groups": 1,
  "Weights": {"Type": "Half", "Count": 16384},
  "Bias": {"Type": "Half", "Count": 128},
  "HasSparseWeights": 0,
  "HasDynamicFilter": 0,
  "HasDynamicBias": 0,
  "HasResidual": 0,
  "ConvXAsActInputIdx": -1,
  "BiasAsActInputIdx": -1,
  "ResAsActInputIdx": -1,
  "Activation": "GENERIC",
  "ParameterSubType": "PointWiseExpression",
  "NbPointWiseExpressionInputArgs": 1,
  "PointWiseExpressionInputArgs": ["arg0"],
  "NbPointWiseExpressionOutputVars": 1,
  "PointWiseExpressionOutputVars": ["var4"],
  "NbPointWiseExpressionParams": 0,
  "PointWiseExpressionParams": [],
  "NbPointWiseExpressionLiterals": 5,
  "PointWiseExpressionLiterals": ["0.000000e+00f", "1.000000e+00f", "0.000000e+00f", "0.000000e+00f", "5.000000e-01f"],
  "NbPointWiseExpressionOperations": 5,
  "PointWiseExpressionOperations": ["auto const var0 = pwgen::iMul(literal4, arg0);", "auto const var1 = pwgen::iTanh(var0);", "auto const var2 = pwgen::iMul(var1, literal4);", "auto const var3 = pwgen::iPlus(var2, literal4);", "auto const var4 = pwgen::iMul(arg0, var3);"],
  "HasBias": 1,
  "HasReLU": 0,
  "TacticName": "sm80_xmma_fprop_implicit_gemm_f16f16_f16f16_f16_nhwckrsc_nhwc_tilesize128x32x32_stage4_warpsize4x1x1_g1_tensor16x8x16_simple_t1r1s1_linkable",
  "TacticValue": "0x83140fbc4d25e909",
  "StreamId": 0,
  "Metadata": "[ONNX Layer: /model.23/cv3.1/cv3.1.1/cv3.1.1.1/conv/Conv]\u001e[ONNX Layer: /model.23/cv3.1/cv3.1.1/cv3.1.1.1/act/Sigmoid]\u001e[ONNX Layer: /model.23/cv3.1/cv3.1.1/cv3.1.1.1/act/Mul]"
},{
  "Name": "/model.23/cv3.1/cv3.1.2/Conv",
  "LayerType": "CaskGemmConvolution",
  "Inputs": [
  {
    "Name": "/model.23/cv3.1/cv3.1.1/cv3.1.1.1/act/Mul_output_0",
    "Location": "Device",
    "Dimensions": [1,128,40,40],
    "Format/Datatype": "Channel major FP16 format where channel % 8 == 0"
  }],
  "Outputs": [
  {
    "Name": "/model.23/Concat_1_output_0",
    "Location": "Device",
    "Dimensions": [1,80,40,40],
    "Format/Datatype": "Channel major FP16 format where channel % 8 == 0"
  }],
  "ParameterType": "Convolution",
  "Kernel": [1,1],
  "PaddingMode": "kEXPLICIT_ROUND_DOWN",
  "PrePadding": [0,0],
  "PostPadding": [0,0],
  "Stride": [1,1],
  "Dilation": [1,1],
  "OutMaps": 80,
  "Groups": 1,
  "Weights": {"Type": "Half", "Count": 10240},
  "Bias": {"Type": "Half", "Count": 80},
  "HasSparseWeights": 0,
  "HasDynamicFilter": 0,
  "HasDynamicBias": 0,
  "HasResidual": 0,
  "ConvXAsActInputIdx": -1,
  "BiasAsActInputIdx": -1,
  "ResAsActInputIdx": -1,
  "Activation": "NONE",
  "TacticName": "ampere_h16816gemm_64x64_ldg8_relu_stages_64x5_tn_v1",
  "TacticValue": "0x000000000002075d",
  "StreamId": 0,
  "Metadata": "[ONNX Layer: /model.23/cv3.1/cv3.1.2/Conv]"
},{
  "Name": "/model.23/Reshape_1",
  "LayerType": "Shuffle",
  "Inputs": [
  {
    "Name": "/model.23/Concat_1_output_0",
    "Location": "Device",
    "Dimensions": [1,144,40,40],
    "Format/Datatype": "Channel major FP16 format where channel % 8 == 0"
  }],
  "Outputs": [
  {
    "Name": "/model.23/Reshape_1_copy_output",
    "Location": "Device",
    "Dimensions": [1,144,1600],
    "Format/Datatype": "Row major linear FP16 format"
  }],
  "ParameterType": "Shuffle",
  "FirstTranspose": [0,1,2,3],
  "Reshape": [1,144,-1],
  "SecondTranspose": [0,1,2],
  "ZeroIsPlaceholder": 1,
  "TacticValue": "0x0000000000000000",
  "StreamId": 0,
  "Metadata": "[ONNX Layer: /model.23/Reshape_1]"
},{
  "Name": "/model.23/Reshape_1_copy_output",
  "LayerType": "Reformat",
  "Inputs": [
  {
    "Name": "/model.23/Reshape_1_copy_output",
    "Location": "Device",
    "Dimensions": [1,144,1600],
    "Format/Datatype": "Row major linear FP16 format"
  }],
  "Outputs": [
  {
    "Name": "/model.23/Concat_3_output_0",
    "Location": "Device",
    "Dimensions": [1,144,1600],
    "Format/Datatype": "Row major linear FP32"
  }],
  "ParameterType": "Reformat",
  "Origin": "CONCAT",
  "TacticValue": "0x0000000000000000",
  "StreamId": 0,
  "Metadata": "[ONNX Layer: /model.23/Reshape_1]"
},{
  "Name": "/model.23/cv2.0/cv2.0.0/conv/Conv + PWN(PWN(/model.23/cv2.0/cv2.0.0/act/Sigmoid), /model.23/cv2.0/cv2.0.0/act/Mul)",
  "LayerType": "CaskConvolution",
  "Inputs": [
  {
    "Name": "/model.16/cv2/act/Mul_output_0",
    "Location": "Device",
    "Dimensions": [1,128,80,80],
    "Format/Datatype": "Channel major FP16 format where channel % 8 == 0"
  }],
  "Outputs": [
  {
    "Name": "/model.23/cv2.0/cv2.0.0/act/Mul_output_0",
    "Location": "Device",
    "Dimensions": [1,64,80,80],
    "Format/Datatype": "Channel major FP16 format where channel % 8 == 0"
  }],
  "ParameterType": "Convolution",
  "Kernel": [3,3],
  "PaddingMode": "kEXPLICIT_ROUND_DOWN",
  "PrePadding": [1,1],
  "PostPadding": [1,1],
  "Stride": [1,1],
  "Dilation": [1,1],
  "OutMaps": 64,
  "Groups": 1,
  "Weights": {"Type": "Half", "Count": 73728},
  "Bias": {"Type": "Half", "Count": 64},
  "HasSparseWeights": 0,
  "HasDynamicFilter": 0,
  "HasDynamicBias": 0,
  "HasResidual": 0,
  "ConvXAsActInputIdx": -1,
  "BiasAsActInputIdx": -1,
  "ResAsActInputIdx": -1,
  "Activation": "GENERIC",
  "ParameterSubType": "PointWiseExpression",
  "NbPointWiseExpressionInputArgs": 1,
  "PointWiseExpressionInputArgs": ["arg0"],
  "NbPointWiseExpressionOutputVars": 1,
  "PointWiseExpressionOutputVars": ["var4"],
  "NbPointWiseExpressionParams": 0,
  "PointWiseExpressionParams": [],
  "NbPointWiseExpressionLiterals": 5,
  "PointWiseExpressionLiterals": ["0.000000e+00f", "1.000000e+00f", "0.000000e+00f", "0.000000e+00f", "5.000000e-01f"],
  "NbPointWiseExpressionOperations": 5,
  "PointWiseExpressionOperations": ["auto const var0 = pwgen::iMul(literal4, arg0);", "auto const var1 = pwgen::iTanh(var0);", "auto const var2 = pwgen::iMul(var1, literal4);", "auto const var3 = pwgen::iPlus(var2, literal4);", "auto const var4 = pwgen::iMul(arg0, var3);"],
  "HasBias": 1,
  "HasReLU": 0,
  "TacticName": "sm80_xmma_fprop_implicit_gemm_f16f16_f16f16_f16_nhwckrsc_nhwc_tilesize128x64x32_stage5_warpsize2x2x1_g1_tensor16x8x16_linkable",
  "TacticValue": "0x7addc91c432117b9",
  "StreamId": 0,
  "Metadata": "[ONNX Layer: /model.23/cv2.0/cv2.0.0/conv/Conv]\u001e[ONNX Layer: /model.23/cv2.0/cv2.0.0/act/Sigmoid]\u001e[ONNX Layer: /model.23/cv2.0/cv2.0.0/act/Mul]"
},{
  "Name": "/model.23/cv2.0/cv2.0.1/conv/Conv + PWN(PWN(/model.23/cv2.0/cv2.0.1/act/Sigmoid), /model.23/cv2.0/cv2.0.1/act/Mul)",
  "LayerType": "CaskConvolution",
  "Inputs": [
  {
    "Name": "/model.23/cv2.0/cv2.0.0/act/Mul_output_0",
    "Location": "Device",
    "Dimensions": [1,64,80,80],
    "Format/Datatype": "Channel major FP16 format where channel % 8 == 0"
  }],
  "Outputs": [
  {
    "Name": "/model.23/cv2.0/cv2.0.1/act/Mul_output_0",
    "Location": "Device",
    "Dimensions": [1,64,80,80],
    "Format/Datatype": "Channel major FP16 format where channel % 8 == 0"
  }],
  "ParameterType": "Convolution",
  "Kernel": [3,3],
  "PaddingMode": "kEXPLICIT_ROUND_DOWN",
  "PrePadding": [1,1],
  "PostPadding": [1,1],
  "Stride": [1,1],
  "Dilation": [1,1],
  "OutMaps": 64,
  "Groups": 1,
  "Weights": {"Type": "Half", "Count": 36864},
  "Bias": {"Type": "Half", "Count": 64},
  "HasSparseWeights": 0,
  "HasDynamicFilter": 0,
  "HasDynamicBias": 0,
  "HasResidual": 0,
  "ConvXAsActInputIdx": -1,
  "BiasAsActInputIdx": -1,
  "ResAsActInputIdx": -1,
  "Activation": "GENERIC",
  "ParameterSubType": "PointWiseExpression",
  "NbPointWiseExpressionInputArgs": 1,
  "PointWiseExpressionInputArgs": ["arg0"],
  "NbPointWiseExpressionOutputVars": 1,
  "PointWiseExpressionOutputVars": ["var4"],
  "NbPointWiseExpressionParams": 0,
  "PointWiseExpressionParams": [],
  "NbPointWiseExpressionLiterals": 5,
  "PointWiseExpressionLiterals": ["0.000000e+00f", "1.000000e+00f", "0.000000e+00f", "0.000000e+00f", "5.000000e-01f"],
  "NbPointWiseExpressionOperations": 5,
  "PointWiseExpressionOperations": ["auto const var0 = pwgen::iMul(literal4, arg0);", "auto const var1 = pwgen::iTanh(var0);", "auto const var2 = pwgen::iMul(var1, literal4);", "auto const var3 = pwgen::iPlus(var2, literal4);", "auto const var4 = pwgen::iMul(arg0, var3);"],
  "HasBias": 1,
  "HasReLU": 0,
  "TacticName": "sm80_xmma_fprop_implicit_gemm_f16f16_f16f16_f16_nhwckrsc_nhwc_tilesize128x64x32_stage5_warpsize2x2x1_g1_tensor16x8x16_linkable",
  "TacticValue": "0x7addc91c432117b9",
  "StreamId": 0,
  "Metadata": "[ONNX Layer: /model.23/cv2.0/cv2.0.1/conv/Conv]\u001e[ONNX Layer: /model.23/cv2.0/cv2.0.1/act/Sigmoid]\u001e[ONNX Layer: /model.23/cv2.0/cv2.0.1/act/Mul]"
},{
  "Name": "/model.23/cv2.0/cv2.0.2/Conv",
  "LayerType": "CaskGemmConvolution",
  "Inputs": [
  {
    "Name": "/model.23/cv2.0/cv2.0.1/act/Mul_output_0",
    "Location": "Device",
    "Dimensions": [1,64,80,80],
    "Format/Datatype": "Channel major FP16 format where channel % 8 == 0"
  }],
  "Outputs": [
  {
    "Name": "/model.23/Concat_output_0",
    "Location": "Device",
    "Dimensions": [1,64,80,80],
    "Format/Datatype": "Channel major FP16 format where channel % 8 == 0"
  }],
  "ParameterType": "Convolution",
  "Kernel": [1,1],
  "PaddingMode": "kEXPLICIT_ROUND_DOWN",
  "PrePadding": [0,0],
  "PostPadding": [0,0],
  "Stride": [1,1],
  "Dilation": [1,1],
  "OutMaps": 64,
  "Groups": 1,
  "Weights": {"Type": "Half", "Count": 4096},
  "Bias": {"Type": "Half", "Count": 64},
  "HasSparseWeights": 0,
  "HasDynamicFilter": 0,
  "HasDynamicBias": 0,
  "HasResidual": 0,
  "ConvXAsActInputIdx": -1,
  "BiasAsActInputIdx": -1,
  "ResAsActInputIdx": -1,
  "Activation": "NONE",
  "TacticName": "sm80_xmma_gemm_f16f16_f16f16_f16_nn_n_tilesize128x64x32_stage5_warpsize2x2x1_tensor16x8x16",
  "TacticValue": "0x000000000002070d",
  "StreamId": 0,
  "Metadata": "[ONNX Layer: /model.23/cv2.0/cv2.0.2/Conv]"
},{
  "Name": "/model.23/cv3.0/cv3.0.0/cv3.0.0.0/conv/Conv",
  "LayerType": "CaskConvolution",
  "Inputs": [
  {
    "Name": "/model.16/cv2/act/Mul_output_0",
    "Location": "Device",
    "Dimensions": [1,128,80,80],
    "Format/Datatype": "Channel major FP16 format where channel % 8 == 0"
  }],
  "Outputs": [
  {
    "Name": "/model.23/cv3.0/cv3.0.0/cv3.0.0.0/conv/Conv_output_0",
    "Location": "Device",
    "Dimensions": [1,128,80,80],
    "Format/Datatype": "Channel major FP16 format where channel % 8 == 0"
  }],
  "ParameterType": "Convolution",
  "Kernel": [3,3],
  "PaddingMode": "kEXPLICIT_ROUND_DOWN",
  "PrePadding": [1,1],
  "PostPadding": [1,1],
  "Stride": [1,1],
  "Dilation": [1,1],
  "OutMaps": 128,
  "Groups": 128,
  "Weights": {"Type": "Half", "Count": 1152},
  "Bias": {"Type": "Half", "Count": 128},
  "HasSparseWeights": 0,
  "HasDynamicFilter": 0,
  "HasDynamicBias": 0,
  "HasResidual": 0,
  "ConvXAsActInputIdx": -1,
  "BiasAsActInputIdx": -1,
  "ResAsActInputIdx": -1,
  "Activation": "NONE",
  "HasBias": 1,
  "HasReLU": 0,
  "TacticName": "sm50_xmma_convolution_depthwiseHMMA_FP16NHWCx8_TR3_TS3_STRIDEH1_STRIDEW1",
  "TacticValue": "0xf9f6e2e1b0fd88e6",
  "StreamId": 0,
  "Metadata": "[ONNX Layer: /model.23/cv3.0/cv3.0.0/cv3.0.0.0/conv/Conv]"
},{
  "Name": "Reformatting CopyNode for Input Tensor 0 to PWN(PWN(/model.23/cv3.0/cv3.0.0/cv3.0.0.0/act/Sigmoid), /model.23/cv3.0/cv3.0.0/cv3.0.0.0/act/Mul)",
  "LayerType": "NoOp",
  "Inputs": [
  {
    "Name": "/model.23/cv3.0/cv3.0.0/cv3.0.0.0/conv/Conv_output_0",
    "Location": "Device",
    "Dimensions": [1,128,80,80],
    "Format/Datatype": "Channel major FP16 format where channel % 8 == 0"
  }],
  "Outputs": [
  {
    "Name": "Reformatted Input Tensor 0 to PWN(PWN(/model.23/cv3.0/cv3.0.0/cv3.0.0.0/act/Sigmoid), /model.23/cv3.0/cv3.0.0/cv3.0.0.0/act/Mul)",
    "Location": "Device",
    "Dimensions": [1,128,80,80],
    "Format/Datatype": "Channel major FP16 format where channel % 2 == 0"
  }],
  "TacticValue": "0x0000000000000000",
  "StreamId": 0,
  "Metadata": ""
},{
  "Name": "PWN(PWN(/model.23/cv3.0/cv3.0.0/cv3.0.0.0/act/Sigmoid), /model.23/cv3.0/cv3.0.0/cv3.0.0.0/act/Mul)",
  "LayerType": "PointWiseV2",
  "Inputs": [
  {
    "Name": "Reformatted Input Tensor 0 to PWN(PWN(/model.23/cv3.0/cv3.0.0/cv3.0.0.0/act/Sigmoid), /model.23/cv3.0/cv3.0.0/cv3.0.0.0/act/Mul)",
    "Location": "Device",
    "Dimensions": [1,128,80,80],
    "Format/Datatype": "Channel major FP16 format where channel % 2 == 0"
  }],
  "Outputs": [
  {
    "Name": "/model.23/cv3.0/cv3.0.0/cv3.0.0.0/act/Mul_output_0",
    "Location": "Device",
    "Dimensions": [1,128,80,80],
    "Format/Datatype": "Channel major FP16 format where channel % 2 == 0"
  }],
  "ParameterType": "PointWise",
  "ParameterSubType": "PointWiseExpression",
  "NbInputArgs": 1,
  "InputArgs": ["arg0"],
  "NbOutputVars": 1,
  "OutputVars": ["var4"],
  "NbParams": 0,
  "Params": [],
  "NbLiterals": 5,
  "Literals": ["0.000000e+00f", "1.000000e+00f", "0.000000e+00f", "0.000000e+00f", "5.000000e-01f"],
  "NbOperations": 5,
  "Operations": ["auto const var0 = pwgen::iMul(literal4, arg0);", "auto const var1 = pwgen::iTanh(var0);", "auto const var2 = pwgen::iMul(var1, literal4);", "auto const var3 = pwgen::iPlus(var2, literal4);", "auto const var4 = pwgen::iMul(arg0, var3);"],
  "TacticValue": "0x0000000000000011",
  "StreamId": 0,
  "Metadata": "[ONNX Layer: /model.23/cv3.0/cv3.0.0/cv3.0.0.0/act/Sigmoid]\u001e[ONNX Layer: /model.23/cv3.0/cv3.0.0/cv3.0.0.0/act/Mul]"
},{
  "Name": "Reformatting CopyNode for Input Tensor 0 to /model.23/cv3.0/cv3.0.0/cv3.0.0.1/conv/Conv + PWN(PWN(/model.23/cv3.0/cv3.0.0/cv3.0.0.1/act/Sigmoid), /model.23/cv3.0/cv3.0.0/cv3.0.0.1/act/Mul)",
  "LayerType": "NoOp",
  "Inputs": [
  {
    "Name": "/model.23/cv3.0/cv3.0.0/cv3.0.0.0/act/Mul_output_0",
    "Location": "Device",
    "Dimensions": [1,128,80,80],
    "Format/Datatype": "Channel major FP16 format where channel % 2 == 0"
  }],
  "Outputs": [
  {
    "Name": "Reformatted Input Tensor 0 to /model.23/cv3.0/cv3.0.0/cv3.0.0.1/conv/Conv + PWN(PWN(/model.23/cv3.0/cv3.0.0/cv3.0.0.1/act/Sigmoid), /model.23/cv3.0/cv3.0.0/cv3.0.0.1/act/Mul)",
    "Location": "Device",
    "Dimensions": [1,128,80,80],
    "Format/Datatype": "Channel major FP16 format where channel % 8 == 0"
  }],
  "TacticValue": "0x0000000000000000",
  "StreamId": 0,
  "Metadata": ""
},{
  "Name": "/model.23/cv3.0/cv3.0.0/cv3.0.0.1/conv/Conv + PWN(PWN(/model.23/cv3.0/cv3.0.0/cv3.0.0.1/act/Sigmoid), /model.23/cv3.0/cv3.0.0/cv3.0.0.1/act/Mul)",
  "LayerType": "CaskConvolution",
  "Inputs": [
  {
    "Name": "Reformatted Input Tensor 0 to /model.23/cv3.0/cv3.0.0/cv3.0.0.1/conv/Conv + PWN(PWN(/model.23/cv3.0/cv3.0.0/cv3.0.0.1/act/Sigmoid), /model.23/cv3.0/cv3.0.0/cv3.0.0.1/act/Mul)",
    "Location": "Device",
    "Dimensions": [1,128,80,80],
    "Format/Datatype": "Channel major FP16 format where channel % 8 == 0"
  }],
  "Outputs": [
  {
    "Name": "/model.23/cv3.0/cv3.0.0/cv3.0.0.1/act/Mul_output_0",
    "Location": "Device",
    "Dimensions": [1,128,80,80],
    "Format/Datatype": "Channel major FP16 format where channel % 8 == 0"
  }],
  "ParameterType": "Convolution",
  "Kernel": [1,1],
  "PaddingMode": "kEXPLICIT_ROUND_DOWN",
  "PrePadding": [0,0],
  "PostPadding": [0,0],
  "Stride": [1,1],
  "Dilation": [1,1],
  "OutMaps": 128,
  "Groups": 1,
  "Weights": {"Type": "Half", "Count": 16384},
  "Bias": {"Type": "Half", "Count": 128},
  "HasSparseWeights": 0,
  "HasDynamicFilter": 0,
  "HasDynamicBias": 0,
  "HasResidual": 0,
  "ConvXAsActInputIdx": -1,
  "BiasAsActInputIdx": -1,
  "ResAsActInputIdx": -1,
  "Activation": "GENERIC",
  "ParameterSubType": "PointWiseExpression",
  "NbPointWiseExpressionInputArgs": 1,
  "PointWiseExpressionInputArgs": ["arg0"],
  "NbPointWiseExpressionOutputVars": 1,
  "PointWiseExpressionOutputVars": ["var4"],
  "NbPointWiseExpressionParams": 0,
  "PointWiseExpressionParams": [],
  "NbPointWiseExpressionLiterals": 5,
  "PointWiseExpressionLiterals": ["0.000000e+00f", "1.000000e+00f", "0.000000e+00f", "0.000000e+00f", "5.000000e-01f"],
  "NbPointWiseExpressionOperations": 5,
  "PointWiseExpressionOperations": ["auto const var0 = pwgen::iMul(literal4, arg0);", "auto const var1 = pwgen::iTanh(var0);", "auto const var2 = pwgen::iMul(var1, literal4);", "auto const var3 = pwgen::iPlus(var2, literal4);", "auto const var4 = pwgen::iMul(arg0, var3);"],
  "HasBias": 1,
  "HasReLU": 0,
  "TacticName": "sm80_xmma_fprop_implicit_gemm_f16f16_f16f16_f16_nhwckrsc_nhwc_tilesize128x128x32_stage4_warpsize2x2x1_g1_tensor16x8x16_t1r1s1_linkable",
  "TacticValue": "0x5692ab284b03c90b",
  "StreamId": 0,
  "Metadata": "[ONNX Layer: /model.23/cv3.0/cv3.0.0/cv3.0.0.1/conv/Conv]\u001e[ONNX Layer: /model.23/cv3.0/cv3.0.0/cv3.0.0.1/act/Sigmoid]\u001e[ONNX Layer: /model.23/cv3.0/cv3.0.0/cv3.0.0.1/act/Mul]"
},{
  "Name": "/model.23/cv3.0/cv3.0.1/cv3.0.1.0/conv/Conv",
  "LayerType": "CaskConvolution",
  "Inputs": [
  {
    "Name": "/model.23/cv3.0/cv3.0.0/cv3.0.0.1/act/Mul_output_0",
    "Location": "Device",
    "Dimensions": [1,128,80,80],
    "Format/Datatype": "Channel major FP16 format where channel % 8 == 0"
  }],
  "Outputs": [
  {
    "Name": "/model.23/cv3.0/cv3.0.1/cv3.0.1.0/conv/Conv_output_0",
    "Location": "Device",
    "Dimensions": [1,128,80,80],
    "Format/Datatype": "Channel major FP16 format where channel % 8 == 0"
  }],
  "ParameterType": "Convolution",
  "Kernel": [3,3],
  "PaddingMode": "kEXPLICIT_ROUND_DOWN",
  "PrePadding": [1,1],
  "PostPadding": [1,1],
  "Stride": [1,1],
  "Dilation": [1,1],
  "OutMaps": 128,
  "Groups": 128,
  "Weights": {"Type": "Half", "Count": 1152},
  "Bias": {"Type": "Half", "Count": 128},
  "HasSparseWeights": 0,
  "HasDynamicFilter": 0,
  "HasDynamicBias": 0,
  "HasResidual": 0,
  "ConvXAsActInputIdx": -1,
  "BiasAsActInputIdx": -1,
  "ResAsActInputIdx": -1,
  "Activation": "NONE",
  "HasBias": 1,
  "HasReLU": 0,
  "TacticName": "sm50_xmma_convolution_depthwiseHMMA_FP16NHWCx8_TR3_TS3_STRIDEH1_STRIDEW1",
  "TacticValue": "0xf9f6e2e1b0fd88e6",
  "StreamId": 0,
  "Metadata": "[ONNX Layer: /model.23/cv3.0/cv3.0.1/cv3.0.1.0/conv/Conv]"
},{
  "Name": "Reformatting CopyNode for Input Tensor 0 to PWN(PWN(/model.23/cv3.0/cv3.0.1/cv3.0.1.0/act/Sigmoid), /model.23/cv3.0/cv3.0.1/cv3.0.1.0/act/Mul)",
  "LayerType": "NoOp",
  "Inputs": [
  {
    "Name": "/model.23/cv3.0/cv3.0.1/cv3.0.1.0/conv/Conv_output_0",
    "Location": "Device",
    "Dimensions": [1,128,80,80],
    "Format/Datatype": "Channel major FP16 format where channel % 8 == 0"
  }],
  "Outputs": [
  {
    "Name": "Reformatted Input Tensor 0 to PWN(PWN(/model.23/cv3.0/cv3.0.1/cv3.0.1.0/act/Sigmoid), /model.23/cv3.0/cv3.0.1/cv3.0.1.0/act/Mul)",
    "Location": "Device",
    "Dimensions": [1,128,80,80],
    "Format/Datatype": "Channel major FP16 format where channel % 2 == 0"
  }],
  "TacticValue": "0x0000000000000000",
  "StreamId": 0,
  "Metadata": ""
},{
  "Name": "PWN(PWN(/model.23/cv3.0/cv3.0.1/cv3.0.1.0/act/Sigmoid), /model.23/cv3.0/cv3.0.1/cv3.0.1.0/act/Mul)",
  "LayerType": "PointWiseV2",
  "Inputs": [
  {
    "Name": "Reformatted Input Tensor 0 to PWN(PWN(/model.23/cv3.0/cv3.0.1/cv3.0.1.0/act/Sigmoid), /model.23/cv3.0/cv3.0.1/cv3.0.1.0/act/Mul)",
    "Location": "Device",
    "Dimensions": [1,128,80,80],
    "Format/Datatype": "Channel major FP16 format where channel % 2 == 0"
  }],
  "Outputs": [
  {
    "Name": "/model.23/cv3.0/cv3.0.1/cv3.0.1.0/act/Mul_output_0",
    "Location": "Device",
    "Dimensions": [1,128,80,80],
    "Format/Datatype": "Channel major FP16 format where channel % 2 == 0"
  }],
  "ParameterType": "PointWise",
  "ParameterSubType": "PointWiseExpression",
  "NbInputArgs": 1,
  "InputArgs": ["arg0"],
  "NbOutputVars": 1,
  "OutputVars": ["var4"],
  "NbParams": 0,
  "Params": [],
  "NbLiterals": 5,
  "Literals": ["0.000000e+00f", "1.000000e+00f", "0.000000e+00f", "0.000000e+00f", "5.000000e-01f"],
  "NbOperations": 5,
  "Operations": ["auto const var0 = pwgen::iMul(literal4, arg0);", "auto const var1 = pwgen::iTanh(var0);", "auto const var2 = pwgen::iMul(var1, literal4);", "auto const var3 = pwgen::iPlus(var2, literal4);", "auto const var4 = pwgen::iMul(arg0, var3);"],
  "TacticValue": "0x0000000000000011",
  "StreamId": 0,
  "Metadata": "[ONNX Layer: /model.23/cv3.0/cv3.0.1/cv3.0.1.0/act/Sigmoid]\u001e[ONNX Layer: /model.23/cv3.0/cv3.0.1/cv3.0.1.0/act/Mul]"
},{
  "Name": "Reformatting CopyNode for Input Tensor 0 to /model.23/cv3.0/cv3.0.1/cv3.0.1.1/conv/Conv + PWN(PWN(/model.23/cv3.0/cv3.0.1/cv3.0.1.1/act/Sigmoid), /model.23/cv3.0/cv3.0.1/cv3.0.1.1/act/Mul)",
  "LayerType": "NoOp",
  "Inputs": [
  {
    "Name": "/model.23/cv3.0/cv3.0.1/cv3.0.1.0/act/Mul_output_0",
    "Location": "Device",
    "Dimensions": [1,128,80,80],
    "Format/Datatype": "Channel major FP16 format where channel % 2 == 0"
  }],
  "Outputs": [
  {
    "Name": "Reformatted Input Tensor 0 to /model.23/cv3.0/cv3.0.1/cv3.0.1.1/conv/Conv + PWN(PWN(/model.23/cv3.0/cv3.0.1/cv3.0.1.1/act/Sigmoid), /model.23/cv3.0/cv3.0.1/cv3.0.1.1/act/Mul)",
    "Location": "Device",
    "Dimensions": [1,128,80,80],
    "Format/Datatype": "Channel major FP16 format where channel % 8 == 0"
  }],
  "TacticValue": "0x0000000000000000",
  "StreamId": 0,
  "Metadata": ""
},{
  "Name": "/model.23/cv3.0/cv3.0.1/cv3.0.1.1/conv/Conv + PWN(PWN(/model.23/cv3.0/cv3.0.1/cv3.0.1.1/act/Sigmoid), /model.23/cv3.0/cv3.0.1/cv3.0.1.1/act/Mul)",
  "LayerType": "CaskConvolution",
  "Inputs": [
  {
    "Name": "Reformatted Input Tensor 0 to /model.23/cv3.0/cv3.0.1/cv3.0.1.1/conv/Conv + PWN(PWN(/model.23/cv3.0/cv3.0.1/cv3.0.1.1/act/Sigmoid), /model.23/cv3.0/cv3.0.1/cv3.0.1.1/act/Mul)",
    "Location": "Device",
    "Dimensions": [1,128,80,80],
    "Format/Datatype": "Channel major FP16 format where channel % 8 == 0"
  }],
  "Outputs": [
  {
    "Name": "/model.23/cv3.0/cv3.0.1/cv3.0.1.1/act/Mul_output_0",
    "Location": "Device",
    "Dimensions": [1,128,80,80],
    "Format/Datatype": "Channel major FP16 format where channel % 8 == 0"
  }],
  "ParameterType": "Convolution",
  "Kernel": [1,1],
  "PaddingMode": "kEXPLICIT_ROUND_DOWN",
  "PrePadding": [0,0],
  "PostPadding": [0,0],
  "Stride": [1,1],
  "Dilation": [1,1],
  "OutMaps": 128,
  "Groups": 1,
  "Weights": {"Type": "Half", "Count": 16384},
  "Bias": {"Type": "Half", "Count": 128},
  "HasSparseWeights": 0,
  "HasDynamicFilter": 0,
  "HasDynamicBias": 0,
  "HasResidual": 0,
  "ConvXAsActInputIdx": -1,
  "BiasAsActInputIdx": -1,
  "ResAsActInputIdx": -1,
  "Activation": "GENERIC",
  "ParameterSubType": "PointWiseExpression",
  "NbPointWiseExpressionInputArgs": 1,
  "PointWiseExpressionInputArgs": ["arg0"],
  "NbPointWiseExpressionOutputVars": 1,
  "PointWiseExpressionOutputVars": ["var4"],
  "NbPointWiseExpressionParams": 0,
  "PointWiseExpressionParams": [],
  "NbPointWiseExpressionLiterals": 5,
  "PointWiseExpressionLiterals": ["0.000000e+00f", "1.000000e+00f", "0.000000e+00f", "0.000000e+00f", "5.000000e-01f"],
  "NbPointWiseExpressionOperations": 5,
  "PointWiseExpressionOperations": ["auto const var0 = pwgen::iMul(literal4, arg0);", "auto const var1 = pwgen::iTanh(var0);", "auto const var2 = pwgen::iMul(var1, literal4);", "auto const var3 = pwgen::iPlus(var2, literal4);", "auto const var4 = pwgen::iMul(arg0, var3);"],
  "HasBias": 1,
  "HasReLU": 0,
  "TacticName": "sm80_xmma_fprop_implicit_gemm_f16f16_f16f16_f16_nhwckrsc_nhwc_tilesize128x128x32_stage4_warpsize2x2x1_g1_tensor16x8x16_t1r1s1_linkable",
  "TacticValue": "0x5692ab284b03c90b",
  "StreamId": 0,
  "Metadata": "[ONNX Layer: /model.23/cv3.0/cv3.0.1/cv3.0.1.1/conv/Conv]\u001e[ONNX Layer: /model.23/cv3.0/cv3.0.1/cv3.0.1.1/act/Sigmoid]\u001e[ONNX Layer: /model.23/cv3.0/cv3.0.1/cv3.0.1.1/act/Mul]"
},{
  "Name": "/model.23/cv3.0/cv3.0.2/Conv",
  "LayerType": "CaskGemmConvolution",
  "Inputs": [
  {
    "Name": "/model.23/cv3.0/cv3.0.1/cv3.0.1.1/act/Mul_output_0",
    "Location": "Device",
    "Dimensions": [1,128,80,80],
    "Format/Datatype": "Channel major FP16 format where channel % 8 == 0"
  }],
  "Outputs": [
  {
    "Name": "/model.23/Concat_output_0",
    "Location": "Device",
    "Dimensions": [1,80,80,80],
    "Format/Datatype": "Channel major FP16 format where channel % 8 == 0"
  }],
  "ParameterType": "Convolution",
  "Kernel": [1,1],
  "PaddingMode": "kEXPLICIT_ROUND_DOWN",
  "PrePadding": [0,0],
  "PostPadding": [0,0],
  "Stride": [1,1],
  "Dilation": [1,1],
  "OutMaps": 80,
  "Groups": 1,
  "Weights": {"Type": "Half", "Count": 10240},
  "Bias": {"Type": "Half", "Count": 80},
  "HasSparseWeights": 0,
  "HasDynamicFilter": 0,
  "HasDynamicBias": 0,
  "HasResidual": 0,
  "ConvXAsActInputIdx": -1,
  "BiasAsActInputIdx": -1,
  "ResAsActInputIdx": -1,
  "Activation": "NONE",
  "TacticName": "sm80_xmma_gemm_f16f16_f16f16_f16_tn_n_tilesize256x64x32_stage3_warpsize4x1x1_tensor16x8x16",
  "TacticValue": "0x00000000000206f2",
  "StreamId": 0,
  "Metadata": "[ONNX Layer: /model.23/cv3.0/cv3.0.2/Conv]"
},{
  "Name": "Reformatting CopyNode for Input Tensor 0 to /model.23/Reshape",
  "LayerType": "Reformat",
  "Inputs": [
  {
    "Name": "/model.23/Concat_output_0",
    "Location": "Device",
    "Dimensions": [1,144,80,80],
    "Format/Datatype": "Channel major FP16 format where channel % 8 == 0"
  }],
  "Outputs": [
  {
    "Name": "Reformatted Input Tensor 0 to /model.23/Reshape",
    "Location": "Device",
    "Dimensions": [1,144,80,80],
    "Format/Datatype": "Row major linear FP32"
  }],
  "ParameterType": "Reformat",
  "Origin": "REFORMAT",
  "TacticValue": "0x0000000000000000",
  "StreamId": 0,
  "Metadata": ""
},{
  "Name": "/model.23/Reshape",
  "LayerType": "NoOp",
  "Inputs": [
  {
    "Name": "Reformatted Input Tensor 0 to /model.23/Reshape",
    "Location": "Device",
    "Dimensions": [1,144,80,80],
    "Format/Datatype": "Row major linear FP32"
  }],
  "Outputs": [
  {
    "Name": "/model.23/Reshape_copy_output",
    "Location": "Device",
    "Dimensions": [1,144,6400],
    "Format/Datatype": "Row major linear FP32"
  }],
  "TacticValue": "0x0000000000000000",
  "StreamId": 0,
  "Metadata": "[ONNX Layer: /model.23/Reshape]"
},{
  "Name": "/model.23/Reshape_copy_output",
  "LayerType": "Reformat",
  "Inputs": [
  {
    "Name": "/model.23/Reshape_copy_output",
    "Location": "Device",
    "Dimensions": [1,144,6400],
    "Format/Datatype": "Row major linear FP32"
  }],
  "Outputs": [
  {
    "Name": "/model.23/Concat_3_output_0",
    "Location": "Device",
    "Dimensions": [1,144,6400],
    "Format/Datatype": "Row major linear FP32"
  }],
  "ParameterType": "Reformat",
  "Origin": "CONCAT",
  "TacticValue": "0x00000000000003e8",
  "StreamId": 0,
  "Metadata": "[ONNX Layer: /model.23/Reshape]"
},{
  "Name": "/model.23/dfl/Reshape + /model.23/dfl/Transpose",
  "LayerType": "Shuffle",
  "Inputs": [
  {
    "Name": "/model.23/Concat_3_output_0",
    "Location": "Device",
    "Dimensions": [1,64,8400],
    "Format/Datatype": "Row major linear FP32"
  }],
  "Outputs": [
  {
    "Name": "/model.23/dfl/Transpose_output_0",
    "Location": "Device",
    "Dimensions": [1,16,4,8400],
    "Format/Datatype": "Row major linear FP32"
  }],
  "ParameterType": "Shuffle",
  "FirstTranspose": [0,1,2],
  "Reshape": [1,4,16,8400],
  "SecondTranspose": [0,2,1,3],
  "ZeroIsPlaceholder": 1,
  "TacticValue": "0x0000000000000000",
  "StreamId": 0,
  "Metadata": "[ONNX Layer: /model.23/dfl/Reshape]\u001e[ONNX Layer: /model.23/dfl/Transpose]"
},{
  "Name": "/model.23/dfl/Softmax",
  "LayerType": "CaskSoftMaxV2",
  "Inputs": [
  {
    "Name": "/model.23/dfl/Transpose_output_0",
    "Location": "Device",
    "Dimensions": [1,16,4,8400],
    "Format/Datatype": "Row major linear FP32"
  }],
  "Outputs": [
  {
    "Name": "(Unnamed Layer* 322) [Softmax]_output",
    "Location": "Device",
    "Dimensions": [1,16,4,8400],
    "Format/Datatype": "Row major linear FP32"
  }],
  "ParameterType": "SoftMax",
  "Axes": 2,
  "HasLog": 0,
  "TacticValue": "0x48c115a824ac468d",
  "StreamId": 0,
  "Metadata": "[ONNX Layer: /model.23/dfl/Softmax]"
},{
  "Name": "/model.23/dfl/conv/Conv",
  "LayerType": "CaskConvolution",
  "Inputs": [
  {
    "Name": "(Unnamed Layer* 322) [Softmax]_output",
    "Location": "Device",
    "Dimensions": [1,16,4,8400],
    "Format/Datatype": "Row major linear FP32"
  }],
  "Outputs": [
  {
    "Name": "/model.23/dfl/conv/Conv_output_0",
    "Location": "Device",
    "Dimensions": [1,1,4,8400],
    "Format/Datatype": "Row major linear FP32"
  }],
  "ParameterType": "Convolution",
  "Kernel": [1,1],
  "PaddingMode": "kEXPLICIT_ROUND_DOWN",
  "PrePadding": [0,0],
  "PostPadding": [0,0],
  "Stride": [1,1],
  "Dilation": [1,1],
  "OutMaps": 1,
  "Groups": 1,
  "Weights": {"Type": "Float", "Count": 16},
  "Bias": {"Type": "Float", "Count": 0},
  "HasSparseWeights": 0,
  "HasDynamicFilter": 0,
  "HasDynamicBias": 0,
  "HasResidual": 0,
  "ConvXAsActInputIdx": -1,
  "BiasAsActInputIdx": -1,
  "ResAsActInputIdx": -1,
  "Activation": "NONE",
  "HasBias": 0,
  "HasReLU": 0,
  "TacticName": "sm80_xmma_fprop_implicit_gemm_f32f32_f32f32_f32_nchwkcrs_nchw_tilesize128x16x8_stage3_warpsize4x1x1_g1_ffma_aligna4_alignc4",
  "TacticValue": "0x9d9fdb5fd9945f64",
  "StreamId": 0,
  "Metadata": "[ONNX Layer: /model.23/dfl/conv/Conv]"
},{
  "Name": "/model.23/dfl/Reshape_1",
  "LayerType": "NoOp",
  "Inputs": [
  {
    "Name": "/model.23/dfl/conv/Conv_output_0",
    "Location": "Device",
    "Dimensions": [1,1,4,8400],
    "Format/Datatype": "Row major linear FP32"
  }],
  "Outputs": [
  {
    "Name": "/model.23/dfl/Reshape_1_output_0",
    "Location": "Device",
    "Dimensions": [1,4,8400],
    "Format/Datatype": "Row major linear FP32"
  }],
  "TacticValue": "0x0000000000000000",
  "StreamId": 0,
  "Metadata": "[ONNX Layer: /model.23/dfl/Reshape_1]"
},{
  "Name": "/model.23/Sub",
  "LayerType": "ElementWise",
  "Inputs": [
  {
    "Name": "(Unnamed Layer* 328) [Constant]_output",
    "Location": "Device",
    "Dimensions": [1,2,8400],
    "Format/Datatype": "Row major linear FP32"
  },
  {
    "Name": "/model.23/dfl/Reshape_1_output_0",
    "Location": "Device",
    "Dimensions": [1,2,8400],
    "Format/Datatype": "Row major linear FP32"
  }],
  "Outputs": [
  {
    "Name": "Reformatted Output Tensor 0 to /model.23/Sub",
    "Location": "Device",
    "Dimensions": [1,2,8400],
    "Format/Datatype": "Row major linear FP32"
  }],
  "ParameterType": "ElementWise",
  "ElementWiseOperation": "SUB",
  "Activation": "NONE",
  "TacticValue": "0x0000000000000001",
  "StreamId": 0,
  "Metadata": "[ONNX Layer: /model.23/Sub]"
},{
  "Name": "Reformatting CopyNode for Output Tensor 0 to /model.23/Sub",
  "LayerType": "Reformat",
  "Inputs": [
  {
    "Name": "Reformatted Output Tensor 0 to /model.23/Sub",
    "Location": "Device",
    "Dimensions": [1,2,8400],
    "Format/Datatype": "Row major linear FP32"
  }],
  "Outputs": [
  {
    "Name": "/model.23/Sub_output_0",
    "Location": "Device",
    "Dimensions": [1,2,8400],
    "Format/Datatype": "Channel major FP16 format where channel % 8 == 0"
  }],
  "ParameterType": "Reformat",
  "Origin": "REFORMAT",
  "TacticValue": "0x00000000000003e8",
  "StreamId": 0,
  "Metadata": ""
},{
  "Name": "/model.23/Add_1",
  "LayerType": "ElementWise",
  "Inputs": [
  {
    "Name": "(Unnamed Layer* 330) [Constant]_output",
    "Location": "Device",
    "Dimensions": [1,2,8400],
    "Format/Datatype": "Row major linear FP32"
  },
  {
    "Name": "/model.23/dfl/Reshape_1_output_0",
    "Location": "Device",
    "Dimensions": [1,2,8400],
    "Format/Datatype": "Row major linear FP32"
  }],
  "Outputs": [
  {
    "Name": "Reformatted Output Tensor 0 to /model.23/Add_1",
    "Location": "Device",
    "Dimensions": [1,2,8400],
    "Format/Datatype": "Row major linear FP32"
  }],
  "ParameterType": "ElementWise",
  "ElementWiseOperation": "SUM",
  "Activation": "NONE",
  "TacticValue": "0x0000000000000001",
  "StreamId": 0,
  "Metadata": "[ONNX Layer: /model.23/Add_1]"
},{
  "Name": "Reformatting CopyNode for Output Tensor 0 to /model.23/Add_1",
  "LayerType": "Reformat",
  "Inputs": [
  {
    "Name": "Reformatted Output Tensor 0 to /model.23/Add_1",
    "Location": "Device",
    "Dimensions": [1,2,8400],
    "Format/Datatype": "Row major linear FP32"
  }],
  "Outputs": [
  {
    "Name": "/model.23/Add_1_output_0",
    "Location": "Device",
    "Dimensions": [1,2,8400],
    "Format/Datatype": "Channel major FP16 format where channel % 8 == 0"
  }],
  "ParameterType": "Reformat",
  "Origin": "REFORMAT",
  "TacticValue": "0x00000000000003e8",
  "StreamId": 0,
  "Metadata": ""
},{
  "Name": "/model.23/Sub_1",
  "LayerType": "ElementWise",
  "Inputs": [
  {
    "Name": "/model.23/Add_1_output_0",
    "Location": "Device",
    "Dimensions": [1,2,8400],
    "Format/Datatype": "Channel major FP16 format where channel % 8 == 0"
  },
  {
    "Name": "/model.23/Sub_output_0",
    "Location": "Device",
    "Dimensions": [1,2,8400],
    "Format/Datatype": "Channel major FP16 format where channel % 8 == 0"
  }],
  "Outputs": [
  {
    "Name": "/model.23/Concat_4_output_0",
    "Location": "Device",
    "Dimensions": [1,2,8400],
    "Format/Datatype": "Channel major FP16 format where channel % 8 == 0"
  }],
  "ParameterType": "ElementWise",
  "ElementWiseOperation": "SUB",
  "Activation": "NONE",
  "TacticValue": "0x0000000000000001",
  "StreamId": 0,
  "Metadata": "[ONNX Layer: /model.23/Sub_1]"
},{
  "Name": "PWN(/model.23/Constant_11_output_0 + (Unnamed Layer* 335) [Shuffle], PWN(/model.23/Add_2, /model.23/Div_1))",
  "LayerType": "PointWiseV2",
  "Inputs": [
  {
    "Name": "/model.23/Sub_output_0",
    "Location": "Device",
    "Dimensions": [1,2,8400],
    "Format/Datatype": "Channel major FP16 format where channel % 8 == 0"
  },
  {
    "Name": "/model.23/Add_1_output_0",
    "Location": "Device",
    "Dimensions": [1,2,8400],
    "Format/Datatype": "Channel major FP16 format where channel % 8 == 0"
  }],
  "Outputs": [
  {
    "Name": "/model.23/Div_1_output_0",
    "Location": "Device",
    "Dimensions": [1,2,8400],
    "Format/Datatype": "Channel major FP16 format where channel % 8 == 0"
  }],
  "ParameterType": "PointWise",
  "ParameterSubType": "PointWiseExpression",
  "NbInputArgs": 2,
  "InputArgs": ["arg0", "arg1"],
  "NbOutputVars": 1,
  "OutputVars": ["var1"],
  "NbParams": 0,
  "Params": [],
  "NbLiterals": 1,
  "Literals": ["2.000000e+00f"],
  "NbOperations": 2,
  "Operations": ["auto const var0 = pwgen::iPlus(arg0, arg1);", "auto const var1 = pwgen::iDiv(var0, literal0);"],
  "TacticValue": "0x000000000000001f",
  "StreamId": 0,
  "Metadata": "[ONNX Layer: /model.23/Add_2]\u001e[ONNX Layer: /model.23/Div_1]"
},{
  "Name": "/model.23/Div_1_output_0 copy",
  "LayerType": "Reformat",
  "Inputs": [
  {
    "Name": "/model.23/Div_1_output_0",
    "Location": "Device",
    "Dimensions": [1,2,8400],
    "Format/Datatype": "Channel major FP16 format where channel % 8 == 0"
  }],
  "Outputs": [
  {
    "Name": "/model.23/Concat_4_output_0",
    "Location": "Device",
    "Dimensions": [1,2,8400],
    "Format/Datatype": "Channel major FP16 format where channel % 8 == 0"
  }],
  "ParameterType": "Reformat",
  "Origin": "CONCAT",
  "TacticValue": "0x00000000000003e8",
  "StreamId": 0,
  "Metadata": "[ONNX Layer: /model.23/Concat_4]"
},{
  "Name": "Reformatting CopyNode for Input Tensor 0 to /model.23/Mul_2",
  "LayerType": "Reformat",
  "Inputs": [
  {
    "Name": "/model.23/Concat_4_output_0",
    "Location": "Device",
    "Dimensions": [1,4,8400],
    "Format/Datatype": "Channel major FP16 format where channel % 8 == 0"
  }],
  "Outputs": [
  {
    "Name": "Reformatted Input Tensor 0 to /model.23/Mul_2",
    "Location": "Device",
    "Dimensions": [1,4,8400],
    "Format/Datatype": "Row major linear FP16 format"
  }],
  "ParameterType": "Reformat",
  "Origin": "REFORMAT",
  "TacticValue": "0x0000000000000000",
  "StreamId": 0,
  "Metadata": ""
},{
  "Name": "/model.23/Mul_2",
  "LayerType": "ElementWise",
  "Inputs": [
  {
    "Name": "Reformatted Input Tensor 0 to /model.23/Mul_2",
    "Location": "Device",
    "Dimensions": [1,4,8400],
    "Format/Datatype": "Row major linear FP16 format"
  },
  {
    "Name": "(Unnamed Layer* 339) [Shuffle]_output",
    "Location": "Device",
    "Dimensions": [1,1,8400],
    "Format/Datatype": "Row major linear FP16 format"
  }],
  "Outputs": [
  {
    "Name": "Reformatted Output Tensor 0 to /model.23/Mul_2",
    "Location": "Device",
    "Dimensions": [1,4,8400],
    "Format/Datatype": "Row major linear FP16 format"
  }],
  "ParameterType": "ElementWise",
  "ElementWiseOperation": "PROD",
  "Activation": "NONE",
  "TacticValue": "0x0000000000000001",
  "StreamId": 0,
  "Metadata": "[ONNX Layer: /model.23/Mul_2]"
},{
  "Name": "Reformatting CopyNode for Output Tensor 0 to /model.23/Mul_2",
  "LayerType": "Reformat",
  "Inputs": [
  {
    "Name": "Reformatted Output Tensor 0 to /model.23/Mul_2",
    "Location": "Device",
    "Dimensions": [1,4,8400],
    "Format/Datatype": "Row major linear FP16 format"
  }],
  "Outputs": [
  {
    "Name": "/model.23/Concat_5_output_0",
    "Location": "Device",
    "Dimensions": [1,4,8400],
    "Format/Datatype": "Row major linear FP32"
  }],
  "ParameterType": "Reformat",
  "Origin": "REFORMAT",
  "TacticValue": "0x0000000000000000",
  "StreamId": 0,
  "Metadata": ""
},{
  "Name": "PWN(/model.23/Sigmoid)",
  "LayerType": "PointWiseV2",
  "Inputs": [
  {
    "Name": "/model.23/Concat_3_output_0",
    "Location": "Device",
    "Dimensions": [1,80,8400],
    "Format/Datatype": "Row major linear FP32"
  }],
  "Outputs": [
  {
    "Name": "/model.23/Concat_5_output_0",
    "Location": "Device",
    "Dimensions": [1,80,8400],
    "Format/Datatype": "Row major linear FP32"
  }],
  "ParameterType": "PointWise",
  "ParameterSubType": "PointWiseExpression",
  "NbInputArgs": 1,
  "InputArgs": ["arg0"],
  "NbOutputVars": 1,
  "OutputVars": ["var3"],
  "NbParams": 0,
  "Params": [],
  "NbLiterals": 5,
  "Literals": ["0.000000e+00f", "1.000000e+00f", "0.000000e+00f", "0.000000e+00f", "5.000000e-01f"],
  "NbOperations": 4,
  "Operations": ["auto const var0 = pwgen::iMul(literal4, arg0);", "auto const var1 = pwgen::iTanh(var0);", "auto const var2 = pwgen::iMul(var1, literal4);", "auto const var3 = pwgen::iPlus(var2, literal4);"],
  "TacticValue": "0x0000000000000009",
  "StreamId": 0,
  "Metadata": "[ONNX Layer: /model.23/Sigmoid]"
},{
  "Name": "/model.23/Transpose",
  "LayerType": "Shuffle",
  "Inputs": [
  {
    "Name": "/model.23/Concat_5_output_0",
    "Location": "Device",
    "Dimensions": [1,84,8400],
    "Format/Datatype": "Row major linear FP32"
  }],
  "Outputs": [
  {
    "Name": "output0",
    "Location": "Device",
    "Dimensions": [1,8400,84],
    "Format/Datatype": "Row major linear FP32"
  }],
  "ParameterType": "Shuffle",
  "FirstTranspose": [0,2,1],
  "Reshape": "nbDims=-1",
  "SecondTranspose": [0,1,2],
  "ZeroIsPlaceholder": 1,
  "TacticValue": "0x0000000000000000",
  "StreamId": 0,
  "Metadata": "[ONNX Layer: /model.23/Transpose]"
}],
"Bindings": ["images"
,"output0"
]}
