{"Layers": [{
  "Name": "/model.23/Constant_12_output_0 + (Unnamed Layer* 339) [Shuffle]",
  "LayerType": "Constant",
  "Inputs": [],
  "Outputs": [
  {
    "Name": "(Unnamed Layer* 339) [Shuffle]_output",
    "Location": "Device",
    "Dimensions": [1,1,8400],
    "Format/Datatype": "Row major linear FP32"
  }],
  "ParameterType": "Constant",
  "weights": {"Type": "Float", "Count": 8400},
  "dimensions": [1,1,8400],
  "TacticValue": "0x0000000000000000",
  "StreamId": 0,
  "Metadata": ""
},{
  "Name": "/model.23/Constant_10_output_0",
  "LayerType": "Constant",
  "Inputs": [],
  "Outputs": [
  {
    "Name": "(Unnamed Layer* 330) [Constant]_output",
    "Location": "Device",
    "Dimensions": [1,2,8400],
    "Format/Datatype": "Row major linear FP32"
  }],
  "ParameterType": "Constant",
  "weights": {"Type": "Float", "Count": 16800},
  "dimensions": [1,2,8400],
  "TacticValue": "0x0000000000000000",
  "StreamId": 0,
  "Metadata": ""
},{
  "Name": "/model.23/Constant_9_output_0",
  "LayerType": "Constant",
  "Inputs": [],
  "Outputs": [
  {
    "Name": "(Unnamed Layer* 328) [Constant]_output",
    "Location": "Device",
    "Dimensions": [1,2,8400],
    "Format/Datatype": "Row major linear FP32"
  }],
  "ParameterType": "Constant",
  "weights": {"Type": "Float", "Count": 16800},
  "dimensions": [1,2,8400],
  "TacticValue": "0x0000000000000000",
  "StreamId": 0,
  "Metadata": ""
},{
  "Name": "Reformatting CopyNode for Input Tensor 0 to /model.0/conv/Conv + PWN(PWN(/model.0/act/Sigmoid), /model.0/act/Mul)",
  "LayerType": "Reformat",
  "Inputs": [
  {
    "Name": "images",
    "Location": "Device",
    "Dimensions": [1,3,640,640],
    "Format/Datatype": "Row major linear FP32"
  }],
  "Outputs": [
  {
    "Name": "Reformatted Input Tensor 0 to /model.0/conv/Conv + PWN(PWN(/model.0/act/Sigmoid), /model.0/act/Mul)",
    "Location": "Device",
    "Dimensions": [1,3,640,640],
    "Format/Datatype": "Row major Int8 format"
  }],
  "ParameterType": "Reformat",
  "Origin": "REFORMAT",
  "TacticValue": "0x00000000000003e8",
  "StreamId": 0,
  "Metadata": ""
},{
  "Name": "/model.0/conv/Conv + PWN(PWN(/model.0/act/Sigmoid), /model.0/act/Mul)",
  "LayerType": "CaskConvolution",
  "Inputs": [
  {
    "Name": "Reformatted Input Tensor 0 to /model.0/conv/Conv + PWN(PWN(/model.0/act/Sigmoid), /model.0/act/Mul)",
    "Location": "Device",
    "Dimensions": [1,3,640,640],
    "Format/Datatype": "Row major Int8 format"
  }],
  "Outputs": [
  {
    "Name": "/model.0/act/Mul_output_0",
    "Location": "Device",
    "Dimensions": [1,32,320,320],
    "Format/Datatype": "Thirty-two wide channel vectorized row major Int8 format"
  }],
  "ParameterType": "Convolution",
  "Kernel": [3,3],
  "PaddingMode": "kEXPLICIT_ROUND_DOWN",
  "PrePadding": [1,1],
  "PostPadding": [1,1],
  "Stride": [2,2],
  "Dilation": [1,1],
  "OutMaps": 32,
  "Groups": 1,
  "Weights": {"Type": "Int8", "Count": 864},
  "Bias": {"Type": "Float", "Count": 32},
  "HasSparseWeights": 0,
  "HasDynamicFilter": 0,
  "HasDynamicBias": 0,
  "HasResidual": 0,
  "ConvXAsActInputIdx": -1,
  "BiasAsActInputIdx": -1,
  "ResAsActInputIdx": -1,
  "Activation": "SWISH",
  "HasBias": 1,
  "HasReLU": 0,
  "TacticName": "ampere_first_layer_filter3x3_imma_fwd_swish",
  "TacticValue": "0x9760d209ec71dd70",
  "StreamId": 0,
  "Metadata": "[ONNX Layer: /model.0/conv/Conv]\u001e[ONNX Layer: /model.0/act/Sigmoid]\u001e[ONNX Layer: /model.0/act/Mul]"
},{
  "Name": "/model.1/conv/Conv + PWN(PWN(/model.1/act/Sigmoid), /model.1/act/Mul)",
  "LayerType": "CaskConvolution",
  "Inputs": [
  {
    "Name": "/model.0/act/Mul_output_0",
    "Location": "Device",
    "Dimensions": [1,32,320,320],
    "Format/Datatype": "Thirty-two wide channel vectorized row major Int8 format"
  }],
  "Outputs": [
  {
    "Name": "/model.1/act/Mul_output_0",
    "Location": "Device",
    "Dimensions": [1,64,160,160],
    "Format/Datatype": "Thirty-two wide channel vectorized row major Int8 format"
  }],
  "ParameterType": "Convolution",
  "Kernel": [3,3],
  "PaddingMode": "kEXPLICIT_ROUND_DOWN",
  "PrePadding": [1,1],
  "PostPadding": [1,1],
  "Stride": [2,2],
  "Dilation": [1,1],
  "OutMaps": 64,
  "Groups": 1,
  "Weights": {"Type": "Int8", "Count": 18432},
  "Bias": {"Type": "Float", "Count": 64},
  "HasSparseWeights": 0,
  "HasDynamicFilter": 0,
  "HasDynamicBias": 0,
  "HasResidual": 0,
  "ConvXAsActInputIdx": -1,
  "BiasAsActInputIdx": -1,
  "ResAsActInputIdx": -1,
  "Activation": "SWISH",
  "HasBias": 1,
  "HasReLU": 0,
  "TacticName": "sm80_xmma_fprop_implicit_gemm_interleaved_i8i8_i8i32_f32_nchw_vect_c_32kcrs_vect_c_32_nchw_vect_c_32_tilesize256x64x64_stage4_warpsize4x1x1_g1_tensor16x8x32_t1r3s3_swish",
  "TacticValue": "0x3ac8602b2543f50d",
  "StreamId": 0,
  "Metadata": "[ONNX Layer: /model.1/conv/Conv]\u001e[ONNX Layer: /model.1/act/Sigmoid]\u001e[ONNX Layer: /model.1/act/Mul]"
},{
  "Name": "/model.2/cv1/conv/Conv + PWN(PWN(/model.2/cv1/act/Sigmoid), /model.2/cv1/act/Mul)",
  "LayerType": "CaskConvolution",
  "Inputs": [
  {
    "Name": "/model.1/act/Mul_output_0",
    "Location": "Device",
    "Dimensions": [1,64,160,160],
    "Format/Datatype": "Thirty-two wide channel vectorized row major Int8 format"
  }],
  "Outputs": [
  {
    "Name": "/model.2/cv1/act/Mul_output_0",
    "Location": "Device",
    "Dimensions": [1,64,160,160],
    "Format/Datatype": "Thirty-two wide channel vectorized row major Int8 format"
  }],
  "ParameterType": "Convolution",
  "Kernel": [1,1],
  "PaddingMode": "kEXPLICIT_ROUND_DOWN",
  "PrePadding": [0,0],
  "PostPadding": [0,0],
  "Stride": [1,1],
  "Dilation": [1,1],
  "OutMaps": 64,
  "Groups": 1,
  "Weights": {"Type": "Int8", "Count": 4096},
  "Bias": {"Type": "Float", "Count": 64},
  "HasSparseWeights": 0,
  "HasDynamicFilter": 0,
  "HasDynamicBias": 0,
  "HasResidual": 0,
  "ConvXAsActInputIdx": -1,
  "BiasAsActInputIdx": -1,
  "ResAsActInputIdx": -1,
  "Activation": "SWISH",
  "HasBias": 1,
  "HasReLU": 0,
  "TacticName": "sm80_xmma_fprop_implicit_gemm_interleaved_i8i8_i8i32_f32_nchw_vect_c_32kcrs_vect_c_32_nchw_vect_c_32_tilesize256x64x64_stage4_warpsize4x1x1_g1_tensor16x8x32_simple_t1r1s1_swish",
  "TacticValue": "0xc1a4243b1f1cfe6d",
  "StreamId": 0,
  "Metadata": "[ONNX Layer: /model.2/cv1/conv/Conv]\u001e[ONNX Layer: /model.2/cv1/act/Sigmoid]\u001e[ONNX Layer: /model.2/cv1/act/Mul]"
},{
  "Name": "/model.2/Split_14",
  "LayerType": "Reformat",
  "Inputs": [
  {
    "Name": "/model.2/cv1/act/Mul_output_0",
    "Location": "Device",
    "Dimensions": [1,32,160,160],
    "Format/Datatype": "Thirty-two wide channel vectorized row major Int8 format"
  }],
  "Outputs": [
  {
    "Name": "/model.2/Split_output_1",
    "Location": "Device",
    "Dimensions": [1,32,160,160],
    "Format/Datatype": "Thirty-two wide channel vectorized row major Int8 format"
  }],
  "ParameterType": "Reformat",
  "Origin": "SLICE",
  "TacticValue": "0x00000000000003ea",
  "StreamId": 0,
  "Metadata": "[ONNX Layer: /model.2/Split]"
},{
  "Name": "/model.2/m.0/cv1/conv/Conv + PWN(PWN(/model.2/m.0/cv1/act/Sigmoid), /model.2/m.0/cv1/act/Mul)",
  "LayerType": "CaskConvolution",
  "Inputs": [
  {
    "Name": "/model.2/Split_output_1",
    "Location": "Device",
    "Dimensions": [1,32,160,160],
    "Format/Datatype": "Thirty-two wide channel vectorized row major Int8 format"
  }],
  "Outputs": [
  {
    "Name": "/model.2/m.0/cv1/act/Mul_output_0",
    "Location": "Device",
    "Dimensions": [1,16,160,160],
    "Format/Datatype": "Thirty-two wide channel vectorized row major Int8 format"
  }],
  "ParameterType": "Convolution",
  "Kernel": [3,3],
  "PaddingMode": "kEXPLICIT_ROUND_DOWN",
  "PrePadding": [1,1],
  "PostPadding": [1,1],
  "Stride": [1,1],
  "Dilation": [1,1],
  "OutMaps": 16,
  "Groups": 1,
  "Weights": {"Type": "Int8", "Count": 4608},
  "Bias": {"Type": "Float", "Count": 16},
  "HasSparseWeights": 0,
  "HasDynamicFilter": 0,
  "HasDynamicBias": 0,
  "HasResidual": 0,
  "ConvXAsActInputIdx": -1,
  "BiasAsActInputIdx": -1,
  "ResAsActInputIdx": -1,
  "Activation": "SWISH",
  "HasBias": 1,
  "HasReLU": 0,
  "TacticName": "sm80_xmma_fprop_implicit_gemm_interleaved_i8i8_i8i32_f32_nchw_vect_c_32kcrs_vect_c_32_nchw_vect_c_32_tilesize256x32x64_stage4_warpsize4x1x1_g1_tensor16x8x32_t1r3s3_swish",
  "TacticValue": "0xbd976ef514eaa406",
  "StreamId": 0,
  "Metadata": "[ONNX Layer: /model.2/m.0/cv1/conv/Conv]\u001e[ONNX Layer: /model.2/m.0/cv1/act/Sigmoid]\u001e[ONNX Layer: /model.2/m.0/cv1/act/Mul]"
},{
  "Name": "/model.2/m.0/cv2/conv/Conv + PWN(PWN(PWN(/model.2/m.0/cv2/act/Sigmoid), /model.2/m.0/cv2/act/Mul), /model.2/m.0/Add)",
  "LayerType": "CaskJitConv",
  "Inputs": [
  {
    "Name": "/model.2/m.0/cv1/act/Mul_output_0",
    "Location": "Device",
    "Dimensions": [1,16,160,160],
    "Format/Datatype": "Thirty-two wide channel vectorized row major Int8 format"
  },
  {
    "Name": "/model.2/Split_output_1",
    "Location": "Device",
    "Dimensions": [1,32,160,160],
    "Format/Datatype": "Thirty-two wide channel vectorized row major Int8 format"
  }],
  "Outputs": [
  {
    "Name": "/model.2/m.0/Add_output_0",
    "Location": "Device",
    "Dimensions": [1,32,160,160],
    "Format/Datatype": "Thirty-two wide channel vectorized row major Int8 format"
  }],
  "ParameterType": "Convolution",
  "Kernel": [3,3],
  "PaddingMode": "kEXPLICIT_ROUND_DOWN",
  "PrePadding": [1,1],
  "PostPadding": [1,1],
  "Stride": [1,1],
  "Dilation": [1,1],
  "OutMaps": 32,
  "Groups": 1,
  "Weights": {"Type": "Int8", "Count": 4608},
  "Bias": {"Type": "Float", "Count": 32},
  "HasSparseWeights": 0,
  "HasDynamicFilter": 0,
  "HasDynamicBias": 0,
  "HasResidual": 0,
  "ConvXAsActInputIdx": -1,
  "BiasAsActInputIdx": -1,
  "ResAsActInputIdx": -1,
  "Activation": "GENERIC",
  "ParameterSubType": "PointWiseExpression",
  "NbPointWiseExpressionInputArgs": 2,
  "PointWiseExpressionInputArgs": ["arg0", "arg1"],
  "NbPointWiseExpressionOutputVars": 1,
  "PointWiseExpressionOutputVars": ["var5"],
  "NbPointWiseExpressionParams": 0,
  "PointWiseExpressionParams": [],
  "NbPointWiseExpressionLiterals": 5,
  "PointWiseExpressionLiterals": ["0.000000e+00f", "1.000000e+00f", "0.000000e+00f", "0.000000e+00f", "5.000000e-01f"],
  "NbPointWiseExpressionOperations": 6,
  "PointWiseExpressionOperations": ["auto const var0 = pwgen::iMul(literal4, arg0);", "auto const var1 = pwgen::iTanh(var0);", "auto const var2 = pwgen::iMul(var1, literal4);", "auto const var3 = pwgen::iPlus(var2, literal4);", "auto const var4 = pwgen::iMul(arg0, var3);", "auto const var5 = pwgen::iPlus(arg1, var4);"],
  "HasBias": 1,
  "TacticName": "sm80_xmma_fprop_implicit_gemm_interleaved_i8i8_i8i32_f32_nchw_vect_c_32kcrs_vect_c_32_nchw_vect_c_32_tilesize256x32x64_stage4_warpsize4x1x1_g1_tensor16x8x32",
  "TacticValue": "0xeb33cf0799237780",
  "StreamId": 0,
  "Metadata": "[ONNX Layer: /model.2/m.0/cv2/conv/Conv]\u001e[ONNX Layer: /model.2/m.0/cv2/act/Sigmoid]\u001e[ONNX Layer: /model.2/m.0/cv2/act/Mul]\u001e[ONNX Layer: /model.2/m.0/Add]"
},{
  "Name": "/model.2/Split_output_0 copy",
  "LayerType": "Reformat",
  "Inputs": [
  {
    "Name": "/model.2/cv1/act/Mul_output_0",
    "Location": "Device",
    "Dimensions": [1,32,160,160],
    "Format/Datatype": "Thirty-two wide channel vectorized row major Int8 format"
  }],
  "Outputs": [
  {
    "Name": "/model.2/Concat_output_0",
    "Location": "Device",
    "Dimensions": [1,32,160,160],
    "Format/Datatype": "Thirty-two wide channel vectorized row major Int8 format"
  }],
  "ParameterType": "Reformat",
  "Origin": "CONCAT",
  "TacticValue": "0x0000000000000000",
  "StreamId": 0,
  "Metadata": "[ONNX Layer: /model.2/Concat]"
},{
  "Name": "/model.2/Split_output_1 copy",
  "LayerType": "Reformat",
  "Inputs": [
  {
    "Name": "/model.2/Split_output_1",
    "Location": "Device",
    "Dimensions": [1,32,160,160],
    "Format/Datatype": "Thirty-two wide channel vectorized row major Int8 format"
  }],
  "Outputs": [
  {
    "Name": "/model.2/Concat_output_0",
    "Location": "Device",
    "Dimensions": [1,32,160,160],
    "Format/Datatype": "Thirty-two wide channel vectorized row major Int8 format"
  }],
  "ParameterType": "Reformat",
  "Origin": "CONCAT",
  "TacticValue": "0x0000000000000000",
  "StreamId": 0,
  "Metadata": "[ONNX Layer: /model.2/Concat]"
},{
  "Name": "/model.2/m.0/Add_output_0 copy",
  "LayerType": "Reformat",
  "Inputs": [
  {
    "Name": "/model.2/m.0/Add_output_0",
    "Location": "Device",
    "Dimensions": [1,32,160,160],
    "Format/Datatype": "Thirty-two wide channel vectorized row major Int8 format"
  }],
  "Outputs": [
  {
    "Name": "/model.2/Concat_output_0",
    "Location": "Device",
    "Dimensions": [1,32,160,160],
    "Format/Datatype": "Thirty-two wide channel vectorized row major Int8 format"
  }],
  "ParameterType": "Reformat",
  "Origin": "CONCAT",
  "TacticValue": "0x00000000000003ea",
  "StreamId": 0,
  "Metadata": "[ONNX Layer: /model.2/Concat]"
},{
  "Name": "/model.2/cv2/conv/Conv + PWN(PWN(/model.2/cv2/act/Sigmoid), /model.2/cv2/act/Mul)",
  "LayerType": "CaskConvolution",
  "Inputs": [
  {
    "Name": "/model.2/Concat_output_0",
    "Location": "Device",
    "Dimensions": [1,96,160,160],
    "Format/Datatype": "Thirty-two wide channel vectorized row major Int8 format"
  }],
  "Outputs": [
  {
    "Name": "/model.2/cv2/act/Mul_output_0",
    "Location": "Device",
    "Dimensions": [1,128,160,160],
    "Format/Datatype": "Thirty-two wide channel vectorized row major Int8 format"
  }],
  "ParameterType": "Convolution",
  "Kernel": [1,1],
  "PaddingMode": "kEXPLICIT_ROUND_DOWN",
  "PrePadding": [0,0],
  "PostPadding": [0,0],
  "Stride": [1,1],
  "Dilation": [1,1],
  "OutMaps": 128,
  "Groups": 1,
  "Weights": {"Type": "Int8", "Count": 12288},
  "Bias": {"Type": "Float", "Count": 128},
  "HasSparseWeights": 0,
  "HasDynamicFilter": 0,
  "HasDynamicBias": 0,
  "HasResidual": 0,
  "ConvXAsActInputIdx": -1,
  "BiasAsActInputIdx": -1,
  "ResAsActInputIdx": -1,
  "Activation": "SWISH",
  "HasBias": 1,
  "HasReLU": 0,
  "TacticName": "sm80_xmma_fprop_implicit_gemm_interleaved_i8i8_i8i32_f32_nchw_vect_c_32kcrs_vect_c_32_nchw_vect_c_32_tilesize256x128x64_stage4_warpsize4x2x1_g1_tensor16x8x32_simple_t1r1s1_swish",
  "TacticValue": "0x0e1225de5ed2825a",
  "StreamId": 0,
  "Metadata": "[ONNX Layer: /model.2/cv2/conv/Conv]\u001e[ONNX Layer: /model.2/cv2/act/Sigmoid]\u001e[ONNX Layer: /model.2/cv2/act/Mul]"
},{
  "Name": "/model.3/conv/Conv + PWN(PWN(/model.3/act/Sigmoid), /model.3/act/Mul)",
  "LayerType": "CaskConvolution",
  "Inputs": [
  {
    "Name": "/model.2/cv2/act/Mul_output_0",
    "Location": "Device",
    "Dimensions": [1,128,160,160],
    "Format/Datatype": "Thirty-two wide channel vectorized row major Int8 format"
  }],
  "Outputs": [
  {
    "Name": "/model.3/act/Mul_output_0",
    "Location": "Device",
    "Dimensions": [1,128,80,80],
    "Format/Datatype": "Thirty-two wide channel vectorized row major Int8 format"
  }],
  "ParameterType": "Convolution",
  "Kernel": [3,3],
  "PaddingMode": "kEXPLICIT_ROUND_DOWN",
  "PrePadding": [1,1],
  "PostPadding": [1,1],
  "Stride": [2,2],
  "Dilation": [1,1],
  "OutMaps": 128,
  "Groups": 1,
  "Weights": {"Type": "Int8", "Count": 147456},
  "Bias": {"Type": "Float", "Count": 128},
  "HasSparseWeights": 0,
  "HasDynamicFilter": 0,
  "HasDynamicBias": 0,
  "HasResidual": 0,
  "ConvXAsActInputIdx": -1,
  "BiasAsActInputIdx": -1,
  "ResAsActInputIdx": -1,
  "Activation": "SWISH",
  "HasBias": 1,
  "HasReLU": 0,
  "TacticName": "sm80_xmma_fprop_implicit_gemm_interleaved_i8i8_i8i32_f32_nchw_vect_c_32kcrs_vect_c_32_nchw_vect_c_32_tilesize128x128x64_stage4_warpsize2x2x1_g1_tensor16x8x32_t1r3s3_swish",
  "TacticValue": "0x01cd56dfbdb5c0ee",
  "StreamId": 0,
  "Metadata": "[ONNX Layer: /model.3/conv/Conv]\u001e[ONNX Layer: /model.3/act/Sigmoid]\u001e[ONNX Layer: /model.3/act/Mul]"
},{
  "Name": "/model.4/cv1/conv/Conv + PWN(PWN(/model.4/cv1/act/Sigmoid), /model.4/cv1/act/Mul)",
  "LayerType": "CaskConvolution",
  "Inputs": [
  {
    "Name": "/model.3/act/Mul_output_0",
    "Location": "Device",
    "Dimensions": [1,128,80,80],
    "Format/Datatype": "Thirty-two wide channel vectorized row major Int8 format"
  }],
  "Outputs": [
  {
    "Name": "/model.4/cv1/act/Mul_output_0",
    "Location": "Device",
    "Dimensions": [1,128,80,80],
    "Format/Datatype": "Thirty-two wide channel vectorized row major Int8 format"
  }],
  "ParameterType": "Convolution",
  "Kernel": [1,1],
  "PaddingMode": "kEXPLICIT_ROUND_DOWN",
  "PrePadding": [0,0],
  "PostPadding": [0,0],
  "Stride": [1,1],
  "Dilation": [1,1],
  "OutMaps": 128,
  "Groups": 1,
  "Weights": {"Type": "Int8", "Count": 16384},
  "Bias": {"Type": "Float", "Count": 128},
  "HasSparseWeights": 0,
  "HasDynamicFilter": 0,
  "HasDynamicBias": 0,
  "HasResidual": 0,
  "ConvXAsActInputIdx": -1,
  "BiasAsActInputIdx": -1,
  "ResAsActInputIdx": -1,
  "Activation": "SWISH",
  "HasBias": 1,
  "HasReLU": 0,
  "TacticName": "sm80_xmma_fprop_implicit_gemm_interleaved_i8i8_i8i32_f32_nchw_vect_c_32kcrs_vect_c_32_nchw_vect_c_32_tilesize256x64x64_stage4_warpsize4x1x1_g1_tensor16x8x32_simple_t1r1s1_swish",
  "TacticValue": "0xc1a4243b1f1cfe6d",
  "StreamId": 0,
  "Metadata": "[ONNX Layer: /model.4/cv1/conv/Conv]\u001e[ONNX Layer: /model.4/cv1/act/Sigmoid]\u001e[ONNX Layer: /model.4/cv1/act/Mul]"
},{
  "Name": "/model.4/Split_15",
  "LayerType": "Reformat",
  "Inputs": [
  {
    "Name": "/model.4/cv1/act/Mul_output_0",
    "Location": "Device",
    "Dimensions": [1,64,80,80],
    "Format/Datatype": "Thirty-two wide channel vectorized row major Int8 format"
  }],
  "Outputs": [
  {
    "Name": "/model.4/Split_output_1",
    "Location": "Device",
    "Dimensions": [1,64,80,80],
    "Format/Datatype": "Thirty-two wide channel vectorized row major Int8 format"
  }],
  "ParameterType": "Reformat",
  "Origin": "SLICE",
  "TacticValue": "0x0000000000000000",
  "StreamId": 0,
  "Metadata": "[ONNX Layer: /model.4/Split]"
},{
  "Name": "/model.4/m.0/cv1/conv/Conv + PWN(PWN(/model.4/m.0/cv1/act/Sigmoid), /model.4/m.0/cv1/act/Mul)",
  "LayerType": "CaskConvolution",
  "Inputs": [
  {
    "Name": "/model.4/Split_output_1",
    "Location": "Device",
    "Dimensions": [1,64,80,80],
    "Format/Datatype": "Thirty-two wide channel vectorized row major Int8 format"
  }],
  "Outputs": [
  {
    "Name": "/model.4/m.0/cv1/act/Mul_output_0",
    "Location": "Device",
    "Dimensions": [1,32,80,80],
    "Format/Datatype": "Thirty-two wide channel vectorized row major Int8 format"
  }],
  "ParameterType": "Convolution",
  "Kernel": [3,3],
  "PaddingMode": "kEXPLICIT_ROUND_DOWN",
  "PrePadding": [1,1],
  "PostPadding": [1,1],
  "Stride": [1,1],
  "Dilation": [1,1],
  "OutMaps": 32,
  "Groups": 1,
  "Weights": {"Type": "Int8", "Count": 18432},
  "Bias": {"Type": "Float", "Count": 32},
  "HasSparseWeights": 0,
  "HasDynamicFilter": 0,
  "HasDynamicBias": 0,
  "HasResidual": 0,
  "ConvXAsActInputIdx": -1,
  "BiasAsActInputIdx": -1,
  "ResAsActInputIdx": -1,
  "Activation": "SWISH",
  "HasBias": 1,
  "HasReLU": 0,
  "TacticName": "sm80_xmma_fprop_implicit_gemm_interleaved_i8i8_i8i32_f32_nchw_vect_c_32kcrs_vect_c_32_nchw_vect_c_32_tilesize64x32x64_stage6_warpsize2x1x1_g1_tensor16x8x32_swish",
  "TacticValue": "0x2f5bc3e6bb27ae43",
  "StreamId": 0,
  "Metadata": "[ONNX Layer: /model.4/m.0/cv1/conv/Conv]\u001e[ONNX Layer: /model.4/m.0/cv1/act/Sigmoid]\u001e[ONNX Layer: /model.4/m.0/cv1/act/Mul]"
},{
  "Name": "/model.4/m.0/cv2/conv/Conv + PWN(PWN(PWN(/model.4/m.0/cv2/act/Sigmoid), /model.4/m.0/cv2/act/Mul), /model.4/m.0/Add)",
  "LayerType": "CaskJitConv",
  "Inputs": [
  {
    "Name": "/model.4/m.0/cv1/act/Mul_output_0",
    "Location": "Device",
    "Dimensions": [1,32,80,80],
    "Format/Datatype": "Thirty-two wide channel vectorized row major Int8 format"
  },
  {
    "Name": "/model.4/Split_output_1",
    "Location": "Device",
    "Dimensions": [1,64,80,80],
    "Format/Datatype": "Thirty-two wide channel vectorized row major Int8 format"
  }],
  "Outputs": [
  {
    "Name": "/model.4/m.0/Add_output_0",
    "Location": "Device",
    "Dimensions": [1,64,80,80],
    "Format/Datatype": "Thirty-two wide channel vectorized row major Int8 format"
  }],
  "ParameterType": "Convolution",
  "Kernel": [3,3],
  "PaddingMode": "kEXPLICIT_ROUND_DOWN",
  "PrePadding": [1,1],
  "PostPadding": [1,1],
  "Stride": [1,1],
  "Dilation": [1,1],
  "OutMaps": 64,
  "Groups": 1,
  "Weights": {"Type": "Int8", "Count": 18432},
  "Bias": {"Type": "Float", "Count": 64},
  "HasSparseWeights": 0,
  "HasDynamicFilter": 0,
  "HasDynamicBias": 0,
  "HasResidual": 0,
  "ConvXAsActInputIdx": -1,
  "BiasAsActInputIdx": -1,
  "ResAsActInputIdx": -1,
  "Activation": "GENERIC",
  "ParameterSubType": "PointWiseExpression",
  "NbPointWiseExpressionInputArgs": 2,
  "PointWiseExpressionInputArgs": ["arg0", "arg1"],
  "NbPointWiseExpressionOutputVars": 1,
  "PointWiseExpressionOutputVars": ["var5"],
  "NbPointWiseExpressionParams": 0,
  "PointWiseExpressionParams": [],
  "NbPointWiseExpressionLiterals": 5,
  "PointWiseExpressionLiterals": ["0.000000e+00f", "1.000000e+00f", "0.000000e+00f", "0.000000e+00f", "5.000000e-01f"],
  "NbPointWiseExpressionOperations": 6,
  "PointWiseExpressionOperations": ["auto const var0 = pwgen::iMul(literal4, arg0);", "auto const var1 = pwgen::iTanh(var0);", "auto const var2 = pwgen::iMul(var1, literal4);", "auto const var3 = pwgen::iPlus(var2, literal4);", "auto const var4 = pwgen::iMul(arg0, var3);", "auto const var5 = pwgen::iPlus(arg1, var4);"],
  "HasBias": 1,
  "TacticName": "sm80_xmma_fprop_implicit_gemm_interleaved_i8i8_i8i32_f32_nchw_vect_c_32kcrs_vect_c_32_nchw_vect_c_32_tilesize64x64x64_stage6_warpsize2x2x1_g1_tensor16x8x32_t1r3s3",
  "TacticValue": "0xbb88763c3b0e94d4",
  "StreamId": 0,
  "Metadata": "[ONNX Layer: /model.4/m.0/cv2/conv/Conv]\u001e[ONNX Layer: /model.4/m.0/cv2/act/Sigmoid]\u001e[ONNX Layer: /model.4/m.0/cv2/act/Mul]\u001e[ONNX Layer: /model.4/m.0/Add]"
},{
  "Name": "/model.4/Split_output_0 copy",
  "LayerType": "Reformat",
  "Inputs": [
  {
    "Name": "/model.4/cv1/act/Mul_output_0",
    "Location": "Device",
    "Dimensions": [1,64,80,80],
    "Format/Datatype": "Thirty-two wide channel vectorized row major Int8 format"
  }],
  "Outputs": [
  {
    "Name": "/model.4/Concat_output_0",
    "Location": "Device",
    "Dimensions": [1,64,80,80],
    "Format/Datatype": "Thirty-two wide channel vectorized row major Int8 format"
  }],
  "ParameterType": "Reformat",
  "Origin": "CONCAT",
  "TacticValue": "0x0000000000000000",
  "StreamId": 0,
  "Metadata": "[ONNX Layer: /model.4/Concat]"
},{
  "Name": "/model.4/Split_output_1 copy",
  "LayerType": "Reformat",
  "Inputs": [
  {
    "Name": "/model.4/Split_output_1",
    "Location": "Device",
    "Dimensions": [1,64,80,80],
    "Format/Datatype": "Thirty-two wide channel vectorized row major Int8 format"
  }],
  "Outputs": [
  {
    "Name": "/model.4/Concat_output_0",
    "Location": "Device",
    "Dimensions": [1,64,80,80],
    "Format/Datatype": "Thirty-two wide channel vectorized row major Int8 format"
  }],
  "ParameterType": "Reformat",
  "Origin": "CONCAT",
  "TacticValue": "0x0000000000000000",
  "StreamId": 0,
  "Metadata": "[ONNX Layer: /model.4/Concat]"
},{
  "Name": "/model.4/m.0/Add_output_0 copy",
  "LayerType": "Reformat",
  "Inputs": [
  {
    "Name": "/model.4/m.0/Add_output_0",
    "Location": "Device",
    "Dimensions": [1,64,80,80],
    "Format/Datatype": "Thirty-two wide channel vectorized row major Int8 format"
  }],
  "Outputs": [
  {
    "Name": "/model.4/Concat_output_0",
    "Location": "Device",
    "Dimensions": [1,64,80,80],
    "Format/Datatype": "Thirty-two wide channel vectorized row major Int8 format"
  }],
  "ParameterType": "Reformat",
  "Origin": "CONCAT",
  "TacticValue": "0x0000000000000000",
  "StreamId": 0,
  "Metadata": "[ONNX Layer: /model.4/Concat]"
},{
  "Name": "/model.4/cv2/conv/Conv + PWN(PWN(/model.4/cv2/act/Sigmoid), /model.4/cv2/act/Mul)",
  "LayerType": "CaskConvolution",
  "Inputs": [
  {
    "Name": "/model.4/Concat_output_0",
    "Location": "Device",
    "Dimensions": [1,192,80,80],
    "Format/Datatype": "Thirty-two wide channel vectorized row major Int8 format"
  }],
  "Outputs": [
  {
    "Name": "/model.15/Concat_output_0",
    "Location": "Device",
    "Dimensions": [1,256,80,80],
    "Format/Datatype": "Thirty-two wide channel vectorized row major Int8 format"
  }],
  "ParameterType": "Convolution",
  "Kernel": [1,1],
  "PaddingMode": "kEXPLICIT_ROUND_DOWN",
  "PrePadding": [0,0],
  "PostPadding": [0,0],
  "Stride": [1,1],
  "Dilation": [1,1],
  "OutMaps": 256,
  "Groups": 1,
  "Weights": {"Type": "Int8", "Count": 49152},
  "Bias": {"Type": "Float", "Count": 256},
  "HasSparseWeights": 0,
  "HasDynamicFilter": 0,
  "HasDynamicBias": 0,
  "HasResidual": 0,
  "ConvXAsActInputIdx": -1,
  "BiasAsActInputIdx": -1,
  "ResAsActInputIdx": -1,
  "Activation": "SWISH",
  "HasBias": 1,
  "HasReLU": 0,
  "TacticName": "sm80_xmma_fprop_implicit_gemm_interleaved_i8i8_i8i32_f32_nchw_vect_c_32kcrs_vect_c_32_nchw_vect_c_32_tilesize256x128x64_stage4_warpsize4x2x1_g1_tensor16x8x32_simple_t1r1s1_swish",
  "TacticValue": "0x0e1225de5ed2825a",
  "StreamId": 0,
  "Metadata": "[ONNX Layer: /model.4/cv2/conv/Conv]\u001e[ONNX Layer: /model.4/cv2/act/Sigmoid]\u001e[ONNX Layer: /model.4/cv2/act/Mul]"
},{
  "Name": "/model.5/conv/Conv + PWN(PWN(/model.5/act/Sigmoid), /model.5/act/Mul)",
  "LayerType": "CaskConvolution",
  "Inputs": [
  {
    "Name": "/model.15/Concat_output_0",
    "Location": "Device",
    "Dimensions": [1,256,80,80],
    "Format/Datatype": "Thirty-two wide channel vectorized row major Int8 format"
  }],
  "Outputs": [
  {
    "Name": "/model.5/act/Mul_output_0",
    "Location": "Device",
    "Dimensions": [1,256,40,40],
    "Format/Datatype": "Thirty-two wide channel vectorized row major Int8 format"
  }],
  "ParameterType": "Convolution",
  "Kernel": [3,3],
  "PaddingMode": "kEXPLICIT_ROUND_DOWN",
  "PrePadding": [1,1],
  "PostPadding": [1,1],
  "Stride": [2,2],
  "Dilation": [1,1],
  "OutMaps": 256,
  "Groups": 1,
  "Weights": {"Type": "Int8", "Count": 589824},
  "Bias": {"Type": "Float", "Count": 256},
  "HasSparseWeights": 0,
  "HasDynamicFilter": 0,
  "HasDynamicBias": 0,
  "HasResidual": 0,
  "ConvXAsActInputIdx": -1,
  "BiasAsActInputIdx": -1,
  "ResAsActInputIdx": -1,
  "Activation": "SWISH",
  "HasBias": 1,
  "HasReLU": 0,
  "TacticName": "sm80_xmma_fprop_implicit_gemm_interleaved_i8i8_i8i32_f32_nchw_vect_c_32kcrs_vect_c_32_nchw_vect_c_32_tilesize64x128x64_stage6_warpsize2x2x1_g1_tensor16x8x32_t1r3s3_swish",
  "TacticValue": "0x6c9b9925c4cc67b0",
  "StreamId": 0,
  "Metadata": "[ONNX Layer: /model.5/conv/Conv]\u001e[ONNX Layer: /model.5/act/Sigmoid]\u001e[ONNX Layer: /model.5/act/Mul]"
},{
  "Name": "/model.6/cv1/conv/Conv + PWN(PWN(/model.6/cv1/act/Sigmoid), /model.6/cv1/act/Mul)",
  "LayerType": "CaskConvolution",
  "Inputs": [
  {
    "Name": "/model.5/act/Mul_output_0",
    "Location": "Device",
    "Dimensions": [1,256,40,40],
    "Format/Datatype": "Thirty-two wide channel vectorized row major Int8 format"
  }],
  "Outputs": [
  {
    "Name": "/model.6/cv1/act/Mul_output_0",
    "Location": "Device",
    "Dimensions": [1,256,40,40],
    "Format/Datatype": "Thirty-two wide channel vectorized row major Int8 format"
  }],
  "ParameterType": "Convolution",
  "Kernel": [1,1],
  "PaddingMode": "kEXPLICIT_ROUND_DOWN",
  "PrePadding": [0,0],
  "PostPadding": [0,0],
  "Stride": [1,1],
  "Dilation": [1,1],
  "OutMaps": 256,
  "Groups": 1,
  "Weights": {"Type": "Int8", "Count": 65536},
  "Bias": {"Type": "Float", "Count": 256},
  "HasSparseWeights": 0,
  "HasDynamicFilter": 0,
  "HasDynamicBias": 0,
  "HasResidual": 0,
  "ConvXAsActInputIdx": -1,
  "BiasAsActInputIdx": -1,
  "ResAsActInputIdx": -1,
  "Activation": "SWISH",
  "HasBias": 1,
  "HasReLU": 0,
  "TacticName": "sm80_xmma_fprop_implicit_gemm_interleaved_i8i8_i8i32_f32_nchw_vect_c_32kcrs_vect_c_32_nchw_vect_c_32_tilesize128x64x64_stage6_warpsize2x2x1_g1_tensor16x8x32_t1r1s1_swish",
  "TacticValue": "0x70f060961873cac4",
  "StreamId": 0,
  "Metadata": "[ONNX Layer: /model.6/cv1/conv/Conv]\u001e[ONNX Layer: /model.6/cv1/act/Sigmoid]\u001e[ONNX Layer: /model.6/cv1/act/Mul]"
},{
  "Name": "/model.6/m.0/cv1/conv/Conv + PWN(PWN(/model.6/m.0/cv1/act/Sigmoid), /model.6/m.0/cv1/act/Mul)",
  "LayerType": "CaskConvolution",
  "Inputs": [
  {
    "Name": "/model.6/cv1/act/Mul_output_0",
    "Location": "Device",
    "Dimensions": [1,128,40,40],
    "Format/Datatype": "Thirty-two wide channel vectorized row major Int8 format"
  }],
  "Outputs": [
  {
    "Name": "/model.6/m.0/cv1/act/Mul_output_0",
    "Location": "Device",
    "Dimensions": [1,64,40,40],
    "Format/Datatype": "Thirty-two wide channel vectorized row major Int8 format"
  }],
  "ParameterType": "Convolution",
  "Kernel": [1,1],
  "PaddingMode": "kEXPLICIT_ROUND_DOWN",
  "PrePadding": [0,0],
  "PostPadding": [0,0],
  "Stride": [1,1],
  "Dilation": [1,1],
  "OutMaps": 64,
  "Groups": 1,
  "Weights": {"Type": "Int8", "Count": 8192},
  "Bias": {"Type": "Float", "Count": 64},
  "HasSparseWeights": 0,
  "HasDynamicFilter": 0,
  "HasDynamicBias": 0,
  "HasResidual": 0,
  "ConvXAsActInputIdx": -1,
  "BiasAsActInputIdx": -1,
  "ResAsActInputIdx": -1,
  "Activation": "SWISH",
  "HasBias": 1,
  "HasReLU": 0,
  "TacticName": "sm80_xmma_fprop_implicit_gemm_interleaved_i8i8_i8i32_f32_nchw_vect_c_32kcrs_vect_c_32_nchw_vect_c_32_tilesize32x64x64_stage6_warpsize2x2x1_g1_tensor16x8x32_t1r1s1_swish",
  "TacticValue": "0xe2d66a9164dfe333",
  "StreamId": 0,
  "Metadata": "[ONNX Layer: /model.6/m.0/cv1/conv/Conv]\u001e[ONNX Layer: /model.6/m.0/cv1/act/Sigmoid]\u001e[ONNX Layer: /model.6/m.0/cv1/act/Mul]"
},{
  "Name": "/model.6/m.0/m/m.0/cv1/conv/Conv + PWN(PWN(/model.6/m.0/m/m.0/cv1/act/Sigmoid), /model.6/m.0/m/m.0/cv1/act/Mul)",
  "LayerType": "CaskConvolution",
  "Inputs": [
  {
    "Name": "/model.6/m.0/cv1/act/Mul_output_0",
    "Location": "Device",
    "Dimensions": [1,64,40,40],
    "Format/Datatype": "Thirty-two wide channel vectorized row major Int8 format"
  }],
  "Outputs": [
  {
    "Name": "/model.6/m.0/m/m.0/cv1/act/Mul_output_0",
    "Location": "Device",
    "Dimensions": [1,64,40,40],
    "Format/Datatype": "Thirty-two wide channel vectorized row major Int8 format"
  }],
  "ParameterType": "Convolution",
  "Kernel": [3,3],
  "PaddingMode": "kEXPLICIT_ROUND_DOWN",
  "PrePadding": [1,1],
  "PostPadding": [1,1],
  "Stride": [1,1],
  "Dilation": [1,1],
  "OutMaps": 64,
  "Groups": 1,
  "Weights": {"Type": "Int8", "Count": 36864},
  "Bias": {"Type": "Float", "Count": 64},
  "HasSparseWeights": 0,
  "HasDynamicFilter": 0,
  "HasDynamicBias": 0,
  "HasResidual": 0,
  "ConvXAsActInputIdx": -1,
  "BiasAsActInputIdx": -1,
  "ResAsActInputIdx": -1,
  "Activation": "SWISH",
  "HasBias": 1,
  "HasReLU": 0,
  "TacticName": "sm80_xmma_fprop_implicit_gemm_interleaved_i8i8_i8i32_f32_nchw_vect_c_32kcrs_vect_c_32_nchw_vect_c_32_tilesize32x64x64_stage6_warpsize2x2x1_g1_tensor16x8x32_t1r3s3_swish",
  "TacticValue": "0x6fd15a9d85252b17",
  "StreamId": 0,
  "Metadata": "[ONNX Layer: /model.6/m.0/m/m.0/cv1/conv/Conv]\u001e[ONNX Layer: /model.6/m.0/m/m.0/cv1/act/Sigmoid]\u001e[ONNX Layer: /model.6/m.0/m/m.0/cv1/act/Mul]"
},{
  "Name": "/model.6/m.0/m/m.0/cv2/conv/Conv",
  "LayerType": "CaskConvolution",
  "Inputs": [
  {
    "Name": "/model.6/m.0/m/m.0/cv1/act/Mul_output_0",
    "Location": "Device",
    "Dimensions": [1,64,40,40],
    "Format/Datatype": "Thirty-two wide channel vectorized row major Int8 format"
  }],
  "Outputs": [
  {
    "Name": "/model.6/m.0/m/m.0/cv2/conv/Conv_output_0",
    "Location": "Device",
    "Dimensions": [1,64,40,40],
    "Format/Datatype": "Thirty-two wide channel vectorized row major Int8 format"
  }],
  "ParameterType": "Convolution",
  "Kernel": [3,3],
  "PaddingMode": "kEXPLICIT_ROUND_DOWN",
  "PrePadding": [1,1],
  "PostPadding": [1,1],
  "Stride": [1,1],
  "Dilation": [1,1],
  "OutMaps": 64,
  "Groups": 1,
  "Weights": {"Type": "Int8", "Count": 36864},
  "Bias": {"Type": "Float", "Count": 64},
  "HasSparseWeights": 0,
  "HasDynamicFilter": 0,
  "HasDynamicBias": 0,
  "HasResidual": 0,
  "ConvXAsActInputIdx": -1,
  "BiasAsActInputIdx": -1,
  "ResAsActInputIdx": -1,
  "Activation": "NONE",
  "HasBias": 1,
  "HasReLU": 0,
  "TacticName": "sm80_xmma_fprop_implicit_gemm_interleaved_i8i8_i8i32_f32_nchw_vect_c_32kcrs_vect_c_32_nchw_vect_c_32_tilesize32x64x64_stage6_warpsize2x2x1_g1_tensor16x8x32_t1r3s3",
  "TacticValue": "0xd3f592fae61c7986",
  "StreamId": 0,
  "Metadata": "[ONNX Layer: /model.6/m.0/m/m.0/cv2/conv/Conv]"
},{
  "Name": "PWN(PWN(PWN(/model.6/m.0/m/m.0/cv2/act/Sigmoid), /model.6/m.0/m/m.0/cv2/act/Mul), /model.6/m.0/m/m.0/Add)",
  "LayerType": "PointWiseV2",
  "Inputs": [
  {
    "Name": "/model.6/m.0/m/m.0/cv2/conv/Conv_output_0",
    "Location": "Device",
    "Dimensions": [1,64,40,40],
    "Format/Datatype": "Thirty-two wide channel vectorized row major Int8 format"
  },
  {
    "Name": "/model.6/m.0/cv1/act/Mul_output_0",
    "Location": "Device",
    "Dimensions": [1,64,40,40],
    "Format/Datatype": "Thirty-two wide channel vectorized row major Int8 format"
  }],
  "Outputs": [
  {
    "Name": "/model.6/m.0/m/m.0/Add_output_0",
    "Location": "Device",
    "Dimensions": [1,64,40,40],
    "Format/Datatype": "Thirty-two wide channel vectorized row major Int8 format"
  }],
  "ParameterType": "PointWise",
  "ParameterSubType": "PointWiseExpression",
  "NbInputArgs": 2,
  "InputArgs": ["arg0", "arg1"],
  "NbOutputVars": 1,
  "OutputVars": ["var5"],
  "NbParams": 0,
  "Params": [],
  "NbLiterals": 5,
  "Literals": ["0.000000e+00f", "1.000000e+00f", "0.000000e+00f", "0.000000e+00f", "5.000000e-01f"],
  "NbOperations": 6,
  "Operations": ["auto const var0 = pwgen::iMul(literal4, arg0);", "auto const var1 = pwgen::iTanh(var0);", "auto const var2 = pwgen::iMul(var1, literal4);", "auto const var3 = pwgen::iPlus(var2, literal4);", "auto const var4 = pwgen::iMul(arg0, var3);", "auto const var5 = pwgen::iPlus(arg1, var4);"],
  "TacticValue": "0x0000000000000018",
  "StreamId": 0,
  "Metadata": "[ONNX Layer: /model.6/m.0/m/m.0/cv2/act/Sigmoid]\u001e[ONNX Layer: /model.6/m.0/m/m.0/cv2/act/Mul]\u001e[ONNX Layer: /model.6/m.0/m/m.0/Add]"
},{
  "Name": "/model.6/m.0/m/m.1/cv1/conv/Conv + PWN(PWN(/model.6/m.0/m/m.1/cv1/act/Sigmoid), /model.6/m.0/m/m.1/cv1/act/Mul)",
  "LayerType": "CaskConvolution",
  "Inputs": [
  {
    "Name": "/model.6/m.0/m/m.0/Add_output_0",
    "Location": "Device",
    "Dimensions": [1,64,40,40],
    "Format/Datatype": "Thirty-two wide channel vectorized row major Int8 format"
  }],
  "Outputs": [
  {
    "Name": "/model.6/m.0/m/m.1/cv1/act/Mul_output_0",
    "Location": "Device",
    "Dimensions": [1,64,40,40],
    "Format/Datatype": "Thirty-two wide channel vectorized row major Int8 format"
  }],
  "ParameterType": "Convolution",
  "Kernel": [3,3],
  "PaddingMode": "kEXPLICIT_ROUND_DOWN",
  "PrePadding": [1,1],
  "PostPadding": [1,1],
  "Stride": [1,1],
  "Dilation": [1,1],
  "OutMaps": 64,
  "Groups": 1,
  "Weights": {"Type": "Int8", "Count": 36864},
  "Bias": {"Type": "Float", "Count": 64},
  "HasSparseWeights": 0,
  "HasDynamicFilter": 0,
  "HasDynamicBias": 0,
  "HasResidual": 0,
  "ConvXAsActInputIdx": -1,
  "BiasAsActInputIdx": -1,
  "ResAsActInputIdx": -1,
  "Activation": "SWISH",
  "HasBias": 1,
  "HasReLU": 0,
  "TacticName": "sm80_xmma_fprop_implicit_gemm_interleaved_i8i8_i8i32_f32_nchw_vect_c_32kcrs_vect_c_32_nchw_vect_c_32_tilesize32x64x64_stage6_warpsize2x2x1_g1_tensor16x8x32_t1r3s3_swish",
  "TacticValue": "0x6fd15a9d85252b17",
  "StreamId": 0,
  "Metadata": "[ONNX Layer: /model.6/m.0/m/m.1/cv1/conv/Conv]\u001e[ONNX Layer: /model.6/m.0/m/m.1/cv1/act/Sigmoid]\u001e[ONNX Layer: /model.6/m.0/m/m.1/cv1/act/Mul]"
},{
  "Name": "/model.6/m.0/m/m.1/cv2/conv/Conv",
  "LayerType": "CaskConvolution",
  "Inputs": [
  {
    "Name": "/model.6/m.0/m/m.1/cv1/act/Mul_output_0",
    "Location": "Device",
    "Dimensions": [1,64,40,40],
    "Format/Datatype": "Thirty-two wide channel vectorized row major Int8 format"
  }],
  "Outputs": [
  {
    "Name": "/model.6/m.0/m/m.1/cv2/conv/Conv_output_0",
    "Location": "Device",
    "Dimensions": [1,64,40,40],
    "Format/Datatype": "Thirty-two wide channel vectorized row major Int8 format"
  }],
  "ParameterType": "Convolution",
  "Kernel": [3,3],
  "PaddingMode": "kEXPLICIT_ROUND_DOWN",
  "PrePadding": [1,1],
  "PostPadding": [1,1],
  "Stride": [1,1],
  "Dilation": [1,1],
  "OutMaps": 64,
  "Groups": 1,
  "Weights": {"Type": "Int8", "Count": 36864},
  "Bias": {"Type": "Float", "Count": 64},
  "HasSparseWeights": 0,
  "HasDynamicFilter": 0,
  "HasDynamicBias": 0,
  "HasResidual": 0,
  "ConvXAsActInputIdx": -1,
  "BiasAsActInputIdx": -1,
  "ResAsActInputIdx": -1,
  "Activation": "NONE",
  "HasBias": 1,
  "HasReLU": 0,
  "TacticName": "sm80_xmma_fprop_implicit_gemm_interleaved_i8i8_i8i32_f32_nchw_vect_c_32kcrs_vect_c_32_nchw_vect_c_32_tilesize32x64x64_stage6_warpsize2x2x1_g1_tensor16x8x32_t1r3s3",
  "TacticValue": "0xd3f592fae61c7986",
  "StreamId": 0,
  "Metadata": "[ONNX Layer: /model.6/m.0/m/m.1/cv2/conv/Conv]"
},{
  "Name": "PWN(PWN(PWN(/model.6/m.0/m/m.1/cv2/act/Sigmoid), /model.6/m.0/m/m.1/cv2/act/Mul), /model.6/m.0/m/m.1/Add)",
  "LayerType": "PointWiseV2",
  "Inputs": [
  {
    "Name": "/model.6/m.0/m/m.1/cv2/conv/Conv_output_0",
    "Location": "Device",
    "Dimensions": [1,64,40,40],
    "Format/Datatype": "Thirty-two wide channel vectorized row major Int8 format"
  },
  {
    "Name": "/model.6/m.0/m/m.0/Add_output_0",
    "Location": "Device",
    "Dimensions": [1,64,40,40],
    "Format/Datatype": "Thirty-two wide channel vectorized row major Int8 format"
  }],
  "Outputs": [
  {
    "Name": "/model.6/m.0/Concat_output_0",
    "Location": "Device",
    "Dimensions": [1,64,40,40],
    "Format/Datatype": "Thirty-two wide channel vectorized row major Int8 format"
  }],
  "ParameterType": "PointWise",
  "ParameterSubType": "PointWiseExpression",
  "NbInputArgs": 2,
  "InputArgs": ["arg0", "arg1"],
  "NbOutputVars": 1,
  "OutputVars": ["var5"],
  "NbParams": 0,
  "Params": [],
  "NbLiterals": 5,
  "Literals": ["0.000000e+00f", "1.000000e+00f", "0.000000e+00f", "0.000000e+00f", "5.000000e-01f"],
  "NbOperations": 6,
  "Operations": ["auto const var0 = pwgen::iMul(literal4, arg0);", "auto const var1 = pwgen::iTanh(var0);", "auto const var2 = pwgen::iMul(var1, literal4);", "auto const var3 = pwgen::iPlus(var2, literal4);", "auto const var4 = pwgen::iMul(arg0, var3);", "auto const var5 = pwgen::iPlus(arg1, var4);"],
  "TacticValue": "0x0000000000000014",
  "StreamId": 0,
  "Metadata": "[ONNX Layer: /model.6/m.0/m/m.1/cv2/act/Sigmoid]\u001e[ONNX Layer: /model.6/m.0/m/m.1/cv2/act/Mul]\u001e[ONNX Layer: /model.6/m.0/m/m.1/Add]"
},{
  "Name": "/model.6/m.0/cv2/conv/Conv + PWN(PWN(/model.6/m.0/cv2/act/Sigmoid), /model.6/m.0/cv2/act/Mul)",
  "LayerType": "CaskConvolution",
  "Inputs": [
  {
    "Name": "/model.6/cv1/act/Mul_output_0",
    "Location": "Device",
    "Dimensions": [1,128,40,40],
    "Format/Datatype": "Thirty-two wide channel vectorized row major Int8 format"
  }],
  "Outputs": [
  {
    "Name": "/model.6/m.0/Concat_output_0",
    "Location": "Device",
    "Dimensions": [1,64,40,40],
    "Format/Datatype": "Thirty-two wide channel vectorized row major Int8 format"
  }],
  "ParameterType": "Convolution",
  "Kernel": [1,1],
  "PaddingMode": "kEXPLICIT_ROUND_DOWN",
  "PrePadding": [0,0],
  "PostPadding": [0,0],
  "Stride": [1,1],
  "Dilation": [1,1],
  "OutMaps": 64,
  "Groups": 1,
  "Weights": {"Type": "Int8", "Count": 8192},
  "Bias": {"Type": "Float", "Count": 64},
  "HasSparseWeights": 0,
  "HasDynamicFilter": 0,
  "HasDynamicBias": 0,
  "HasResidual": 0,
  "ConvXAsActInputIdx": -1,
  "BiasAsActInputIdx": -1,
  "ResAsActInputIdx": -1,
  "Activation": "SWISH",
  "HasBias": 1,
  "HasReLU": 0,
  "TacticName": "sm80_xmma_fprop_implicit_gemm_interleaved_i8i8_i8i32_f32_nchw_vect_c_32kcrs_vect_c_32_nchw_vect_c_32_tilesize32x32x64_stage6_warpsize2x1x1_g1_tensor16x8x32_simple_t1r1s1_swish",
  "TacticValue": "0xc6cdb1e47323bb01",
  "StreamId": 0,
  "Metadata": "[ONNX Layer: /model.6/m.0/cv2/conv/Conv]\u001e[ONNX Layer: /model.6/m.0/cv2/act/Sigmoid]\u001e[ONNX Layer: /model.6/m.0/cv2/act/Mul]"
},{
  "Name": "/model.6/m.0/cv3/conv/Conv + PWN(PWN(/model.6/m.0/cv3/act/Sigmoid), /model.6/m.0/cv3/act/Mul)",
  "LayerType": "CaskConvolution",
  "Inputs": [
  {
    "Name": "/model.6/m.0/Concat_output_0",
    "Location": "Device",
    "Dimensions": [1,128,40,40],
    "Format/Datatype": "Thirty-two wide channel vectorized row major Int8 format"
  }],
  "Outputs": [
  {
    "Name": "/model.6/Concat_output_0",
    "Location": "Device",
    "Dimensions": [1,128,40,40],
    "Format/Datatype": "Thirty-two wide channel vectorized row major Int8 format"
  }],
  "ParameterType": "Convolution",
  "Kernel": [1,1],
  "PaddingMode": "kEXPLICIT_ROUND_DOWN",
  "PrePadding": [0,0],
  "PostPadding": [0,0],
  "Stride": [1,1],
  "Dilation": [1,1],
  "OutMaps": 128,
  "Groups": 1,
  "Weights": {"Type": "Int8", "Count": 16384},
  "Bias": {"Type": "Float", "Count": 128},
  "HasSparseWeights": 0,
  "HasDynamicFilter": 0,
  "HasDynamicBias": 0,
  "HasResidual": 0,
  "ConvXAsActInputIdx": -1,
  "BiasAsActInputIdx": -1,
  "ResAsActInputIdx": -1,
  "Activation": "SWISH",
  "HasBias": 1,
  "HasReLU": 0,
  "TacticName": "sm80_xmma_fprop_implicit_gemm_interleaved_i8i8_i8i32_f32_nchw_vect_c_32kcrs_vect_c_32_nchw_vect_c_32_tilesize64x64x64_stage6_warpsize2x2x1_g1_tensor16x8x32_t1r1s1_swish",
  "TacticValue": "0x4a25dfdaea3c22a0",
  "StreamId": 0,
  "Metadata": "[ONNX Layer: /model.6/m.0/cv3/conv/Conv]\u001e[ONNX Layer: /model.6/m.0/cv3/act/Sigmoid]\u001e[ONNX Layer: /model.6/m.0/cv3/act/Mul]"
},{
  "Name": "/model.6/Split_output_0 copy",
  "LayerType": "Reformat",
  "Inputs": [
  {
    "Name": "/model.6/cv1/act/Mul_output_0",
    "Location": "Device",
    "Dimensions": [1,128,40,40],
    "Format/Datatype": "Thirty-two wide channel vectorized row major Int8 format"
  }],
  "Outputs": [
  {
    "Name": "/model.6/Concat_output_0",
    "Location": "Device",
    "Dimensions": [1,128,40,40],
    "Format/Datatype": "Thirty-two wide channel vectorized row major Int8 format"
  }],
  "ParameterType": "Reformat",
  "Origin": "CONCAT",
  "TacticValue": "0x0000000000000000",
  "StreamId": 0,
  "Metadata": "[ONNX Layer: /model.6/Concat]"
},{
  "Name": "/model.6/Split_output_1 copy",
  "LayerType": "Reformat",
  "Inputs": [
  {
    "Name": "/model.6/cv1/act/Mul_output_0",
    "Location": "Device",
    "Dimensions": [1,128,40,40],
    "Format/Datatype": "Thirty-two wide channel vectorized row major Int8 format"
  }],
  "Outputs": [
  {
    "Name": "/model.6/Concat_output_0",
    "Location": "Device",
    "Dimensions": [1,128,40,40],
    "Format/Datatype": "Thirty-two wide channel vectorized row major Int8 format"
  }],
  "ParameterType": "Reformat",
  "Origin": "CONCAT",
  "TacticValue": "0x0000000000000000",
  "StreamId": 0,
  "Metadata": "[ONNX Layer: /model.6/Concat]"
},{
  "Name": "/model.6/cv2/conv/Conv + PWN(PWN(/model.6/cv2/act/Sigmoid), /model.6/cv2/act/Mul)",
  "LayerType": "CaskConvolution",
  "Inputs": [
  {
    "Name": "/model.6/Concat_output_0",
    "Location": "Device",
    "Dimensions": [1,384,40,40],
    "Format/Datatype": "Thirty-two wide channel vectorized row major Int8 format"
  }],
  "Outputs": [
  {
    "Name": "/model.6/cv2/act/Mul_output_0",
    "Location": "Device",
    "Dimensions": [1,256,40,40],
    "Format/Datatype": "Thirty-two wide channel vectorized row major Int8 format"
  }],
  "ParameterType": "Convolution",
  "Kernel": [1,1],
  "PaddingMode": "kEXPLICIT_ROUND_DOWN",
  "PrePadding": [0,0],
  "PostPadding": [0,0],
  "Stride": [1,1],
  "Dilation": [1,1],
  "OutMaps": 256,
  "Groups": 1,
  "Weights": {"Type": "Int8", "Count": 98304},
  "Bias": {"Type": "Float", "Count": 256},
  "HasSparseWeights": 0,
  "HasDynamicFilter": 0,
  "HasDynamicBias": 0,
  "HasResidual": 0,
  "ConvXAsActInputIdx": -1,
  "BiasAsActInputIdx": -1,
  "ResAsActInputIdx": -1,
  "Activation": "SWISH",
  "HasBias": 1,
  "HasReLU": 0,
  "TacticName": "sm80_xmma_fprop_implicit_gemm_interleaved_i8i8_i8i32_f32_nchw_vect_c_32kcrs_vect_c_32_nchw_vect_c_32_tilesize128x64x64_stage6_warpsize2x2x1_g1_tensor16x8x32_t1r1s1_swish",
  "TacticValue": "0x70f060961873cac4",
  "StreamId": 0,
  "Metadata": "[ONNX Layer: /model.6/cv2/conv/Conv]\u001e[ONNX Layer: /model.6/cv2/act/Sigmoid]\u001e[ONNX Layer: /model.6/cv2/act/Mul]"
},{
  "Name": "/model.7/conv/Conv + PWN(PWN(/model.7/act/Sigmoid), /model.7/act/Mul)",
  "LayerType": "CaskConvolution",
  "Inputs": [
  {
    "Name": "/model.6/cv2/act/Mul_output_0",
    "Location": "Device",
    "Dimensions": [1,256,40,40],
    "Format/Datatype": "Thirty-two wide channel vectorized row major Int8 format"
  }],
  "Outputs": [
  {
    "Name": "/model.7/act/Mul_output_0",
    "Location": "Device",
    "Dimensions": [1,512,20,20],
    "Format/Datatype": "Thirty-two wide channel vectorized row major Int8 format"
  }],
  "ParameterType": "Convolution",
  "Kernel": [3,3],
  "PaddingMode": "kEXPLICIT_ROUND_DOWN",
  "PrePadding": [1,1],
  "PostPadding": [1,1],
  "Stride": [2,2],
  "Dilation": [1,1],
  "OutMaps": 512,
  "Groups": 1,
  "Weights": {"Type": "Int8", "Count": 1179648},
  "Bias": {"Type": "Float", "Count": 512},
  "HasSparseWeights": 0,
  "HasDynamicFilter": 0,
  "HasDynamicBias": 0,
  "HasResidual": 0,
  "ConvXAsActInputIdx": -1,
  "BiasAsActInputIdx": -1,
  "ResAsActInputIdx": -1,
  "Activation": "SWISH",
  "HasBias": 1,
  "HasReLU": 0,
  "TacticName": "sm80_xmma_fprop_implicit_gemm_interleaved_i8i8_i8i32_f32_nchw_vect_c_32kcrs_vect_c_32_nchw_vect_c_32_tilesize64x32x64_stage6_warpsize2x1x1_g1_tensor16x8x32_t1r3s3_swish",
  "TacticValue": "0x6176c23707257237",
  "StreamId": 0,
  "Metadata": "[ONNX Layer: /model.7/conv/Conv]\u001e[ONNX Layer: /model.7/act/Sigmoid]\u001e[ONNX Layer: /model.7/act/Mul]"
},{
  "Name": "/model.8/cv1/conv/Conv + PWN(PWN(/model.8/cv1/act/Sigmoid), /model.8/cv1/act/Mul)",
  "LayerType": "CaskConvolution",
  "Inputs": [
  {
    "Name": "/model.7/act/Mul_output_0",
    "Location": "Device",
    "Dimensions": [1,512,20,20],
    "Format/Datatype": "Thirty-two wide channel vectorized row major Int8 format"
  }],
  "Outputs": [
  {
    "Name": "Reformatted Output Tensor 0 to /model.8/cv1/conv/Conv + PWN(PWN(/model.8/cv1/act/Sigmoid), /model.8/cv1/act/Mul)",
    "Location": "Device",
    "Dimensions": [1,512,20,20],
    "Format/Datatype": "Thirty-two wide channel vectorized row major Int8 format"
  }],
  "ParameterType": "Convolution",
  "Kernel": [1,1],
  "PaddingMode": "kEXPLICIT_ROUND_DOWN",
  "PrePadding": [0,0],
  "PostPadding": [0,0],
  "Stride": [1,1],
  "Dilation": [1,1],
  "OutMaps": 512,
  "Groups": 1,
  "Weights": {"Type": "Int8", "Count": 262144},
  "Bias": {"Type": "Float", "Count": 512},
  "HasSparseWeights": 0,
  "HasDynamicFilter": 0,
  "HasDynamicBias": 0,
  "HasResidual": 0,
  "ConvXAsActInputIdx": -1,
  "BiasAsActInputIdx": -1,
  "ResAsActInputIdx": -1,
  "Activation": "SWISH",
  "HasBias": 1,
  "HasReLU": 0,
  "TacticName": "sm80_xmma_fprop_implicit_gemm_interleaved_i8i8_i8i32_f32_nchw_vect_c_32kcrs_vect_c_32_nchw_vect_c_32_tilesize64x64x64_stage6_warpsize2x2x1_g1_tensor16x8x32_simple_t1r1s1_swish",
  "TacticValue": "0x2eba0b6a8ec55fa3",
  "StreamId": 0,
  "Metadata": "[ONNX Layer: /model.8/cv1/conv/Conv]\u001e[ONNX Layer: /model.8/cv1/act/Sigmoid]\u001e[ONNX Layer: /model.8/cv1/act/Mul]"
},{
  "Name": "Reformatting CopyNode for Output Tensor 0 to /model.8/cv1/conv/Conv + PWN(PWN(/model.8/cv1/act/Sigmoid), /model.8/cv1/act/Mul)",
  "LayerType": "Reformat",
  "Inputs": [
  {
    "Name": "Reformatted Output Tensor 0 to /model.8/cv1/conv/Conv + PWN(PWN(/model.8/cv1/act/Sigmoid), /model.8/cv1/act/Mul)",
    "Location": "Device",
    "Dimensions": [1,512,20,20],
    "Format/Datatype": "Thirty-two wide channel vectorized row major Int8 format"
  }],
  "Outputs": [
  {
    "Name": "/model.8/cv1/act/Mul_output_0",
    "Location": "Device",
    "Dimensions": [1,512,20,20],
    "Format/Datatype": "Four wide channel vectorized row major Int8 format"
  }],
  "ParameterType": "Reformat",
  "Origin": "REFORMAT",
  "TacticValue": "0x00000000000003e8",
  "StreamId": 0,
  "Metadata": ""
},{
  "Name": "Reformatting CopyNode for Input Tensor 0 to /model.8/m.0/cv1/conv/Conv + PWN(PWN(/model.8/m.0/cv1/act/Sigmoid), /model.8/m.0/cv1/act/Mul)",
  "LayerType": "Reformat",
  "Inputs": [
  {
    "Name": "/model.8/cv1/act/Mul_output_0",
    "Location": "Device",
    "Dimensions": [1,256,20,20],
    "Format/Datatype": "Four wide channel vectorized row major Int8 format"
  }],
  "Outputs": [
  {
    "Name": "Reformatted Input Tensor 0 to /model.8/m.0/cv1/conv/Conv + PWN(PWN(/model.8/m.0/cv1/act/Sigmoid), /model.8/m.0/cv1/act/Mul)",
    "Location": "Device",
    "Dimensions": [1,256,20,20],
    "Format/Datatype": "Thirty-two wide channel vectorized row major Int8 format"
  }],
  "ParameterType": "Reformat",
  "Origin": "REFORMAT",
  "TacticValue": "0x0000000000000000",
  "StreamId": 0,
  "Metadata": ""
},{
  "Name": "/model.8/m.0/cv1/conv/Conv + PWN(PWN(/model.8/m.0/cv1/act/Sigmoid), /model.8/m.0/cv1/act/Mul)",
  "LayerType": "CaskConvolution",
  "Inputs": [
  {
    "Name": "Reformatted Input Tensor 0 to /model.8/m.0/cv1/conv/Conv + PWN(PWN(/model.8/m.0/cv1/act/Sigmoid), /model.8/m.0/cv1/act/Mul)",
    "Location": "Device",
    "Dimensions": [1,256,20,20],
    "Format/Datatype": "Thirty-two wide channel vectorized row major Int8 format"
  }],
  "Outputs": [
  {
    "Name": "/model.8/m.0/cv1/act/Mul_output_0",
    "Location": "Device",
    "Dimensions": [1,128,20,20],
    "Format/Datatype": "Thirty-two wide channel vectorized row major Int8 format"
  }],
  "ParameterType": "Convolution",
  "Kernel": [1,1],
  "PaddingMode": "kEXPLICIT_ROUND_DOWN",
  "PrePadding": [0,0],
  "PostPadding": [0,0],
  "Stride": [1,1],
  "Dilation": [1,1],
  "OutMaps": 128,
  "Groups": 1,
  "Weights": {"Type": "Int8", "Count": 32768},
  "Bias": {"Type": "Float", "Count": 128},
  "HasSparseWeights": 0,
  "HasDynamicFilter": 0,
  "HasDynamicBias": 0,
  "HasResidual": 0,
  "ConvXAsActInputIdx": -1,
  "BiasAsActInputIdx": -1,
  "ResAsActInputIdx": -1,
  "Activation": "SWISH",
  "HasBias": 1,
  "HasReLU": 0,
  "TacticName": "sm80_xmma_fprop_implicit_gemm_interleaved_i8i8_i8i32_f32_nchw_vect_c_32kcrs_vect_c_32_nchw_vect_c_32_tilesize32x32x64_stage6_warpsize2x1x1_g1_tensor16x8x32_simple_t1r1s1_swish",
  "TacticValue": "0xc6cdb1e47323bb01",
  "StreamId": 0,
  "Metadata": "[ONNX Layer: /model.8/m.0/cv1/conv/Conv]\u001e[ONNX Layer: /model.8/m.0/cv1/act/Sigmoid]\u001e[ONNX Layer: /model.8/m.0/cv1/act/Mul]"
},{
  "Name": "/model.8/m.0/m/m.0/cv1/conv/Conv + PWN(PWN(/model.8/m.0/m/m.0/cv1/act/Sigmoid), /model.8/m.0/m/m.0/cv1/act/Mul)",
  "LayerType": "CaskConvolution",
  "Inputs": [
  {
    "Name": "/model.8/m.0/cv1/act/Mul_output_0",
    "Location": "Device",
    "Dimensions": [1,128,20,20],
    "Format/Datatype": "Thirty-two wide channel vectorized row major Int8 format"
  }],
  "Outputs": [
  {
    "Name": "/model.8/m.0/m/m.0/cv1/act/Mul_output_0",
    "Location": "Device",
    "Dimensions": [1,128,20,20],
    "Format/Datatype": "Thirty-two wide channel vectorized row major Int8 format"
  }],
  "ParameterType": "Convolution",
  "Kernel": [3,3],
  "PaddingMode": "kEXPLICIT_ROUND_DOWN",
  "PrePadding": [1,1],
  "PostPadding": [1,1],
  "Stride": [1,1],
  "Dilation": [1,1],
  "OutMaps": 128,
  "Groups": 1,
  "Weights": {"Type": "Int8", "Count": 147456},
  "Bias": {"Type": "Float", "Count": 128},
  "HasSparseWeights": 0,
  "HasDynamicFilter": 0,
  "HasDynamicBias": 0,
  "HasResidual": 0,
  "ConvXAsActInputIdx": -1,
  "BiasAsActInputIdx": -1,
  "ResAsActInputIdx": -1,
  "Activation": "SWISH",
  "HasBias": 1,
  "HasReLU": 0,
  "TacticName": "sm80_xmma_fprop_implicit_gemm_interleaved_i8i8_i8i32_f32_nchw_vect_c_32kcrs_vect_c_32_nchw_vect_c_32_tilesize32x64x64_stage6_warpsize2x2x1_g1_tensor16x8x32_t1r3s3_swish",
  "TacticValue": "0x6fd15a9d85252b17",
  "StreamId": 0,
  "Metadata": "[ONNX Layer: /model.8/m.0/m/m.0/cv1/conv/Conv]\u001e[ONNX Layer: /model.8/m.0/m/m.0/cv1/act/Sigmoid]\u001e[ONNX Layer: /model.8/m.0/m/m.0/cv1/act/Mul]"
},{
  "Name": "/model.8/m.0/m/m.0/cv2/conv/Conv",
  "LayerType": "CaskConvolution",
  "Inputs": [
  {
    "Name": "/model.8/m.0/m/m.0/cv1/act/Mul_output_0",
    "Location": "Device",
    "Dimensions": [1,128,20,20],
    "Format/Datatype": "Thirty-two wide channel vectorized row major Int8 format"
  }],
  "Outputs": [
  {
    "Name": "/model.8/m.0/m/m.0/cv2/conv/Conv_output_0",
    "Location": "Device",
    "Dimensions": [1,128,20,20],
    "Format/Datatype": "Thirty-two wide channel vectorized row major Int8 format"
  }],
  "ParameterType": "Convolution",
  "Kernel": [3,3],
  "PaddingMode": "kEXPLICIT_ROUND_DOWN",
  "PrePadding": [1,1],
  "PostPadding": [1,1],
  "Stride": [1,1],
  "Dilation": [1,1],
  "OutMaps": 128,
  "Groups": 1,
  "Weights": {"Type": "Int8", "Count": 147456},
  "Bias": {"Type": "Float", "Count": 128},
  "HasSparseWeights": 0,
  "HasDynamicFilter": 0,
  "HasDynamicBias": 0,
  "HasResidual": 0,
  "ConvXAsActInputIdx": -1,
  "BiasAsActInputIdx": -1,
  "ResAsActInputIdx": -1,
  "Activation": "NONE",
  "HasBias": 1,
  "HasReLU": 0,
  "TacticName": "sm80_xmma_fprop_implicit_gemm_interleaved_i8i8_i8i32_f32_nchw_vect_c_32kcrs_vect_c_32_nchw_vect_c_32_tilesize32x32x64_stage6_warpsize2x1x1_g1_tensor16x8x32_t1r3s3",
  "TacticValue": "0x4749124f62d8bd23",
  "StreamId": 0,
  "Metadata": "[ONNX Layer: /model.8/m.0/m/m.0/cv2/conv/Conv]"
},{
  "Name": "PWN(PWN(PWN(/model.8/m.0/m/m.0/cv2/act/Sigmoid), /model.8/m.0/m/m.0/cv2/act/Mul), /model.8/m.0/m/m.0/Add)",
  "LayerType": "PointWiseV2",
  "Inputs": [
  {
    "Name": "/model.8/m.0/m/m.0/cv2/conv/Conv_output_0",
    "Location": "Device",
    "Dimensions": [1,128,20,20],
    "Format/Datatype": "Thirty-two wide channel vectorized row major Int8 format"
  },
  {
    "Name": "/model.8/m.0/cv1/act/Mul_output_0",
    "Location": "Device",
    "Dimensions": [1,128,20,20],
    "Format/Datatype": "Thirty-two wide channel vectorized row major Int8 format"
  }],
  "Outputs": [
  {
    "Name": "/model.8/m.0/m/m.0/Add_output_0",
    "Location": "Device",
    "Dimensions": [1,128,20,20],
    "Format/Datatype": "Thirty-two wide channel vectorized row major Int8 format"
  }],
  "ParameterType": "PointWise",
  "ParameterSubType": "PointWiseExpression",
  "NbInputArgs": 2,
  "InputArgs": ["arg0", "arg1"],
  "NbOutputVars": 1,
  "OutputVars": ["var5"],
  "NbParams": 0,
  "Params": [],
  "NbLiterals": 5,
  "Literals": ["0.000000e+00f", "1.000000e+00f", "0.000000e+00f", "0.000000e+00f", "5.000000e-01f"],
  "NbOperations": 6,
  "Operations": ["auto const var0 = pwgen::iMul(literal4, arg0);", "auto const var1 = pwgen::iTanh(var0);", "auto const var2 = pwgen::iMul(var1, literal4);", "auto const var3 = pwgen::iPlus(var2, literal4);", "auto const var4 = pwgen::iMul(arg0, var3);", "auto const var5 = pwgen::iPlus(arg1, var4);"],
  "TacticValue": "0x0000000000000018",
  "StreamId": 0,
  "Metadata": "[ONNX Layer: /model.8/m.0/m/m.0/cv2/act/Sigmoid]\u001e[ONNX Layer: /model.8/m.0/m/m.0/cv2/act/Mul]\u001e[ONNX Layer: /model.8/m.0/m/m.0/Add]"
},{
  "Name": "/model.8/m.0/m/m.1/cv1/conv/Conv + PWN(PWN(/model.8/m.0/m/m.1/cv1/act/Sigmoid), /model.8/m.0/m/m.1/cv1/act/Mul)",
  "LayerType": "CaskConvolution",
  "Inputs": [
  {
    "Name": "/model.8/m.0/m/m.0/Add_output_0",
    "Location": "Device",
    "Dimensions": [1,128,20,20],
    "Format/Datatype": "Thirty-two wide channel vectorized row major Int8 format"
  }],
  "Outputs": [
  {
    "Name": "/model.8/m.0/m/m.1/cv1/act/Mul_output_0",
    "Location": "Device",
    "Dimensions": [1,128,20,20],
    "Format/Datatype": "Thirty-two wide channel vectorized row major Int8 format"
  }],
  "ParameterType": "Convolution",
  "Kernel": [3,3],
  "PaddingMode": "kEXPLICIT_ROUND_DOWN",
  "PrePadding": [1,1],
  "PostPadding": [1,1],
  "Stride": [1,1],
  "Dilation": [1,1],
  "OutMaps": 128,
  "Groups": 1,
  "Weights": {"Type": "Int8", "Count": 147456},
  "Bias": {"Type": "Float", "Count": 128},
  "HasSparseWeights": 0,
  "HasDynamicFilter": 0,
  "HasDynamicBias": 0,
  "HasResidual": 0,
  "ConvXAsActInputIdx": -1,
  "BiasAsActInputIdx": -1,
  "ResAsActInputIdx": -1,
  "Activation": "SWISH",
  "HasBias": 1,
  "HasReLU": 0,
  "TacticName": "sm80_xmma_fprop_implicit_gemm_interleaved_i8i8_i8i32_f32_nchw_vect_c_32kcrs_vect_c_32_nchw_vect_c_32_tilesize32x64x64_stage6_warpsize2x2x1_g1_tensor16x8x32_t1r3s3_swish",
  "TacticValue": "0x6fd15a9d85252b17",
  "StreamId": 0,
  "Metadata": "[ONNX Layer: /model.8/m.0/m/m.1/cv1/conv/Conv]\u001e[ONNX Layer: /model.8/m.0/m/m.1/cv1/act/Sigmoid]\u001e[ONNX Layer: /model.8/m.0/m/m.1/cv1/act/Mul]"
},{
  "Name": "/model.8/m.0/m/m.1/cv2/conv/Conv",
  "LayerType": "CaskConvolution",
  "Inputs": [
  {
    "Name": "/model.8/m.0/m/m.1/cv1/act/Mul_output_0",
    "Location": "Device",
    "Dimensions": [1,128,20,20],
    "Format/Datatype": "Thirty-two wide channel vectorized row major Int8 format"
  }],
  "Outputs": [
  {
    "Name": "/model.8/m.0/m/m.1/cv2/conv/Conv_output_0",
    "Location": "Device",
    "Dimensions": [1,128,20,20],
    "Format/Datatype": "Thirty-two wide channel vectorized row major Int8 format"
  }],
  "ParameterType": "Convolution",
  "Kernel": [3,3],
  "PaddingMode": "kEXPLICIT_ROUND_DOWN",
  "PrePadding": [1,1],
  "PostPadding": [1,1],
  "Stride": [1,1],
  "Dilation": [1,1],
  "OutMaps": 128,
  "Groups": 1,
  "Weights": {"Type": "Int8", "Count": 147456},
  "Bias": {"Type": "Float", "Count": 128},
  "HasSparseWeights": 0,
  "HasDynamicFilter": 0,
  "HasDynamicBias": 0,
  "HasResidual": 0,
  "ConvXAsActInputIdx": -1,
  "BiasAsActInputIdx": -1,
  "ResAsActInputIdx": -1,
  "Activation": "NONE",
  "HasBias": 1,
  "HasReLU": 0,
  "TacticName": "sm80_xmma_fprop_implicit_gemm_interleaved_i8i8_i8i32_f32_nchw_vect_c_32kcrs_vect_c_32_nchw_vect_c_32_tilesize32x32x64_stage6_warpsize2x1x1_g1_tensor16x8x32_t1r3s3",
  "TacticValue": "0x4749124f62d8bd23",
  "StreamId": 0,
  "Metadata": "[ONNX Layer: /model.8/m.0/m/m.1/cv2/conv/Conv]"
},{
  "Name": "PWN(PWN(PWN(/model.8/m.0/m/m.1/cv2/act/Sigmoid), /model.8/m.0/m/m.1/cv2/act/Mul), /model.8/m.0/m/m.1/Add)",
  "LayerType": "PointWiseV2",
  "Inputs": [
  {
    "Name": "/model.8/m.0/m/m.1/cv2/conv/Conv_output_0",
    "Location": "Device",
    "Dimensions": [1,128,20,20],
    "Format/Datatype": "Thirty-two wide channel vectorized row major Int8 format"
  },
  {
    "Name": "/model.8/m.0/m/m.0/Add_output_0",
    "Location": "Device",
    "Dimensions": [1,128,20,20],
    "Format/Datatype": "Thirty-two wide channel vectorized row major Int8 format"
  }],
  "Outputs": [
  {
    "Name": "/model.8/m.0/Concat_output_0",
    "Location": "Device",
    "Dimensions": [1,128,20,20],
    "Format/Datatype": "Thirty-two wide channel vectorized row major Int8 format"
  }],
  "ParameterType": "PointWise",
  "ParameterSubType": "PointWiseExpression",
  "NbInputArgs": 2,
  "InputArgs": ["arg0", "arg1"],
  "NbOutputVars": 1,
  "OutputVars": ["var5"],
  "NbParams": 0,
  "Params": [],
  "NbLiterals": 5,
  "Literals": ["0.000000e+00f", "1.000000e+00f", "0.000000e+00f", "0.000000e+00f", "5.000000e-01f"],
  "NbOperations": 6,
  "Operations": ["auto const var0 = pwgen::iMul(literal4, arg0);", "auto const var1 = pwgen::iTanh(var0);", "auto const var2 = pwgen::iMul(var1, literal4);", "auto const var3 = pwgen::iPlus(var2, literal4);", "auto const var4 = pwgen::iMul(arg0, var3);", "auto const var5 = pwgen::iPlus(arg1, var4);"],
  "TacticValue": "0x0000000000000018",
  "StreamId": 0,
  "Metadata": "[ONNX Layer: /model.8/m.0/m/m.1/cv2/act/Sigmoid]\u001e[ONNX Layer: /model.8/m.0/m/m.1/cv2/act/Mul]\u001e[ONNX Layer: /model.8/m.0/m/m.1/Add]"
},{
  "Name": "Reformatting CopyNode for Input Tensor 0 to /model.8/m.0/cv2/conv/Conv + PWN(PWN(/model.8/m.0/cv2/act/Sigmoid), /model.8/m.0/cv2/act/Mul)",
  "LayerType": "Reformat",
  "Inputs": [
  {
    "Name": "/model.8/cv1/act/Mul_output_0",
    "Location": "Device",
    "Dimensions": [1,256,20,20],
    "Format/Datatype": "Four wide channel vectorized row major Int8 format"
  }],
  "Outputs": [
  {
    "Name": "Reformatted Input Tensor 0 to /model.8/m.0/cv2/conv/Conv + PWN(PWN(/model.8/m.0/cv2/act/Sigmoid), /model.8/m.0/cv2/act/Mul)",
    "Location": "Device",
    "Dimensions": [1,256,20,20],
    "Format/Datatype": "Thirty-two wide channel vectorized row major Int8 format"
  }],
  "ParameterType": "Reformat",
  "Origin": "REFORMAT",
  "TacticValue": "0x0000000000000000",
  "StreamId": 0,
  "Metadata": ""
},{
  "Name": "/model.8/m.0/cv2/conv/Conv + PWN(PWN(/model.8/m.0/cv2/act/Sigmoid), /model.8/m.0/cv2/act/Mul)",
  "LayerType": "CaskConvolution",
  "Inputs": [
  {
    "Name": "Reformatted Input Tensor 0 to /model.8/m.0/cv2/conv/Conv + PWN(PWN(/model.8/m.0/cv2/act/Sigmoid), /model.8/m.0/cv2/act/Mul)",
    "Location": "Device",
    "Dimensions": [1,256,20,20],
    "Format/Datatype": "Thirty-two wide channel vectorized row major Int8 format"
  }],
  "Outputs": [
  {
    "Name": "/model.8/m.0/Concat_output_0",
    "Location": "Device",
    "Dimensions": [1,128,20,20],
    "Format/Datatype": "Thirty-two wide channel vectorized row major Int8 format"
  }],
  "ParameterType": "Convolution",
  "Kernel": [1,1],
  "PaddingMode": "kEXPLICIT_ROUND_DOWN",
  "PrePadding": [0,0],
  "PostPadding": [0,0],
  "Stride": [1,1],
  "Dilation": [1,1],
  "OutMaps": 128,
  "Groups": 1,
  "Weights": {"Type": "Int8", "Count": 32768},
  "Bias": {"Type": "Float", "Count": 128},
  "HasSparseWeights": 0,
  "HasDynamicFilter": 0,
  "HasDynamicBias": 0,
  "HasResidual": 0,
  "ConvXAsActInputIdx": -1,
  "BiasAsActInputIdx": -1,
  "ResAsActInputIdx": -1,
  "Activation": "SWISH",
  "HasBias": 1,
  "HasReLU": 0,
  "TacticName": "sm80_xmma_fprop_implicit_gemm_interleaved_i8i8_i8i32_f32_nchw_vect_c_32kcrs_vect_c_32_nchw_vect_c_32_tilesize32x32x64_stage6_warpsize2x1x1_g1_tensor16x8x32_simple_t1r1s1_swish",
  "TacticValue": "0xc6cdb1e47323bb01",
  "StreamId": 0,
  "Metadata": "[ONNX Layer: /model.8/m.0/cv2/conv/Conv]\u001e[ONNX Layer: /model.8/m.0/cv2/act/Sigmoid]\u001e[ONNX Layer: /model.8/m.0/cv2/act/Mul]"
},{
  "Name": "/model.8/m.0/cv3/conv/Conv + PWN(PWN(/model.8/m.0/cv3/act/Sigmoid), /model.8/m.0/cv3/act/Mul)",
  "LayerType": "CaskConvolution",
  "Inputs": [
  {
    "Name": "/model.8/m.0/Concat_output_0",
    "Location": "Device",
    "Dimensions": [1,256,20,20],
    "Format/Datatype": "Thirty-two wide channel vectorized row major Int8 format"
  }],
  "Outputs": [
  {
    "Name": "/model.8/Concat_output_0",
    "Location": "Device",
    "Dimensions": [1,256,20,20],
    "Format/Datatype": "Thirty-two wide channel vectorized row major Int8 format"
  }],
  "ParameterType": "Convolution",
  "Kernel": [1,1],
  "PaddingMode": "kEXPLICIT_ROUND_DOWN",
  "PrePadding": [0,0],
  "PostPadding": [0,0],
  "Stride": [1,1],
  "Dilation": [1,1],
  "OutMaps": 256,
  "Groups": 1,
  "Weights": {"Type": "Int8", "Count": 65536},
  "Bias": {"Type": "Float", "Count": 256},
  "HasSparseWeights": 0,
  "HasDynamicFilter": 0,
  "HasDynamicBias": 0,
  "HasResidual": 0,
  "ConvXAsActInputIdx": -1,
  "BiasAsActInputIdx": -1,
  "ResAsActInputIdx": -1,
  "Activation": "SWISH",
  "HasBias": 1,
  "HasReLU": 0,
  "TacticName": "sm80_xmma_fprop_implicit_gemm_interleaved_i8i8_i8i32_f32_nchw_vect_c_32kcrs_vect_c_32_nchw_vect_c_32_tilesize32x64x64_stage6_warpsize2x2x1_g1_tensor16x8x32_simple_t1r1s1_swish",
  "TacticValue": "0x709ddd0e503c7fd7",
  "StreamId": 0,
  "Metadata": "[ONNX Layer: /model.8/m.0/cv3/conv/Conv]\u001e[ONNX Layer: /model.8/m.0/cv3/act/Sigmoid]\u001e[ONNX Layer: /model.8/m.0/cv3/act/Mul]"
},{
  "Name": "/model.8/Split_output_0 copy",
  "LayerType": "Reformat",
  "Inputs": [
  {
    "Name": "/model.8/cv1/act/Mul_output_0",
    "Location": "Device",
    "Dimensions": [1,256,20,20],
    "Format/Datatype": "Four wide channel vectorized row major Int8 format"
  }],
  "Outputs": [
  {
    "Name": "/model.8/Concat_output_0",
    "Location": "Device",
    "Dimensions": [1,256,20,20],
    "Format/Datatype": "Thirty-two wide channel vectorized row major Int8 format"
  }],
  "ParameterType": "Reformat",
  "Origin": "CONCAT",
  "TacticValue": "0x0000000000000000",
  "StreamId": 0,
  "Metadata": "[ONNX Layer: /model.8/Concat]"
},{
  "Name": "/model.8/Split_output_1 copy",
  "LayerType": "Reformat",
  "Inputs": [
  {
    "Name": "/model.8/cv1/act/Mul_output_0",
    "Location": "Device",
    "Dimensions": [1,256,20,20],
    "Format/Datatype": "Four wide channel vectorized row major Int8 format"
  }],
  "Outputs": [
  {
    "Name": "/model.8/Concat_output_0",
    "Location": "Device",
    "Dimensions": [1,256,20,20],
    "Format/Datatype": "Thirty-two wide channel vectorized row major Int8 format"
  }],
  "ParameterType": "Reformat",
  "Origin": "CONCAT",
  "TacticValue": "0x0000000000000000",
  "StreamId": 0,
  "Metadata": "[ONNX Layer: /model.8/Concat]"
},{
  "Name": "/model.8/cv2/conv/Conv + PWN(PWN(/model.8/cv2/act/Sigmoid), /model.8/cv2/act/Mul)",
  "LayerType": "CaskConvolution",
  "Inputs": [
  {
    "Name": "/model.8/Concat_output_0",
    "Location": "Device",
    "Dimensions": [1,768,20,20],
    "Format/Datatype": "Thirty-two wide channel vectorized row major Int8 format"
  }],
  "Outputs": [
  {
    "Name": "/model.8/cv2/act/Mul_output_0",
    "Location": "Device",
    "Dimensions": [1,512,20,20],
    "Format/Datatype": "Thirty-two wide channel vectorized row major Int8 format"
  }],
  "ParameterType": "Convolution",
  "Kernel": [1,1],
  "PaddingMode": "kEXPLICIT_ROUND_DOWN",
  "PrePadding": [0,0],
  "PostPadding": [0,0],
  "Stride": [1,1],
  "Dilation": [1,1],
  "OutMaps": 512,
  "Groups": 1,
  "Weights": {"Type": "Int8", "Count": 393216},
  "Bias": {"Type": "Float", "Count": 512},
  "HasSparseWeights": 0,
  "HasDynamicFilter": 0,
  "HasDynamicBias": 0,
  "HasResidual": 0,
  "ConvXAsActInputIdx": -1,
  "BiasAsActInputIdx": -1,
  "ResAsActInputIdx": -1,
  "Activation": "SWISH",
  "HasBias": 1,
  "HasReLU": 0,
  "TacticName": "sm80_xmma_fprop_implicit_gemm_interleaved_i8i8_i8i32_f32_nchw_vect_c_32kcrs_vect_c_32_nchw_vect_c_32_tilesize64x64x64_stage6_warpsize2x2x1_g1_tensor16x8x32_swish",
  "TacticValue": "0x5dcda6f3b1eea89a",
  "StreamId": 0,
  "Metadata": "[ONNX Layer: /model.8/cv2/conv/Conv]\u001e[ONNX Layer: /model.8/cv2/act/Sigmoid]\u001e[ONNX Layer: /model.8/cv2/act/Mul]"
},{
  "Name": "/model.9/cv1/conv/Conv + PWN(PWN(/model.9/cv1/act/Sigmoid), /model.9/cv1/act/Mul)",
  "LayerType": "CaskConvolution",
  "Inputs": [
  {
    "Name": "/model.8/cv2/act/Mul_output_0",
    "Location": "Device",
    "Dimensions": [1,512,20,20],
    "Format/Datatype": "Thirty-two wide channel vectorized row major Int8 format"
  }],
  "Outputs": [
  {
    "Name": "/model.9/cv1/act/Mul_output_0",
    "Location": "Device",
    "Dimensions": [1,256,20,20],
    "Format/Datatype": "Thirty-two wide channel vectorized row major Int8 format"
  }],
  "ParameterType": "Convolution",
  "Kernel": [1,1],
  "PaddingMode": "kEXPLICIT_ROUND_DOWN",
  "PrePadding": [0,0],
  "PostPadding": [0,0],
  "Stride": [1,1],
  "Dilation": [1,1],
  "OutMaps": 256,
  "Groups": 1,
  "Weights": {"Type": "Int8", "Count": 131072},
  "Bias": {"Type": "Float", "Count": 256},
  "HasSparseWeights": 0,
  "HasDynamicFilter": 0,
  "HasDynamicBias": 0,
  "HasResidual": 0,
  "ConvXAsActInputIdx": -1,
  "BiasAsActInputIdx": -1,
  "ResAsActInputIdx": -1,
  "Activation": "SWISH",
  "HasBias": 1,
  "HasReLU": 0,
  "TacticName": "sm80_xmma_fprop_implicit_gemm_interleaved_i8i8_i8i32_f32_nchw_vect_c_32kcrs_vect_c_32_nchw_vect_c_32_tilesize64x32x64_stage6_warpsize2x1x1_g1_tensor16x8x32_simple_t1r1s1_swish",
  "TacticValue": "0x98ea6780adda9b75",
  "StreamId": 0,
  "Metadata": "[ONNX Layer: /model.9/cv1/conv/Conv]\u001e[ONNX Layer: /model.9/cv1/act/Sigmoid]\u001e[ONNX Layer: /model.9/cv1/act/Mul]"
},{
  "Name": "/model.9/m/MaxPool",
  "LayerType": "CaskPooling",
  "Inputs": [
  {
    "Name": "/model.9/cv1/act/Mul_output_0",
    "Location": "Device",
    "Dimensions": [1,256,20,20],
    "Format/Datatype": "Thirty-two wide channel vectorized row major Int8 format"
  }],
  "Outputs": [
  {
    "Name": "/model.9/m/MaxPool_output_0",
    "Location": "Device",
    "Dimensions": [1,256,20,20],
    "Format/Datatype": "Thirty-two wide channel vectorized row major Int8 format"
  }],
  "ParameterType": "Pooling",
  "PoolingType": "MAX",
  "WindowSize": [5,5],
  "PaddingMode": "kEXPLICIT_ROUND_DOWN",
  "PrePadding": [2,2],
  "PostPadding": [2,2],
  "Stride": [1,1],
  "BlendFactor": 0,
  "AverageCountExcludesPadding": 1,
  "TacticName": "sm72_xmma_pooling_IMMA_NCxHW32_generic_kMAX",
  "TacticValue": "0x94215b398b8eb3ba",
  "StreamId": 0,
  "Metadata": "[ONNX Layer: /model.9/m/MaxPool]"
},{
  "Name": "Reformatting CopyNode for Input Tensor 0 to /model.9/m_1/MaxPool",
  "LayerType": "Reformat",
  "Inputs": [
  {
    "Name": "/model.9/m/MaxPool_output_0",
    "Location": "Device",
    "Dimensions": [1,256,20,20],
    "Format/Datatype": "Thirty-two wide channel vectorized row major Int8 format"
  }],
  "Outputs": [
  {
    "Name": "Reformatted Input Tensor 0 to /model.9/m_1/MaxPool",
    "Location": "Device",
    "Dimensions": [1,256,20,20],
    "Format/Datatype": "Four wide channel vectorized row major Int8 format"
  }],
  "ParameterType": "Reformat",
  "Origin": "REFORMAT",
  "TacticValue": "0x0000000000000000",
  "StreamId": 0,
  "Metadata": ""
},{
  "Name": "/model.9/m_1/MaxPool",
  "LayerType": "CaskPooling",
  "Inputs": [
  {
    "Name": "Reformatted Input Tensor 0 to /model.9/m_1/MaxPool",
    "Location": "Device",
    "Dimensions": [1,256,20,20],
    "Format/Datatype": "Four wide channel vectorized row major Int8 format"
  }],
  "Outputs": [
  {
    "Name": "/model.9/m_1/MaxPool_output_0",
    "Location": "Device",
    "Dimensions": [1,256,20,20],
    "Format/Datatype": "Four wide channel vectorized row major Int8 format"
  }],
  "ParameterType": "Pooling",
  "PoolingType": "MAX",
  "WindowSize": [5,5],
  "PaddingMode": "kEXPLICIT_ROUND_DOWN",
  "PrePadding": [2,2],
  "PostPadding": [2,2],
  "Stride": [1,1],
  "BlendFactor": 0,
  "AverageCountExcludesPadding": 1,
  "TacticName": "sm50_xmma_pooling_CHWPacked_NCxHW4_kMAX",
  "TacticValue": "0x1f6c40e3e09ec730",
  "StreamId": 0,
  "Metadata": "[ONNX Layer: /model.9/m_1/MaxPool]"
},{
  "Name": "/model.9/m_2/MaxPool",
  "LayerType": "CaskPooling",
  "Inputs": [
  {
    "Name": "/model.9/m_1/MaxPool_output_0",
    "Location": "Device",
    "Dimensions": [1,256,20,20],
    "Format/Datatype": "Four wide channel vectorized row major Int8 format"
  }],
  "Outputs": [
  {
    "Name": "Reformatted Output Tensor 0 to /model.9/m_2/MaxPool",
    "Location": "Device",
    "Dimensions": [1,256,20,20],
    "Format/Datatype": "Four wide channel vectorized row major Int8 format"
  }],
  "ParameterType": "Pooling",
  "PoolingType": "MAX",
  "WindowSize": [5,5],
  "PaddingMode": "kEXPLICIT_ROUND_DOWN",
  "PrePadding": [2,2],
  "PostPadding": [2,2],
  "Stride": [1,1],
  "BlendFactor": 0,
  "AverageCountExcludesPadding": 1,
  "TacticName": "sm50_xmma_pooling_CHWPacked_NCxHW4_kMAX",
  "TacticValue": "0x1f6c40e3e09ec730",
  "StreamId": 0,
  "Metadata": "[ONNX Layer: /model.9/m_2/MaxPool]"
},{
  "Name": "Reformatting CopyNode for Output Tensor 0 to /model.9/m_2/MaxPool",
  "LayerType": "Reformat",
  "Inputs": [
  {
    "Name": "Reformatted Output Tensor 0 to /model.9/m_2/MaxPool",
    "Location": "Device",
    "Dimensions": [1,256,20,20],
    "Format/Datatype": "Four wide channel vectorized row major Int8 format"
  }],
  "Outputs": [
  {
    "Name": "/model.9/Concat_output_0",
    "Location": "Device",
    "Dimensions": [1,256,20,20],
    "Format/Datatype": "Thirty-two wide channel vectorized row major Int8 format"
  }],
  "ParameterType": "Reformat",
  "Origin": "REFORMAT",
  "TacticValue": "0x0000000000000000",
  "StreamId": 0,
  "Metadata": ""
},{
  "Name": "/model.9/cv1/act/Mul_output_0 copy",
  "LayerType": "Reformat",
  "Inputs": [
  {
    "Name": "/model.9/cv1/act/Mul_output_0",
    "Location": "Device",
    "Dimensions": [1,256,20,20],
    "Format/Datatype": "Thirty-two wide channel vectorized row major Int8 format"
  }],
  "Outputs": [
  {
    "Name": "/model.9/Concat_output_0",
    "Location": "Device",
    "Dimensions": [1,256,20,20],
    "Format/Datatype": "Thirty-two wide channel vectorized row major Int8 format"
  }],
  "ParameterType": "Reformat",
  "Origin": "CONCAT",
  "TacticValue": "0x0000000000000000",
  "StreamId": 0,
  "Metadata": "[ONNX Layer: /model.9/Concat]"
},{
  "Name": "/model.9/m/MaxPool_output_0 copy",
  "LayerType": "Reformat",
  "Inputs": [
  {
    "Name": "/model.9/m/MaxPool_output_0",
    "Location": "Device",
    "Dimensions": [1,256,20,20],
    "Format/Datatype": "Thirty-two wide channel vectorized row major Int8 format"
  }],
  "Outputs": [
  {
    "Name": "/model.9/Concat_output_0",
    "Location": "Device",
    "Dimensions": [1,256,20,20],
    "Format/Datatype": "Thirty-two wide channel vectorized row major Int8 format"
  }],
  "ParameterType": "Reformat",
  "Origin": "CONCAT",
  "TacticValue": "0x0000000000000000",
  "StreamId": 0,
  "Metadata": "[ONNX Layer: /model.9/Concat]"
},{
  "Name": "/model.9/m_1/MaxPool_output_0 copy",
  "LayerType": "Reformat",
  "Inputs": [
  {
    "Name": "/model.9/m_1/MaxPool_output_0",
    "Location": "Device",
    "Dimensions": [1,256,20,20],
    "Format/Datatype": "Four wide channel vectorized row major Int8 format"
  }],
  "Outputs": [
  {
    "Name": "/model.9/Concat_output_0",
    "Location": "Device",
    "Dimensions": [1,256,20,20],
    "Format/Datatype": "Thirty-two wide channel vectorized row major Int8 format"
  }],
  "ParameterType": "Reformat",
  "Origin": "CONCAT",
  "TacticValue": "0x0000000000000000",
  "StreamId": 0,
  "Metadata": "[ONNX Layer: /model.9/Concat]"
},{
  "Name": "/model.9/cv2/conv/Conv + PWN(PWN(/model.9/cv2/act/Sigmoid), /model.9/cv2/act/Mul)",
  "LayerType": "CaskConvolution",
  "Inputs": [
  {
    "Name": "/model.9/Concat_output_0",
    "Location": "Device",
    "Dimensions": [1,1024,20,20],
    "Format/Datatype": "Thirty-two wide channel vectorized row major Int8 format"
  }],
  "Outputs": [
  {
    "Name": "/model.9/cv2/act/Mul_output_0",
    "Location": "Device",
    "Dimensions": [1,512,20,20],
    "Format/Datatype": "Thirty-two wide channel vectorized row major Int8 format"
  }],
  "ParameterType": "Convolution",
  "Kernel": [1,1],
  "PaddingMode": "kEXPLICIT_ROUND_DOWN",
  "PrePadding": [0,0],
  "PostPadding": [0,0],
  "Stride": [1,1],
  "Dilation": [1,1],
  "OutMaps": 512,
  "Groups": 1,
  "Weights": {"Type": "Int8", "Count": 524288},
  "Bias": {"Type": "Float", "Count": 512},
  "HasSparseWeights": 0,
  "HasDynamicFilter": 0,
  "HasDynamicBias": 0,
  "HasResidual": 0,
  "ConvXAsActInputIdx": -1,
  "BiasAsActInputIdx": -1,
  "ResAsActInputIdx": -1,
  "Activation": "SWISH",
  "HasBias": 1,
  "HasReLU": 0,
  "TacticName": "sm80_xmma_fprop_implicit_gemm_interleaved_i8i8_i8i32_f32_nchw_vect_c_32kcrs_vect_c_32_nchw_vect_c_32_tilesize64x64x64_stage6_warpsize2x2x1_g1_tensor16x8x32_simple_t1r1s1_swish",
  "TacticValue": "0x2eba0b6a8ec55fa3",
  "StreamId": 0,
  "Metadata": "[ONNX Layer: /model.9/cv2/conv/Conv]\u001e[ONNX Layer: /model.9/cv2/act/Sigmoid]\u001e[ONNX Layer: /model.9/cv2/act/Mul]"
},{
  "Name": "/model.10/cv1/conv/Conv + PWN(PWN(/model.10/cv1/act/Sigmoid), /model.10/cv1/act/Mul)",
  "LayerType": "CaskConvolution",
  "Inputs": [
  {
    "Name": "/model.9/cv2/act/Mul_output_0",
    "Location": "Device",
    "Dimensions": [1,512,20,20],
    "Format/Datatype": "Thirty-two wide channel vectorized row major Int8 format"
  }],
  "Outputs": [
  {
    "Name": "/model.10/cv1/act/Mul_output_0",
    "Location": "Device",
    "Dimensions": [1,512,20,20],
    "Format/Datatype": "Thirty-two wide channel vectorized row major Int8 format"
  }],
  "ParameterType": "Convolution",
  "Kernel": [1,1],
  "PaddingMode": "kEXPLICIT_ROUND_DOWN",
  "PrePadding": [0,0],
  "PostPadding": [0,0],
  "Stride": [1,1],
  "Dilation": [1,1],
  "OutMaps": 512,
  "Groups": 1,
  "Weights": {"Type": "Int8", "Count": 262144},
  "Bias": {"Type": "Float", "Count": 512},
  "HasSparseWeights": 0,
  "HasDynamicFilter": 0,
  "HasDynamicBias": 0,
  "HasResidual": 0,
  "ConvXAsActInputIdx": -1,
  "BiasAsActInputIdx": -1,
  "ResAsActInputIdx": -1,
  "Activation": "SWISH",
  "HasBias": 1,
  "HasReLU": 0,
  "TacticName": "sm80_xmma_fprop_implicit_gemm_interleaved_i8i8_i8i32_f32_nchw_vect_c_32kcrs_vect_c_32_nchw_vect_c_32_tilesize64x64x64_stage6_warpsize2x2x1_g1_tensor16x8x32_simple_t1r1s1_swish",
  "TacticValue": "0x2eba0b6a8ec55fa3",
  "StreamId": 0,
  "Metadata": "[ONNX Layer: /model.10/cv1/conv/Conv]\u001e[ONNX Layer: /model.10/cv1/act/Sigmoid]\u001e[ONNX Layer: /model.10/cv1/act/Mul]"
},{
  "Name": "/model.10/Split_18",
  "LayerType": "Reformat",
  "Inputs": [
  {
    "Name": "/model.10/cv1/act/Mul_output_0",
    "Location": "Device",
    "Dimensions": [1,256,20,20],
    "Format/Datatype": "Thirty-two wide channel vectorized row major Int8 format"
  }],
  "Outputs": [
  {
    "Name": "/model.10/Split_output_1",
    "Location": "Device",
    "Dimensions": [1,256,20,20],
    "Format/Datatype": "Thirty-two wide channel vectorized row major Int8 format"
  }],
  "ParameterType": "Reformat",
  "Origin": "SLICE",
  "TacticValue": "0x0000000000000000",
  "StreamId": 0,
  "Metadata": "[ONNX Layer: /model.10/Split]"
},{
  "Name": "/model.10/m/m.0/attn/qkv/conv/Conv",
  "LayerType": "CaskConvolution",
  "Inputs": [
  {
    "Name": "/model.10/Split_output_1",
    "Location": "Device",
    "Dimensions": [1,256,20,20],
    "Format/Datatype": "Thirty-two wide channel vectorized row major Int8 format"
  }],
  "Outputs": [
  {
    "Name": "/model.10/m/m.0/attn/qkv/conv/Conv_output_0",
    "Location": "Device",
    "Dimensions": [1,512,20,20],
    "Format/Datatype": "Row major linear FP32"
  }],
  "ParameterType": "Convolution",
  "Kernel": [1,1],
  "PaddingMode": "kEXPLICIT_ROUND_DOWN",
  "PrePadding": [0,0],
  "PostPadding": [0,0],
  "Stride": [1,1],
  "Dilation": [1,1],
  "OutMaps": 512,
  "Groups": 1,
  "Weights": {"Type": "Int8", "Count": 131072},
  "Bias": {"Type": "Float", "Count": 512},
  "HasSparseWeights": 0,
  "HasDynamicFilter": 0,
  "HasDynamicBias": 0,
  "HasResidual": 0,
  "ConvXAsActInputIdx": -1,
  "BiasAsActInputIdx": -1,
  "ResAsActInputIdx": -1,
  "Activation": "NONE",
  "HasBias": 1,
  "HasReLU": 0,
  "TacticName": "sm80_xmma_fprop_implicit_gemm_interleaved_i8f32_i8i32_f32_nchw_vect_c_32kcrs_vect_c_32_nchw_tilesize128x32x64_stage4_warpsize4x1x1_g1_tensor16x8x32_t1r1s1_alignc4",
  "TacticValue": "0x733ba2a91a48d431",
  "StreamId": 0,
  "Metadata": "[ONNX Layer: /model.10/m/m.0/attn/qkv/conv/Conv]"
},{
  "Name": "Reformatting CopyNode for Input Tensor 0 to /model.10/m/m.0/attn/Reshape",
  "LayerType": "Reformat",
  "Inputs": [
  {
    "Name": "/model.10/m/m.0/attn/qkv/conv/Conv_output_0",
    "Location": "Device",
    "Dimensions": [1,512,20,20],
    "Format/Datatype": "Row major linear FP32"
  }],
  "Outputs": [
  {
    "Name": "Reformatted Input Tensor 0 to /model.10/m/m.0/attn/Reshape",
    "Location": "Device",
    "Dimensions": [1,512,20,20],
    "Format/Datatype": "Row major Int8 format"
  }],
  "ParameterType": "Reformat",
  "Origin": "REFORMAT",
  "TacticValue": "0x00000000000003e8",
  "StreamId": 0,
  "Metadata": ""
},{
  "Name": "/model.10/m/m.0/attn/Reshape",
  "LayerType": "NoOp",
  "Inputs": [
  {
    "Name": "Reformatted Input Tensor 0 to /model.10/m/m.0/attn/Reshape",
    "Location": "Device",
    "Dimensions": [1,512,20,20],
    "Format/Datatype": "Row major Int8 format"
  }],
  "Outputs": [
  {
    "Name": "/model.10/m/m.0/attn/Reshape_output_0",
    "Location": "Device",
    "Dimensions": [1,4,128,400],
    "Format/Datatype": "Row major Int8 format"
  }],
  "TacticValue": "0x0000000000000000",
  "StreamId": 0,
  "Metadata": "[ONNX Layer: /model.10/m/m.0/attn/Reshape]"
},{
  "Name": "/model.10/m/m.0/attn/Split",
  "LayerType": "Reformat",
  "Inputs": [
  {
    "Name": "/model.10/m/m.0/attn/Reshape_output_0",
    "Location": "Device",
    "Dimensions": [1,4,32,400],
    "Format/Datatype": "Row major Int8 format"
  }],
  "Outputs": [
  {
    "Name": "/model.10/m/m.0/attn/Split_output_0",
    "Location": "Device",
    "Dimensions": [1,4,32,400],
    "Format/Datatype": "Row major linear FP32"
  }],
  "ParameterType": "Reformat",
  "Origin": "SLICE",
  "TacticValue": "0x00000000000003e8",
  "StreamId": 0,
  "Metadata": "[ONNX Layer: /model.10/m/m.0/attn/Split]"
},{
  "Name": "/model.10/m/m.0/attn/Split_19",
  "LayerType": "Reformat",
  "Inputs": [
  {
    "Name": "/model.10/m/m.0/attn/Reshape_output_0",
    "Location": "Device",
    "Dimensions": [1,4,32,400],
    "Format/Datatype": "Row major Int8 format"
  }],
  "Outputs": [
  {
    "Name": "/model.10/m/m.0/attn/Split_output_1",
    "Location": "Device",
    "Dimensions": [1,4,32,400],
    "Format/Datatype": "Row major linear FP32"
  }],
  "ParameterType": "Reformat",
  "Origin": "SLICE",
  "TacticValue": "0x0000000000000000",
  "StreamId": 0,
  "Metadata": "[ONNX Layer: /model.10/m/m.0/attn/Split]"
},{
  "Name": "/model.10/m/m.0/attn/MatMul",
  "LayerType": "CaskGemmMatrixMultiply",
  "Inputs": [
  {
    "Name": "/model.10/m/m.0/attn/Split_output_0",
    "Location": "Device",
    "Dimensions": [1,4,32,400],
    "Format/Datatype": "Row major linear FP32"
  },
  {
    "Name": "/model.10/m/m.0/attn/Split_output_1",
    "Location": "Device",
    "Dimensions": [1,4,32,400],
    "Format/Datatype": "Row major linear FP32"
  }],
  "Outputs": [
  {
    "Name": "/model.10/m/m.0/attn/Mul_output_0",
    "Location": "Device",
    "Dimensions": [1,4,400,400],
    "Format/Datatype": "Row major linear FP32"
  }],
  "ParameterType": "MatrixMultiply",
  "MatrixOpA": "TRANSPOSE",
  "MatrixOpB": "NONE",
  "Alpha": 0.176777,
  "Beta": 0,
  "TacticName": "sm80_xmma_gemm_f32f32_tf32f32_f32_nt_n_tilesize64x128x16_stage4_warpsize2x2x1_tensor16x8x8",
  "TacticValue": "0x00000000000202f5",
  "StreamId": 0,
  "Metadata": "[ONNX Layer: /model.10/m/m.0/attn/MatMul]"
},{
  "Name": "/model.10/m/m.0/attn/Softmax",
  "LayerType": "CaskSoftMaxV2",
  "Inputs": [
  {
    "Name": "/model.10/m/m.0/attn/Mul_output_0",
    "Location": "Device",
    "Dimensions": [1,4,400,400],
    "Format/Datatype": "Row major linear FP32"
  }],
  "Outputs": [
  {
    "Name": "(Unnamed Layer* 140) [Softmax]_output",
    "Location": "Device",
    "Dimensions": [1,4,400,400],
    "Format/Datatype": "Row major linear FP32"
  }],
  "ParameterType": "SoftMax",
  "Axes": 8,
  "HasLog": 0,
  "TacticValue": "0x6d55c70c4c781969",
  "StreamId": 0,
  "Metadata": "[ONNX Layer: /model.10/m/m.0/attn/Softmax]"
},{
  "Name": "/model.10/m/m.0/attn/Split_20",
  "LayerType": "Reformat",
  "Inputs": [
  {
    "Name": "/model.10/m/m.0/attn/Reshape_output_0",
    "Location": "Device",
    "Dimensions": [1,4,64,400],
    "Format/Datatype": "Row major Int8 format"
  }],
  "Outputs": [
  {
    "Name": "/model.10/m/m.0/attn/Split_output_2",
    "Location": "Device",
    "Dimensions": [1,4,64,400],
    "Format/Datatype": "Row major linear FP32"
  }],
  "ParameterType": "Reformat",
  "Origin": "SLICE",
  "TacticValue": "0x00000000000003e8",
  "StreamId": 0,
  "Metadata": "[ONNX Layer: /model.10/m/m.0/attn/Split]"
},{
  "Name": "/model.10/m/m.0/attn/Reshape_2",
  "LayerType": "NoOp",
  "Inputs": [
  {
    "Name": "/model.10/m/m.0/attn/Split_output_2",
    "Location": "Device",
    "Dimensions": [1,4,64,400],
    "Format/Datatype": "Row major linear FP32"
  }],
  "Outputs": [
  {
    "Name": "/model.10/m/m.0/attn/Reshape_2_output_0",
    "Location": "Device",
    "Dimensions": [1,256,20,20],
    "Format/Datatype": "Row major linear FP32"
  }],
  "TacticValue": "0x0000000000000000",
  "StreamId": 0,
  "Metadata": "[ONNX Layer: /model.10/m/m.0/attn/Reshape_2]"
},{
  "Name": "/model.10/m/m.0/attn/MatMul_1",
  "LayerType": "CaskGemmMatrixMultiply",
  "Inputs": [
  {
    "Name": "/model.10/m/m.0/attn/Split_output_2",
    "Location": "Device",
    "Dimensions": [1,4,64,400],
    "Format/Datatype": "Row major linear FP32"
  },
  {
    "Name": "(Unnamed Layer* 140) [Softmax]_output",
    "Location": "Device",
    "Dimensions": [1,4,400,400],
    "Format/Datatype": "Row major linear FP32"
  }],
  "Outputs": [
  {
    "Name": "/model.10/m/m.0/attn/MatMul_1_output_0",
    "Location": "Device",
    "Dimensions": [1,4,64,400],
    "Format/Datatype": "Row major linear FP32"
  }],
  "ParameterType": "MatrixMultiply",
  "MatrixOpA": "NONE",
  "MatrixOpB": "TRANSPOSE",
  "Alpha": 1,
  "Beta": 0,
  "TacticName": "sm80_xmma_gemm_f32f32_tf32f32_f32_tn_n_tilesize64x32x64_stage4_warpsize2x1x2_tensor16x8x8",
  "TacticValue": "0x00000000000202ba",
  "StreamId": 0,
  "Metadata": "[ONNX Layer: /model.10/m/m.0/attn/MatMul_1]"
},{
  "Name": "/model.10/m/m.0/attn/Reshape_1",
  "LayerType": "NoOp",
  "Inputs": [
  {
    "Name": "/model.10/m/m.0/attn/MatMul_1_output_0",
    "Location": "Device",
    "Dimensions": [1,4,64,400],
    "Format/Datatype": "Row major linear FP32"
  }],
  "Outputs": [
  {
    "Name": "/model.10/m/m.0/attn/Reshape_1_output_0",
    "Location": "Device",
    "Dimensions": [1,256,20,20],
    "Format/Datatype": "Row major linear FP32"
  }],
  "TacticValue": "0x0000000000000000",
  "StreamId": 0,
  "Metadata": "[ONNX Layer: /model.10/m/m.0/attn/Reshape_1]"
},{
  "Name": "/model.10/m/m.0/attn/pe/conv/Conv + /model.10/m/m.0/attn/Add",
  "LayerType": "CaskConvolution",
  "Inputs": [
  {
    "Name": "/model.10/m/m.0/attn/Reshape_2_output_0",
    "Location": "Device",
    "Dimensions": [1,256,20,20],
    "Format/Datatype": "Row major linear FP32"
  },
  {
    "Name": "/model.10/m/m.0/attn/Reshape_1_output_0",
    "Location": "Device",
    "Dimensions": [1,256,20,20],
    "Format/Datatype": "Row major linear FP32"
  }],
  "Outputs": [
  {
    "Name": "/model.10/m/m.0/attn/Add_output_0",
    "Location": "Device",
    "Dimensions": [1,256,20,20],
    "Format/Datatype": "Row major linear FP32"
  }],
  "ParameterType": "Convolution",
  "Kernel": [3,3],
  "PaddingMode": "kEXPLICIT_ROUND_DOWN",
  "PrePadding": [1,1],
  "PostPadding": [1,1],
  "Stride": [1,1],
  "Dilation": [1,1],
  "OutMaps": 256,
  "Groups": 256,
  "Weights": {"Type": "Float", "Count": 2304},
  "Bias": {"Type": "Float", "Count": 256},
  "HasSparseWeights": 0,
  "HasDynamicFilter": 0,
  "HasDynamicBias": 0,
  "HasResidual": 1,
  "ConvXAsActInputIdx": -1,
  "BiasAsActInputIdx": -1,
  "ResAsActInputIdx": -1,
  "Activation": "NONE",
  "HasBias": 1,
  "HasReLU": 0,
  "TacticName": "sm50_xmma_fprop_direct_group_f32f32_f32_f32_nchwkcrs_nchw_3D_tilesize64x8_threadsize32x4",
  "TacticValue": "0xd1a22ad13e727070",
  "StreamId": 0,
  "Metadata": "[ONNX Layer: /model.10/m/m.0/attn/pe/conv/Conv]\u001e[ONNX Layer: /model.10/m/m.0/attn/Add]"
},{
  "Name": "Reformatting CopyNode for Input Tensor 0 to /model.10/m/m.0/attn/proj/conv/Conv + /model.10/m/m.0/Add",
  "LayerType": "Reformat",
  "Inputs": [
  {
    "Name": "/model.10/m/m.0/attn/Add_output_0",
    "Location": "Device",
    "Dimensions": [1,256,20,20],
    "Format/Datatype": "Row major linear FP32"
  }],
  "Outputs": [
  {
    "Name": "Reformatted Input Tensor 0 to /model.10/m/m.0/attn/proj/conv/Conv + /model.10/m/m.0/Add",
    "Location": "Device",
    "Dimensions": [1,256,20,20],
    "Format/Datatype": "Thirty-two wide channel vectorized row major Int8 format"
  }],
  "ParameterType": "Reformat",
  "Origin": "REFORMAT",
  "TacticValue": "0x00000000000003ea",
  "StreamId": 0,
  "Metadata": ""
},{
  "Name": "/model.10/m/m.0/attn/proj/conv/Conv + /model.10/m/m.0/Add",
  "LayerType": "CaskConvolution",
  "Inputs": [
  {
    "Name": "Reformatted Input Tensor 0 to /model.10/m/m.0/attn/proj/conv/Conv + /model.10/m/m.0/Add",
    "Location": "Device",
    "Dimensions": [1,256,20,20],
    "Format/Datatype": "Thirty-two wide channel vectorized row major Int8 format"
  },
  {
    "Name": "/model.10/Split_output_1",
    "Location": "Device",
    "Dimensions": [1,256,20,20],
    "Format/Datatype": "Thirty-two wide channel vectorized row major Int8 format"
  }],
  "Outputs": [
  {
    "Name": "/model.10/m/m.0/Add_output_0",
    "Location": "Device",
    "Dimensions": [1,256,20,20],
    "Format/Datatype": "Thirty-two wide channel vectorized row major Int8 format"
  }],
  "ParameterType": "Convolution",
  "Kernel": [1,1],
  "PaddingMode": "kEXPLICIT_ROUND_DOWN",
  "PrePadding": [0,0],
  "PostPadding": [0,0],
  "Stride": [1,1],
  "Dilation": [1,1],
  "OutMaps": 256,
  "Groups": 1,
  "Weights": {"Type": "Int8", "Count": 65536},
  "Bias": {"Type": "Float", "Count": 256},
  "HasSparseWeights": 0,
  "HasDynamicFilter": 0,
  "HasDynamicBias": 0,
  "HasResidual": 1,
  "ConvXAsActInputIdx": -1,
  "BiasAsActInputIdx": -1,
  "ResAsActInputIdx": -1,
  "Activation": "NONE",
  "HasBias": 1,
  "HasReLU": 0,
  "TacticName": "sm80_xmma_fprop_implicit_gemm_interleaved_i8i8_i8i32_f32_nchw_vect_c_32kcrs_vect_c_32_nchw_vect_c_32_tilesize32x64x64_stage6_warpsize2x2x1_g1_tensor16x8x32_t1r1s1",
  "TacticValue": "0x596666386c88024b",
  "StreamId": 0,
  "Metadata": "[ONNX Layer: /model.10/m/m.0/attn/proj/conv/Conv]\u001e[ONNX Layer: /model.10/m/m.0/Add]"
},{
  "Name": "/model.10/m/m.0/ffn/ffn.0/conv/Conv + PWN(PWN(/model.10/m/m.0/ffn/ffn.0/act/Sigmoid), /model.10/m/m.0/ffn/ffn.0/act/Mul)",
  "LayerType": "CaskConvolution",
  "Inputs": [
  {
    "Name": "/model.10/m/m.0/Add_output_0",
    "Location": "Device",
    "Dimensions": [1,256,20,20],
    "Format/Datatype": "Thirty-two wide channel vectorized row major Int8 format"
  }],
  "Outputs": [
  {
    "Name": "/model.10/m/m.0/ffn/ffn.0/act/Mul_output_0",
    "Location": "Device",
    "Dimensions": [1,512,20,20],
    "Format/Datatype": "Thirty-two wide channel vectorized row major Int8 format"
  }],
  "ParameterType": "Convolution",
  "Kernel": [1,1],
  "PaddingMode": "kEXPLICIT_ROUND_DOWN",
  "PrePadding": [0,0],
  "PostPadding": [0,0],
  "Stride": [1,1],
  "Dilation": [1,1],
  "OutMaps": 512,
  "Groups": 1,
  "Weights": {"Type": "Int8", "Count": 131072},
  "Bias": {"Type": "Float", "Count": 512},
  "HasSparseWeights": 0,
  "HasDynamicFilter": 0,
  "HasDynamicBias": 0,
  "HasResidual": 0,
  "ConvXAsActInputIdx": -1,
  "BiasAsActInputIdx": -1,
  "ResAsActInputIdx": -1,
  "Activation": "SWISH",
  "HasBias": 1,
  "HasReLU": 0,
  "TacticName": "sm80_xmma_fprop_implicit_gemm_interleaved_i8i8_i8i32_f32_nchw_vect_c_32kcrs_vect_c_32_nchw_vect_c_32_tilesize32x64x64_stage6_warpsize2x2x1_g1_tensor16x8x32_simple_t1r1s1_swish",
  "TacticValue": "0x709ddd0e503c7fd7",
  "StreamId": 0,
  "Metadata": "[ONNX Layer: /model.10/m/m.0/ffn/ffn.0/conv/Conv]\u001e[ONNX Layer: /model.10/m/m.0/ffn/ffn.0/act/Sigmoid]\u001e[ONNX Layer: /model.10/m/m.0/ffn/ffn.0/act/Mul]"
},{
  "Name": "/model.10/m/m.0/ffn/ffn.1/conv/Conv + /model.10/m/m.0/Add_1",
  "LayerType": "CaskConvolution",
  "Inputs": [
  {
    "Name": "/model.10/m/m.0/ffn/ffn.0/act/Mul_output_0",
    "Location": "Device",
    "Dimensions": [1,512,20,20],
    "Format/Datatype": "Thirty-two wide channel vectorized row major Int8 format"
  },
  {
    "Name": "/model.10/m/m.0/Add_output_0",
    "Location": "Device",
    "Dimensions": [1,256,20,20],
    "Format/Datatype": "Thirty-two wide channel vectorized row major Int8 format"
  }],
  "Outputs": [
  {
    "Name": "/model.10/m/m.0/Add_1_output_0",
    "Location": "Device",
    "Dimensions": [1,256,20,20],
    "Format/Datatype": "Thirty-two wide channel vectorized row major Int8 format"
  }],
  "ParameterType": "Convolution",
  "Kernel": [1,1],
  "PaddingMode": "kEXPLICIT_ROUND_DOWN",
  "PrePadding": [0,0],
  "PostPadding": [0,0],
  "Stride": [1,1],
  "Dilation": [1,1],
  "OutMaps": 256,
  "Groups": 1,
  "Weights": {"Type": "Int8", "Count": 131072},
  "Bias": {"Type": "Float", "Count": 256},
  "HasSparseWeights": 0,
  "HasDynamicFilter": 0,
  "HasDynamicBias": 0,
  "HasResidual": 1,
  "ConvXAsActInputIdx": -1,
  "BiasAsActInputIdx": -1,
  "ResAsActInputIdx": -1,
  "Activation": "NONE",
  "HasBias": 1,
  "HasReLU": 0,
  "TacticName": "sm80_xmma_fprop_implicit_gemm_interleaved_i8i8_i8i32_f32_nchw_vect_c_32kcrs_vect_c_32_nchw_vect_c_32_tilesize32x64x64_stage6_warpsize2x2x1_g1_tensor16x8x32_simple_t1r1s1",
  "TacticValue": "0x31de506085a332d4",
  "StreamId": 0,
  "Metadata": "[ONNX Layer: /model.10/m/m.0/ffn/ffn.1/conv/Conv]\u001e[ONNX Layer: /model.10/m/m.0/Add_1]"
},{
  "Name": "/model.10/Split_output_0 copy",
  "LayerType": "Reformat",
  "Inputs": [
  {
    "Name": "/model.10/cv1/act/Mul_output_0",
    "Location": "Device",
    "Dimensions": [1,256,20,20],
    "Format/Datatype": "Thirty-two wide channel vectorized row major Int8 format"
  }],
  "Outputs": [
  {
    "Name": "/model.10/Concat_output_0",
    "Location": "Device",
    "Dimensions": [1,256,20,20],
    "Format/Datatype": "Thirty-two wide channel vectorized row major Int8 format"
  }],
  "ParameterType": "Reformat",
  "Origin": "CONCAT",
  "TacticValue": "0x0000000000000000",
  "StreamId": 0,
  "Metadata": "[ONNX Layer: /model.10/Concat]"
},{
  "Name": "/model.10/m/m.0/Add_1_output_0 copy",
  "LayerType": "Reformat",
  "Inputs": [
  {
    "Name": "/model.10/m/m.0/Add_1_output_0",
    "Location": "Device",
    "Dimensions": [1,256,20,20],
    "Format/Datatype": "Thirty-two wide channel vectorized row major Int8 format"
  }],
  "Outputs": [
  {
    "Name": "/model.10/Concat_output_0",
    "Location": "Device",
    "Dimensions": [1,256,20,20],
    "Format/Datatype": "Thirty-two wide channel vectorized row major Int8 format"
  }],
  "ParameterType": "Reformat",
  "Origin": "CONCAT",
  "TacticValue": "0x00000000000003e8",
  "StreamId": 0,
  "Metadata": "[ONNX Layer: /model.10/Concat]"
},{
  "Name": "/model.10/cv2/conv/Conv + PWN(PWN(/model.10/cv2/act/Sigmoid), /model.10/cv2/act/Mul)",
  "LayerType": "CaskConvolution",
  "Inputs": [
  {
    "Name": "/model.10/Concat_output_0",
    "Location": "Device",
    "Dimensions": [1,512,20,20],
    "Format/Datatype": "Thirty-two wide channel vectorized row major Int8 format"
  }],
  "Outputs": [
  {
    "Name": "/model.10/cv2/act/Mul_output_0",
    "Location": "Device",
    "Dimensions": [1,512,20,20],
    "Format/Datatype": "Thirty-two wide channel vectorized row major Int8 format"
  }],
  "ParameterType": "Convolution",
  "Kernel": [1,1],
  "PaddingMode": "kEXPLICIT_ROUND_DOWN",
  "PrePadding": [0,0],
  "PostPadding": [0,0],
  "Stride": [1,1],
  "Dilation": [1,1],
  "OutMaps": 512,
  "Groups": 1,
  "Weights": {"Type": "Int8", "Count": 262144},
  "Bias": {"Type": "Float", "Count": 512},
  "HasSparseWeights": 0,
  "HasDynamicFilter": 0,
  "HasDynamicBias": 0,
  "HasResidual": 0,
  "ConvXAsActInputIdx": -1,
  "BiasAsActInputIdx": -1,
  "ResAsActInputIdx": -1,
  "Activation": "SWISH",
  "HasBias": 1,
  "HasReLU": 0,
  "TacticName": "sm80_xmma_fprop_implicit_gemm_interleaved_i8i8_i8i32_f32_nchw_vect_c_32kcrs_vect_c_32_nchw_vect_c_32_tilesize64x64x64_stage6_warpsize2x2x1_g1_tensor16x8x32_simple_t1r1s1_swish",
  "TacticValue": "0x2eba0b6a8ec55fa3",
  "StreamId": 0,
  "Metadata": "[ONNX Layer: /model.10/cv2/conv/Conv]\u001e[ONNX Layer: /model.10/cv2/act/Sigmoid]\u001e[ONNX Layer: /model.10/cv2/act/Mul]"
},{
  "Name": "Reformatting CopyNode for Input Tensor 0 to /model.11/Resize",
  "LayerType": "Reformat",
  "Inputs": [
  {
    "Name": "/model.10/cv2/act/Mul_output_0",
    "Location": "Device",
    "Dimensions": [1,512,20,20],
    "Format/Datatype": "Thirty-two wide channel vectorized row major Int8 format"
  }],
  "Outputs": [
  {
    "Name": "Reformatted Input Tensor 0 to /model.11/Resize",
    "Location": "Device",
    "Dimensions": [1,512,20,20],
    "Format/Datatype": "Row major linear FP32"
  }],
  "ParameterType": "Reformat",
  "Origin": "REFORMAT",
  "TacticValue": "0x00000000000003ea",
  "StreamId": 0,
  "Metadata": ""
},{
  "Name": "/model.11/Resize",
  "LayerType": "Resize",
  "Inputs": [
  {
    "Name": "Reformatted Input Tensor 0 to /model.11/Resize",
    "Location": "Device",
    "Dimensions": [1,512,20,20],
    "Format/Datatype": "Row major linear FP32"
  }],
  "Outputs": [
  {
    "Name": "/model.11/Resize_output_0",
    "Location": "Device",
    "Dimensions": [1,512,40,40],
    "Format/Datatype": "Row major linear FP32"
  }],
  "ParameterType": "Resize",
  "ResizeMode": "NEAREST",
  "ResizeScales": [1, 1, 2, 2, 0, 0, 0, 0],
  "ExcludeOutside": 0,
  "CubicCoeff": -0.75,
  "CoordTransform": "kASYMMETRIC",
  "ResizeSelector": "kFORMULA",
  "NNRounding": "kFLOOR",
  "TacticValue": "0x0000000000000000",
  "StreamId": 0,
  "Metadata": "[ONNX Layer: /model.11/Resize]"
},{
  "Name": "/model.11/Resize_output_0 copy",
  "LayerType": "Reformat",
  "Inputs": [
  {
    "Name": "/model.11/Resize_output_0",
    "Location": "Device",
    "Dimensions": [1,512,40,40],
    "Format/Datatype": "Row major linear FP32"
  }],
  "Outputs": [
  {
    "Name": "/model.12/Concat_output_0",
    "Location": "Device",
    "Dimensions": [1,512,40,40],
    "Format/Datatype": "Thirty-two wide channel vectorized row major Int8 format"
  }],
  "ParameterType": "Reformat",
  "Origin": "CONCAT",
  "TacticValue": "0x00000000000003ea",
  "StreamId": 0,
  "Metadata": "[ONNX Layer: /model.12/Concat]"
},{
  "Name": "/model.6/cv2/act/Mul_output_0 copy",
  "LayerType": "Reformat",
  "Inputs": [
  {
    "Name": "/model.6/cv2/act/Mul_output_0",
    "Location": "Device",
    "Dimensions": [1,256,40,40],
    "Format/Datatype": "Thirty-two wide channel vectorized row major Int8 format"
  }],
  "Outputs": [
  {
    "Name": "/model.12/Concat_output_0",
    "Location": "Device",
    "Dimensions": [1,256,40,40],
    "Format/Datatype": "Thirty-two wide channel vectorized row major Int8 format"
  }],
  "ParameterType": "Reformat",
  "Origin": "CONCAT",
  "TacticValue": "0x0000000000000000",
  "StreamId": 0,
  "Metadata": "[ONNX Layer: /model.12/Concat]"
},{
  "Name": "/model.13/cv1/conv/Conv + PWN(PWN(/model.13/cv1/act/Sigmoid), /model.13/cv1/act/Mul)",
  "LayerType": "CaskConvolution",
  "Inputs": [
  {
    "Name": "/model.12/Concat_output_0",
    "Location": "Device",
    "Dimensions": [1,768,40,40],
    "Format/Datatype": "Thirty-two wide channel vectorized row major Int8 format"
  }],
  "Outputs": [
  {
    "Name": "/model.13/cv1/act/Mul_output_0",
    "Location": "Device",
    "Dimensions": [1,256,40,40],
    "Format/Datatype": "Thirty-two wide channel vectorized row major Int8 format"
  }],
  "ParameterType": "Convolution",
  "Kernel": [1,1],
  "PaddingMode": "kEXPLICIT_ROUND_DOWN",
  "PrePadding": [0,0],
  "PostPadding": [0,0],
  "Stride": [1,1],
  "Dilation": [1,1],
  "OutMaps": 256,
  "Groups": 1,
  "Weights": {"Type": "Int8", "Count": 196608},
  "Bias": {"Type": "Float", "Count": 256},
  "HasSparseWeights": 0,
  "HasDynamicFilter": 0,
  "HasDynamicBias": 0,
  "HasResidual": 0,
  "ConvXAsActInputIdx": -1,
  "BiasAsActInputIdx": -1,
  "ResAsActInputIdx": -1,
  "Activation": "SWISH",
  "HasBias": 1,
  "HasReLU": 0,
  "TacticName": "sm80_xmma_fprop_implicit_gemm_interleaved_i8i8_i8i32_f32_nchw_vect_c_32kcrs_vect_c_32_nchw_vect_c_32_tilesize64x128x64_stage6_warpsize2x2x1_g1_tensor16x8x32_t1r1s1_swish",
  "TacticValue": "0xe19ca9292536af94",
  "StreamId": 0,
  "Metadata": "[ONNX Layer: /model.13/cv1/conv/Conv]\u001e[ONNX Layer: /model.13/cv1/act/Sigmoid]\u001e[ONNX Layer: /model.13/cv1/act/Mul]"
},{
  "Name": "/model.13/m.0/cv1/conv/Conv + PWN(PWN(/model.13/m.0/cv1/act/Sigmoid), /model.13/m.0/cv1/act/Mul)",
  "LayerType": "CaskConvolution",
  "Inputs": [
  {
    "Name": "/model.13/cv1/act/Mul_output_0",
    "Location": "Device",
    "Dimensions": [1,128,40,40],
    "Format/Datatype": "Thirty-two wide channel vectorized row major Int8 format"
  }],
  "Outputs": [
  {
    "Name": "/model.13/m.0/cv1/act/Mul_output_0",
    "Location": "Device",
    "Dimensions": [1,64,40,40],
    "Format/Datatype": "Thirty-two wide channel vectorized row major Int8 format"
  }],
  "ParameterType": "Convolution",
  "Kernel": [3,3],
  "PaddingMode": "kEXPLICIT_ROUND_DOWN",
  "PrePadding": [1,1],
  "PostPadding": [1,1],
  "Stride": [1,1],
  "Dilation": [1,1],
  "OutMaps": 64,
  "Groups": 1,
  "Weights": {"Type": "Int8", "Count": 73728},
  "Bias": {"Type": "Float", "Count": 64},
  "HasSparseWeights": 0,
  "HasDynamicFilter": 0,
  "HasDynamicBias": 0,
  "HasResidual": 0,
  "ConvXAsActInputIdx": -1,
  "BiasAsActInputIdx": -1,
  "ResAsActInputIdx": -1,
  "Activation": "SWISH",
  "HasBias": 1,
  "HasReLU": 0,
  "TacticName": "sm80_xmma_fprop_implicit_gemm_interleaved_i8i8_i8i32_f32_nchw_vect_c_32kcrs_vect_c_32_nchw_vect_c_32_tilesize32x64x64_stage6_warpsize2x2x1_g1_tensor16x8x32_t1r3s3_swish",
  "TacticValue": "0x6fd15a9d85252b17",
  "StreamId": 0,
  "Metadata": "[ONNX Layer: /model.13/m.0/cv1/conv/Conv]\u001e[ONNX Layer: /model.13/m.0/cv1/act/Sigmoid]\u001e[ONNX Layer: /model.13/m.0/cv1/act/Mul]"
},{
  "Name": "/model.13/m.0/cv2/conv/Conv",
  "LayerType": "CaskConvolution",
  "Inputs": [
  {
    "Name": "/model.13/m.0/cv1/act/Mul_output_0",
    "Location": "Device",
    "Dimensions": [1,64,40,40],
    "Format/Datatype": "Thirty-two wide channel vectorized row major Int8 format"
  }],
  "Outputs": [
  {
    "Name": "/model.13/m.0/cv2/conv/Conv_output_0",
    "Location": "Device",
    "Dimensions": [1,128,40,40],
    "Format/Datatype": "Thirty-two wide channel vectorized row major Int8 format"
  }],
  "ParameterType": "Convolution",
  "Kernel": [3,3],
  "PaddingMode": "kEXPLICIT_ROUND_DOWN",
  "PrePadding": [1,1],
  "PostPadding": [1,1],
  "Stride": [1,1],
  "Dilation": [1,1],
  "OutMaps": 128,
  "Groups": 1,
  "Weights": {"Type": "Int8", "Count": 73728},
  "Bias": {"Type": "Float", "Count": 128},
  "HasSparseWeights": 0,
  "HasDynamicFilter": 0,
  "HasDynamicBias": 0,
  "HasResidual": 0,
  "ConvXAsActInputIdx": -1,
  "BiasAsActInputIdx": -1,
  "ResAsActInputIdx": -1,
  "Activation": "NONE",
  "HasBias": 1,
  "HasReLU": 0,
  "TacticName": "sm80_xmma_fprop_implicit_gemm_interleaved_i8i8_i8i32_f32_nchw_vect_c_32kcrs_vect_c_32_nchw_vect_c_32_tilesize96x64x64_stage3_warpsize2x2x1_g1_tensor16x8x32",
  "TacticValue": "0x99901a83d7176ba9",
  "StreamId": 0,
  "Metadata": "[ONNX Layer: /model.13/m.0/cv2/conv/Conv]"
},{
  "Name": "PWN(PWN(PWN(/model.13/m.0/cv2/act/Sigmoid), /model.13/m.0/cv2/act/Mul), /model.13/m.0/Add)",
  "LayerType": "PointWiseV2",
  "Inputs": [
  {
    "Name": "/model.13/m.0/cv2/conv/Conv_output_0",
    "Location": "Device",
    "Dimensions": [1,128,40,40],
    "Format/Datatype": "Thirty-two wide channel vectorized row major Int8 format"
  },
  {
    "Name": "/model.13/cv1/act/Mul_output_0",
    "Location": "Device",
    "Dimensions": [1,128,40,40],
    "Format/Datatype": "Thirty-two wide channel vectorized row major Int8 format"
  }],
  "Outputs": [
  {
    "Name": "/model.13/Concat_output_0",
    "Location": "Device",
    "Dimensions": [1,128,40,40],
    "Format/Datatype": "Thirty-two wide channel vectorized row major Int8 format"
  }],
  "ParameterType": "PointWise",
  "ParameterSubType": "PointWiseExpression",
  "NbInputArgs": 2,
  "InputArgs": ["arg0", "arg1"],
  "NbOutputVars": 1,
  "OutputVars": ["var5"],
  "NbParams": 0,
  "Params": [],
  "NbLiterals": 5,
  "Literals": ["0.000000e+00f", "1.000000e+00f", "0.000000e+00f", "0.000000e+00f", "5.000000e-01f"],
  "NbOperations": 6,
  "Operations": ["auto const var0 = pwgen::iMul(literal4, arg0);", "auto const var1 = pwgen::iTanh(var0);", "auto const var2 = pwgen::iMul(var1, literal4);", "auto const var3 = pwgen::iPlus(var2, literal4);", "auto const var4 = pwgen::iMul(arg0, var3);", "auto const var5 = pwgen::iPlus(arg1, var4);"],
  "TacticValue": "0x0000000000000019",
  "StreamId": 0,
  "Metadata": "[ONNX Layer: /model.13/m.0/cv2/act/Sigmoid]\u001e[ONNX Layer: /model.13/m.0/cv2/act/Mul]\u001e[ONNX Layer: /model.13/m.0/Add]"
},{
  "Name": "/model.13/Split_output_0 copy",
  "LayerType": "Reformat",
  "Inputs": [
  {
    "Name": "/model.13/cv1/act/Mul_output_0",
    "Location": "Device",
    "Dimensions": [1,128,40,40],
    "Format/Datatype": "Thirty-two wide channel vectorized row major Int8 format"
  }],
  "Outputs": [
  {
    "Name": "/model.13/Concat_output_0",
    "Location": "Device",
    "Dimensions": [1,128,40,40],
    "Format/Datatype": "Thirty-two wide channel vectorized row major Int8 format"
  }],
  "ParameterType": "Reformat",
  "Origin": "CONCAT",
  "TacticValue": "0x0000000000000000",
  "StreamId": 0,
  "Metadata": "[ONNX Layer: /model.13/Concat]"
},{
  "Name": "/model.13/Split_output_1 copy",
  "LayerType": "Reformat",
  "Inputs": [
  {
    "Name": "/model.13/cv1/act/Mul_output_0",
    "Location": "Device",
    "Dimensions": [1,128,40,40],
    "Format/Datatype": "Thirty-two wide channel vectorized row major Int8 format"
  }],
  "Outputs": [
  {
    "Name": "/model.13/Concat_output_0",
    "Location": "Device",
    "Dimensions": [1,128,40,40],
    "Format/Datatype": "Thirty-two wide channel vectorized row major Int8 format"
  }],
  "ParameterType": "Reformat",
  "Origin": "CONCAT",
  "TacticValue": "0x0000000000000000",
  "StreamId": 0,
  "Metadata": "[ONNX Layer: /model.13/Concat]"
},{
  "Name": "/model.13/cv2/conv/Conv + PWN(PWN(/model.13/cv2/act/Sigmoid), /model.13/cv2/act/Mul)",
  "LayerType": "CaskConvolution",
  "Inputs": [
  {
    "Name": "/model.13/Concat_output_0",
    "Location": "Device",
    "Dimensions": [1,384,40,40],
    "Format/Datatype": "Thirty-two wide channel vectorized row major Int8 format"
  }],
  "Outputs": [
  {
    "Name": "/model.13/cv2/act/Mul_output_0",
    "Location": "Device",
    "Dimensions": [1,256,40,40],
    "Format/Datatype": "Thirty-two wide channel vectorized row major Int8 format"
  }],
  "ParameterType": "Convolution",
  "Kernel": [1,1],
  "PaddingMode": "kEXPLICIT_ROUND_DOWN",
  "PrePadding": [0,0],
  "PostPadding": [0,0],
  "Stride": [1,1],
  "Dilation": [1,1],
  "OutMaps": 256,
  "Groups": 1,
  "Weights": {"Type": "Int8", "Count": 98304},
  "Bias": {"Type": "Float", "Count": 256},
  "HasSparseWeights": 0,
  "HasDynamicFilter": 0,
  "HasDynamicBias": 0,
  "HasResidual": 0,
  "ConvXAsActInputIdx": -1,
  "BiasAsActInputIdx": -1,
  "ResAsActInputIdx": -1,
  "Activation": "SWISH",
  "HasBias": 1,
  "HasReLU": 0,
  "TacticName": "sm80_xmma_fprop_implicit_gemm_interleaved_i8i8_i8i32_f32_nchw_vect_c_32kcrs_vect_c_32_nchw_vect_c_32_tilesize128x64x64_stage6_warpsize2x2x1_g1_tensor16x8x32_t1r1s1_swish",
  "TacticValue": "0x70f060961873cac4",
  "StreamId": 0,
  "Metadata": "[ONNX Layer: /model.13/cv2/conv/Conv]\u001e[ONNX Layer: /model.13/cv2/act/Sigmoid]\u001e[ONNX Layer: /model.13/cv2/act/Mul]"
},{
  "Name": "/model.14/Resize",
  "LayerType": "Resize",
  "Inputs": [
  {
    "Name": "/model.13/cv2/act/Mul_output_0",
    "Location": "Device",
    "Dimensions": [1,256,40,40],
    "Format/Datatype": "Thirty-two wide channel vectorized row major Int8 format"
  }],
  "Outputs": [
  {
    "Name": "/model.14/Resize_output_0",
    "Location": "Device",
    "Dimensions": [1,256,80,80],
    "Format/Datatype": "Thirty-two wide channel vectorized row major Int8 format"
  }],
  "ParameterType": "Resize",
  "ResizeMode": "NEAREST",
  "ResizeScales": [1, 1, 2, 2, 0, 0, 0, 0],
  "ExcludeOutside": 0,
  "CubicCoeff": -0.75,
  "CoordTransform": "kASYMMETRIC",
  "ResizeSelector": "kFORMULA",
  "NNRounding": "kFLOOR",
  "TacticValue": "0x0000000000000005",
  "StreamId": 0,
  "Metadata": "[ONNX Layer: /model.14/Resize]"
},{
  "Name": "/model.14/Resize_output_0 copy",
  "LayerType": "Reformat",
  "Inputs": [
  {
    "Name": "/model.14/Resize_output_0",
    "Location": "Device",
    "Dimensions": [1,256,80,80],
    "Format/Datatype": "Thirty-two wide channel vectorized row major Int8 format"
  }],
  "Outputs": [
  {
    "Name": "/model.15/Concat_output_0",
    "Location": "Device",
    "Dimensions": [1,256,80,80],
    "Format/Datatype": "Thirty-two wide channel vectorized row major Int8 format"
  }],
  "ParameterType": "Reformat",
  "Origin": "CONCAT",
  "TacticValue": "0x0000000000000000",
  "StreamId": 0,
  "Metadata": "[ONNX Layer: /model.15/Concat]"
},{
  "Name": "/model.16/cv1/conv/Conv + PWN(PWN(/model.16/cv1/act/Sigmoid), /model.16/cv1/act/Mul)",
  "LayerType": "CaskConvolution",
  "Inputs": [
  {
    "Name": "/model.15/Concat_output_0",
    "Location": "Device",
    "Dimensions": [1,512,80,80],
    "Format/Datatype": "Thirty-two wide channel vectorized row major Int8 format"
  }],
  "Outputs": [
  {
    "Name": "/model.16/cv1/act/Mul_output_0",
    "Location": "Device",
    "Dimensions": [1,128,80,80],
    "Format/Datatype": "Thirty-two wide channel vectorized row major Int8 format"
  }],
  "ParameterType": "Convolution",
  "Kernel": [1,1],
  "PaddingMode": "kEXPLICIT_ROUND_DOWN",
  "PrePadding": [0,0],
  "PostPadding": [0,0],
  "Stride": [1,1],
  "Dilation": [1,1],
  "OutMaps": 128,
  "Groups": 1,
  "Weights": {"Type": "Int8", "Count": 65536},
  "Bias": {"Type": "Float", "Count": 128},
  "HasSparseWeights": 0,
  "HasDynamicFilter": 0,
  "HasDynamicBias": 0,
  "HasResidual": 0,
  "ConvXAsActInputIdx": -1,
  "BiasAsActInputIdx": -1,
  "ResAsActInputIdx": -1,
  "Activation": "SWISH",
  "HasBias": 1,
  "HasReLU": 0,
  "TacticName": "sm80_xmma_fprop_implicit_gemm_interleaved_i8i8_i8i32_f32_nchw_vect_c_32kcrs_vect_c_32_nchw_vect_c_32_tilesize256x64x64_stage4_warpsize4x1x1_g1_tensor16x8x32_simple_t1r1s1_swish",
  "TacticValue": "0xc1a4243b1f1cfe6d",
  "StreamId": 0,
  "Metadata": "[ONNX Layer: /model.16/cv1/conv/Conv]\u001e[ONNX Layer: /model.16/cv1/act/Sigmoid]\u001e[ONNX Layer: /model.16/cv1/act/Mul]"
},{
  "Name": "/model.16/Split_22",
  "LayerType": "Reformat",
  "Inputs": [
  {
    "Name": "/model.16/cv1/act/Mul_output_0",
    "Location": "Device",
    "Dimensions": [1,64,80,80],
    "Format/Datatype": "Thirty-two wide channel vectorized row major Int8 format"
  }],
  "Outputs": [
  {
    "Name": "/model.16/Split_output_1",
    "Location": "Device",
    "Dimensions": [1,64,80,80],
    "Format/Datatype": "Thirty-two wide channel vectorized row major Int8 format"
  }],
  "ParameterType": "Reformat",
  "Origin": "SLICE",
  "TacticValue": "0x0000000000000000",
  "StreamId": 0,
  "Metadata": "[ONNX Layer: /model.16/Split]"
},{
  "Name": "/model.16/m.0/cv1/conv/Conv + PWN(PWN(/model.16/m.0/cv1/act/Sigmoid), /model.16/m.0/cv1/act/Mul)",
  "LayerType": "CaskConvolution",
  "Inputs": [
  {
    "Name": "/model.16/Split_output_1",
    "Location": "Device",
    "Dimensions": [1,64,80,80],
    "Format/Datatype": "Thirty-two wide channel vectorized row major Int8 format"
  }],
  "Outputs": [
  {
    "Name": "/model.16/m.0/cv1/act/Mul_output_0",
    "Location": "Device",
    "Dimensions": [1,32,80,80],
    "Format/Datatype": "Thirty-two wide channel vectorized row major Int8 format"
  }],
  "ParameterType": "Convolution",
  "Kernel": [3,3],
  "PaddingMode": "kEXPLICIT_ROUND_DOWN",
  "PrePadding": [1,1],
  "PostPadding": [1,1],
  "Stride": [1,1],
  "Dilation": [1,1],
  "OutMaps": 32,
  "Groups": 1,
  "Weights": {"Type": "Int8", "Count": 18432},
  "Bias": {"Type": "Float", "Count": 32},
  "HasSparseWeights": 0,
  "HasDynamicFilter": 0,
  "HasDynamicBias": 0,
  "HasResidual": 0,
  "ConvXAsActInputIdx": -1,
  "BiasAsActInputIdx": -1,
  "ResAsActInputIdx": -1,
  "Activation": "SWISH",
  "HasBias": 1,
  "HasReLU": 0,
  "TacticName": "sm80_xmma_fprop_implicit_gemm_interleaved_i8i8_i8i32_f32_nchw_vect_c_32kcrs_vect_c_32_nchw_vect_c_32_tilesize64x32x64_stage6_warpsize2x1x1_g1_tensor16x8x32_swish",
  "TacticValue": "0x2f5bc3e6bb27ae43",
  "StreamId": 0,
  "Metadata": "[ONNX Layer: /model.16/m.0/cv1/conv/Conv]\u001e[ONNX Layer: /model.16/m.0/cv1/act/Sigmoid]\u001e[ONNX Layer: /model.16/m.0/cv1/act/Mul]"
},{
  "Name": "/model.16/m.0/cv2/conv/Conv + PWN(PWN(PWN(/model.16/m.0/cv2/act/Sigmoid), /model.16/m.0/cv2/act/Mul), /model.16/m.0/Add)",
  "LayerType": "CaskJitConv",
  "Inputs": [
  {
    "Name": "/model.16/m.0/cv1/act/Mul_output_0",
    "Location": "Device",
    "Dimensions": [1,32,80,80],
    "Format/Datatype": "Thirty-two wide channel vectorized row major Int8 format"
  },
  {
    "Name": "/model.16/Split_output_1",
    "Location": "Device",
    "Dimensions": [1,64,80,80],
    "Format/Datatype": "Thirty-two wide channel vectorized row major Int8 format"
  }],
  "Outputs": [
  {
    "Name": "/model.16/m.0/Add_output_0",
    "Location": "Device",
    "Dimensions": [1,64,80,80],
    "Format/Datatype": "Thirty-two wide channel vectorized row major Int8 format"
  }],
  "ParameterType": "Convolution",
  "Kernel": [3,3],
  "PaddingMode": "kEXPLICIT_ROUND_DOWN",
  "PrePadding": [1,1],
  "PostPadding": [1,1],
  "Stride": [1,1],
  "Dilation": [1,1],
  "OutMaps": 64,
  "Groups": 1,
  "Weights": {"Type": "Int8", "Count": 18432},
  "Bias": {"Type": "Float", "Count": 64},
  "HasSparseWeights": 0,
  "HasDynamicFilter": 0,
  "HasDynamicBias": 0,
  "HasResidual": 0,
  "ConvXAsActInputIdx": -1,
  "BiasAsActInputIdx": -1,
  "ResAsActInputIdx": -1,
  "Activation": "GENERIC",
  "ParameterSubType": "PointWiseExpression",
  "NbPointWiseExpressionInputArgs": 2,
  "PointWiseExpressionInputArgs": ["arg0", "arg1"],
  "NbPointWiseExpressionOutputVars": 1,
  "PointWiseExpressionOutputVars": ["var5"],
  "NbPointWiseExpressionParams": 0,
  "PointWiseExpressionParams": [],
  "NbPointWiseExpressionLiterals": 5,
  "PointWiseExpressionLiterals": ["0.000000e+00f", "1.000000e+00f", "0.000000e+00f", "0.000000e+00f", "5.000000e-01f"],
  "NbPointWiseExpressionOperations": 6,
  "PointWiseExpressionOperations": ["auto const var0 = pwgen::iMul(literal4, arg0);", "auto const var1 = pwgen::iTanh(var0);", "auto const var2 = pwgen::iMul(var1, literal4);", "auto const var3 = pwgen::iPlus(var2, literal4);", "auto const var4 = pwgen::iMul(arg0, var3);", "auto const var5 = pwgen::iPlus(arg1, var4);"],
  "HasBias": 1,
  "TacticName": "sm80_xmma_fprop_implicit_gemm_interleaved_i8i8_i8i32_f32_nchw_vect_c_32kcrs_vect_c_32_nchw_vect_c_32_tilesize64x64x64_stage6_warpsize2x2x1_g1_tensor16x8x32_t1r3s3",
  "TacticValue": "0xbb88763c3b0e94d4",
  "StreamId": 0,
  "Metadata": "[ONNX Layer: /model.16/m.0/cv2/conv/Conv]\u001e[ONNX Layer: /model.16/m.0/cv2/act/Sigmoid]\u001e[ONNX Layer: /model.16/m.0/cv2/act/Mul]\u001e[ONNX Layer: /model.16/m.0/Add]"
},{
  "Name": "/model.16/Split_output_0 copy",
  "LayerType": "Reformat",
  "Inputs": [
  {
    "Name": "/model.16/cv1/act/Mul_output_0",
    "Location": "Device",
    "Dimensions": [1,64,80,80],
    "Format/Datatype": "Thirty-two wide channel vectorized row major Int8 format"
  }],
  "Outputs": [
  {
    "Name": "/model.16/Concat_output_0",
    "Location": "Device",
    "Dimensions": [1,64,80,80],
    "Format/Datatype": "Thirty-two wide channel vectorized row major Int8 format"
  }],
  "ParameterType": "Reformat",
  "Origin": "CONCAT",
  "TacticValue": "0x0000000000000000",
  "StreamId": 0,
  "Metadata": "[ONNX Layer: /model.16/Concat]"
},{
  "Name": "/model.16/Split_output_1 copy",
  "LayerType": "Reformat",
  "Inputs": [
  {
    "Name": "/model.16/Split_output_1",
    "Location": "Device",
    "Dimensions": [1,64,80,80],
    "Format/Datatype": "Thirty-two wide channel vectorized row major Int8 format"
  }],
  "Outputs": [
  {
    "Name": "/model.16/Concat_output_0",
    "Location": "Device",
    "Dimensions": [1,64,80,80],
    "Format/Datatype": "Thirty-two wide channel vectorized row major Int8 format"
  }],
  "ParameterType": "Reformat",
  "Origin": "CONCAT",
  "TacticValue": "0x0000000000000000",
  "StreamId": 0,
  "Metadata": "[ONNX Layer: /model.16/Concat]"
},{
  "Name": "/model.16/m.0/Add_output_0 copy",
  "LayerType": "Reformat",
  "Inputs": [
  {
    "Name": "/model.16/m.0/Add_output_0",
    "Location": "Device",
    "Dimensions": [1,64,80,80],
    "Format/Datatype": "Thirty-two wide channel vectorized row major Int8 format"
  }],
  "Outputs": [
  {
    "Name": "/model.16/Concat_output_0",
    "Location": "Device",
    "Dimensions": [1,64,80,80],
    "Format/Datatype": "Thirty-two wide channel vectorized row major Int8 format"
  }],
  "ParameterType": "Reformat",
  "Origin": "CONCAT",
  "TacticValue": "0x0000000000000000",
  "StreamId": 0,
  "Metadata": "[ONNX Layer: /model.16/Concat]"
},{
  "Name": "/model.16/cv2/conv/Conv + PWN(PWN(/model.16/cv2/act/Sigmoid), /model.16/cv2/act/Mul)",
  "LayerType": "CaskConvolution",
  "Inputs": [
  {
    "Name": "/model.16/Concat_output_0",
    "Location": "Device",
    "Dimensions": [1,192,80,80],
    "Format/Datatype": "Thirty-two wide channel vectorized row major Int8 format"
  }],
  "Outputs": [
  {
    "Name": "/model.16/cv2/act/Mul_output_0",
    "Location": "Device",
    "Dimensions": [1,128,80,80],
    "Format/Datatype": "Thirty-two wide channel vectorized row major Int8 format"
  }],
  "ParameterType": "Convolution",
  "Kernel": [1,1],
  "PaddingMode": "kEXPLICIT_ROUND_DOWN",
  "PrePadding": [0,0],
  "PostPadding": [0,0],
  "Stride": [1,1],
  "Dilation": [1,1],
  "OutMaps": 128,
  "Groups": 1,
  "Weights": {"Type": "Int8", "Count": 24576},
  "Bias": {"Type": "Float", "Count": 128},
  "HasSparseWeights": 0,
  "HasDynamicFilter": 0,
  "HasDynamicBias": 0,
  "HasResidual": 0,
  "ConvXAsActInputIdx": -1,
  "BiasAsActInputIdx": -1,
  "ResAsActInputIdx": -1,
  "Activation": "SWISH",
  "HasBias": 1,
  "HasReLU": 0,
  "TacticName": "sm80_xmma_fprop_implicit_gemm_interleaved_i8i8_i8i32_f32_nchw_vect_c_32kcrs_vect_c_32_nchw_vect_c_32_tilesize128x128x64_stage4_warpsize2x2x1_g1_tensor16x8x32_simple_t1r1s1_swish",
  "TacticValue": "0x65a38dbc9e991257",
  "StreamId": 0,
  "Metadata": "[ONNX Layer: /model.16/cv2/conv/Conv]\u001e[ONNX Layer: /model.16/cv2/act/Sigmoid]\u001e[ONNX Layer: /model.16/cv2/act/Mul]"
},{
  "Name": "/model.17/conv/Conv + PWN(PWN(/model.17/act/Sigmoid), /model.17/act/Mul)",
  "LayerType": "CaskConvolution",
  "Inputs": [
  {
    "Name": "/model.16/cv2/act/Mul_output_0",
    "Location": "Device",
    "Dimensions": [1,128,80,80],
    "Format/Datatype": "Thirty-two wide channel vectorized row major Int8 format"
  }],
  "Outputs": [
  {
    "Name": "/model.18/Concat_output_0",
    "Location": "Device",
    "Dimensions": [1,128,40,40],
    "Format/Datatype": "Thirty-two wide channel vectorized row major Int8 format"
  }],
  "ParameterType": "Convolution",
  "Kernel": [3,3],
  "PaddingMode": "kEXPLICIT_ROUND_DOWN",
  "PrePadding": [1,1],
  "PostPadding": [1,1],
  "Stride": [2,2],
  "Dilation": [1,1],
  "OutMaps": 128,
  "Groups": 1,
  "Weights": {"Type": "Int8", "Count": 147456},
  "Bias": {"Type": "Float", "Count": 128},
  "HasSparseWeights": 0,
  "HasDynamicFilter": 0,
  "HasDynamicBias": 0,
  "HasResidual": 0,
  "ConvXAsActInputIdx": -1,
  "BiasAsActInputIdx": -1,
  "ResAsActInputIdx": -1,
  "Activation": "SWISH",
  "HasBias": 1,
  "HasReLU": 0,
  "TacticName": "sm80_xmma_fprop_implicit_gemm_interleaved_i8i8_i8i32_f32_nchw_vect_c_32kcrs_vect_c_32_nchw_vect_c_32_tilesize64x32x64_stage6_warpsize2x1x1_g1_tensor16x8x32_t1r3s3_swish",
  "TacticValue": "0x6176c23707257237",
  "StreamId": 0,
  "Metadata": "[ONNX Layer: /model.17/conv/Conv]\u001e[ONNX Layer: /model.17/act/Sigmoid]\u001e[ONNX Layer: /model.17/act/Mul]"
},{
  "Name": "/model.13/cv2/act/Mul_output_0 copy",
  "LayerType": "Reformat",
  "Inputs": [
  {
    "Name": "/model.13/cv2/act/Mul_output_0",
    "Location": "Device",
    "Dimensions": [1,256,40,40],
    "Format/Datatype": "Thirty-two wide channel vectorized row major Int8 format"
  }],
  "Outputs": [
  {
    "Name": "/model.18/Concat_output_0",
    "Location": "Device",
    "Dimensions": [1,256,40,40],
    "Format/Datatype": "Thirty-two wide channel vectorized row major Int8 format"
  }],
  "ParameterType": "Reformat",
  "Origin": "CONCAT",
  "TacticValue": "0x00000000000003ea",
  "StreamId": 0,
  "Metadata": "[ONNX Layer: /model.18/Concat]"
},{
  "Name": "/model.19/cv1/conv/Conv + PWN(PWN(/model.19/cv1/act/Sigmoid), /model.19/cv1/act/Mul)",
  "LayerType": "CaskConvolution",
  "Inputs": [
  {
    "Name": "/model.18/Concat_output_0",
    "Location": "Device",
    "Dimensions": [1,384,40,40],
    "Format/Datatype": "Thirty-two wide channel vectorized row major Int8 format"
  }],
  "Outputs": [
  {
    "Name": "/model.19/cv1/act/Mul_output_0",
    "Location": "Device",
    "Dimensions": [1,256,40,40],
    "Format/Datatype": "Thirty-two wide channel vectorized row major Int8 format"
  }],
  "ParameterType": "Convolution",
  "Kernel": [1,1],
  "PaddingMode": "kEXPLICIT_ROUND_DOWN",
  "PrePadding": [0,0],
  "PostPadding": [0,0],
  "Stride": [1,1],
  "Dilation": [1,1],
  "OutMaps": 256,
  "Groups": 1,
  "Weights": {"Type": "Int8", "Count": 98304},
  "Bias": {"Type": "Float", "Count": 256},
  "HasSparseWeights": 0,
  "HasDynamicFilter": 0,
  "HasDynamicBias": 0,
  "HasResidual": 0,
  "ConvXAsActInputIdx": -1,
  "BiasAsActInputIdx": -1,
  "ResAsActInputIdx": -1,
  "Activation": "SWISH",
  "HasBias": 1,
  "HasReLU": 0,
  "TacticName": "sm80_xmma_fprop_implicit_gemm_interleaved_i8i8_i8i32_f32_nchw_vect_c_32kcrs_vect_c_32_nchw_vect_c_32_tilesize128x64x64_stage6_warpsize2x2x1_g1_tensor16x8x32_t1r1s1_swish",
  "TacticValue": "0x70f060961873cac4",
  "StreamId": 0,
  "Metadata": "[ONNX Layer: /model.19/cv1/conv/Conv]\u001e[ONNX Layer: /model.19/cv1/act/Sigmoid]\u001e[ONNX Layer: /model.19/cv1/act/Mul]"
},{
  "Name": "/model.19/m.0/cv1/conv/Conv + PWN(PWN(/model.19/m.0/cv1/act/Sigmoid), /model.19/m.0/cv1/act/Mul)",
  "LayerType": "CaskConvolution",
  "Inputs": [
  {
    "Name": "/model.19/cv1/act/Mul_output_0",
    "Location": "Device",
    "Dimensions": [1,128,40,40],
    "Format/Datatype": "Thirty-two wide channel vectorized row major Int8 format"
  }],
  "Outputs": [
  {
    "Name": "/model.19/m.0/cv1/act/Mul_output_0",
    "Location": "Device",
    "Dimensions": [1,64,40,40],
    "Format/Datatype": "Thirty-two wide channel vectorized row major Int8 format"
  }],
  "ParameterType": "Convolution",
  "Kernel": [3,3],
  "PaddingMode": "kEXPLICIT_ROUND_DOWN",
  "PrePadding": [1,1],
  "PostPadding": [1,1],
  "Stride": [1,1],
  "Dilation": [1,1],
  "OutMaps": 64,
  "Groups": 1,
  "Weights": {"Type": "Int8", "Count": 73728},
  "Bias": {"Type": "Float", "Count": 64},
  "HasSparseWeights": 0,
  "HasDynamicFilter": 0,
  "HasDynamicBias": 0,
  "HasResidual": 0,
  "ConvXAsActInputIdx": -1,
  "BiasAsActInputIdx": -1,
  "ResAsActInputIdx": -1,
  "Activation": "SWISH",
  "HasBias": 1,
  "HasReLU": 0,
  "TacticName": "sm80_xmma_fprop_implicit_gemm_interleaved_i8i8_i8i32_f32_nchw_vect_c_32kcrs_vect_c_32_nchw_vect_c_32_tilesize32x64x64_stage6_warpsize2x2x1_g1_tensor16x8x32_t1r3s3_swish",
  "TacticValue": "0x6fd15a9d85252b17",
  "StreamId": 0,
  "Metadata": "[ONNX Layer: /model.19/m.0/cv1/conv/Conv]\u001e[ONNX Layer: /model.19/m.0/cv1/act/Sigmoid]\u001e[ONNX Layer: /model.19/m.0/cv1/act/Mul]"
},{
  "Name": "/model.19/m.0/cv2/conv/Conv",
  "LayerType": "CaskConvolution",
  "Inputs": [
  {
    "Name": "/model.19/m.0/cv1/act/Mul_output_0",
    "Location": "Device",
    "Dimensions": [1,64,40,40],
    "Format/Datatype": "Thirty-two wide channel vectorized row major Int8 format"
  }],
  "Outputs": [
  {
    "Name": "/model.19/m.0/cv2/conv/Conv_output_0",
    "Location": "Device",
    "Dimensions": [1,128,40,40],
    "Format/Datatype": "Thirty-two wide channel vectorized row major Int8 format"
  }],
  "ParameterType": "Convolution",
  "Kernel": [3,3],
  "PaddingMode": "kEXPLICIT_ROUND_DOWN",
  "PrePadding": [1,1],
  "PostPadding": [1,1],
  "Stride": [1,1],
  "Dilation": [1,1],
  "OutMaps": 128,
  "Groups": 1,
  "Weights": {"Type": "Int8", "Count": 73728},
  "Bias": {"Type": "Float", "Count": 128},
  "HasSparseWeights": 0,
  "HasDynamicFilter": 0,
  "HasDynamicBias": 0,
  "HasResidual": 0,
  "ConvXAsActInputIdx": -1,
  "BiasAsActInputIdx": -1,
  "ResAsActInputIdx": -1,
  "Activation": "NONE",
  "HasBias": 1,
  "HasReLU": 0,
  "TacticName": "sm80_xmma_fprop_implicit_gemm_interleaved_i8i8_i8i32_f32_nchw_vect_c_32kcrs_vect_c_32_nchw_vect_c_32_tilesize96x64x64_stage3_warpsize2x2x1_g1_tensor16x8x32",
  "TacticValue": "0x99901a83d7176ba9",
  "StreamId": 0,
  "Metadata": "[ONNX Layer: /model.19/m.0/cv2/conv/Conv]"
},{
  "Name": "PWN(PWN(PWN(/model.19/m.0/cv2/act/Sigmoid), /model.19/m.0/cv2/act/Mul), /model.19/m.0/Add)",
  "LayerType": "PointWiseV2",
  "Inputs": [
  {
    "Name": "/model.19/m.0/cv2/conv/Conv_output_0",
    "Location": "Device",
    "Dimensions": [1,128,40,40],
    "Format/Datatype": "Thirty-two wide channel vectorized row major Int8 format"
  },
  {
    "Name": "/model.19/cv1/act/Mul_output_0",
    "Location": "Device",
    "Dimensions": [1,128,40,40],
    "Format/Datatype": "Thirty-two wide channel vectorized row major Int8 format"
  }],
  "Outputs": [
  {
    "Name": "/model.19/Concat_output_0",
    "Location": "Device",
    "Dimensions": [1,128,40,40],
    "Format/Datatype": "Thirty-two wide channel vectorized row major Int8 format"
  }],
  "ParameterType": "PointWise",
  "ParameterSubType": "PointWiseExpression",
  "NbInputArgs": 2,
  "InputArgs": ["arg0", "arg1"],
  "NbOutputVars": 1,
  "OutputVars": ["var5"],
  "NbParams": 0,
  "Params": [],
  "NbLiterals": 5,
  "Literals": ["0.000000e+00f", "1.000000e+00f", "0.000000e+00f", "0.000000e+00f", "5.000000e-01f"],
  "NbOperations": 6,
  "Operations": ["auto const var0 = pwgen::iMul(literal4, arg0);", "auto const var1 = pwgen::iTanh(var0);", "auto const var2 = pwgen::iMul(var1, literal4);", "auto const var3 = pwgen::iPlus(var2, literal4);", "auto const var4 = pwgen::iMul(arg0, var3);", "auto const var5 = pwgen::iPlus(arg1, var4);"],
  "TacticValue": "0x0000000000000019",
  "StreamId": 0,
  "Metadata": "[ONNX Layer: /model.19/m.0/cv2/act/Sigmoid]\u001e[ONNX Layer: /model.19/m.0/cv2/act/Mul]\u001e[ONNX Layer: /model.19/m.0/Add]"
},{
  "Name": "/model.19/Split_output_0 copy",
  "LayerType": "Reformat",
  "Inputs": [
  {
    "Name": "/model.19/cv1/act/Mul_output_0",
    "Location": "Device",
    "Dimensions": [1,128,40,40],
    "Format/Datatype": "Thirty-two wide channel vectorized row major Int8 format"
  }],
  "Outputs": [
  {
    "Name": "/model.19/Concat_output_0",
    "Location": "Device",
    "Dimensions": [1,128,40,40],
    "Format/Datatype": "Thirty-two wide channel vectorized row major Int8 format"
  }],
  "ParameterType": "Reformat",
  "Origin": "CONCAT",
  "TacticValue": "0x0000000000000000",
  "StreamId": 0,
  "Metadata": "[ONNX Layer: /model.19/Concat]"
},{
  "Name": "/model.19/Split_output_1 copy",
  "LayerType": "Reformat",
  "Inputs": [
  {
    "Name": "/model.19/cv1/act/Mul_output_0",
    "Location": "Device",
    "Dimensions": [1,128,40,40],
    "Format/Datatype": "Thirty-two wide channel vectorized row major Int8 format"
  }],
  "Outputs": [
  {
    "Name": "/model.19/Concat_output_0",
    "Location": "Device",
    "Dimensions": [1,128,40,40],
    "Format/Datatype": "Thirty-two wide channel vectorized row major Int8 format"
  }],
  "ParameterType": "Reformat",
  "Origin": "CONCAT",
  "TacticValue": "0x0000000000000000",
  "StreamId": 0,
  "Metadata": "[ONNX Layer: /model.19/Concat]"
},{
  "Name": "/model.19/cv2/conv/Conv + PWN(PWN(/model.19/cv2/act/Sigmoid), /model.19/cv2/act/Mul)",
  "LayerType": "CaskConvolution",
  "Inputs": [
  {
    "Name": "/model.19/Concat_output_0",
    "Location": "Device",
    "Dimensions": [1,384,40,40],
    "Format/Datatype": "Thirty-two wide channel vectorized row major Int8 format"
  }],
  "Outputs": [
  {
    "Name": "/model.19/cv2/act/Mul_output_0",
    "Location": "Device",
    "Dimensions": [1,256,40,40],
    "Format/Datatype": "Thirty-two wide channel vectorized row major Int8 format"
  }],
  "ParameterType": "Convolution",
  "Kernel": [1,1],
  "PaddingMode": "kEXPLICIT_ROUND_DOWN",
  "PrePadding": [0,0],
  "PostPadding": [0,0],
  "Stride": [1,1],
  "Dilation": [1,1],
  "OutMaps": 256,
  "Groups": 1,
  "Weights": {"Type": "Int8", "Count": 98304},
  "Bias": {"Type": "Float", "Count": 256},
  "HasSparseWeights": 0,
  "HasDynamicFilter": 0,
  "HasDynamicBias": 0,
  "HasResidual": 0,
  "ConvXAsActInputIdx": -1,
  "BiasAsActInputIdx": -1,
  "ResAsActInputIdx": -1,
  "Activation": "SWISH",
  "HasBias": 1,
  "HasReLU": 0,
  "TacticName": "sm80_xmma_fprop_implicit_gemm_interleaved_i8i8_i8i32_f32_nchw_vect_c_32kcrs_vect_c_32_nchw_vect_c_32_tilesize128x64x64_stage6_warpsize2x2x1_g1_tensor16x8x32_t1r1s1_swish",
  "TacticValue": "0x70f060961873cac4",
  "StreamId": 0,
  "Metadata": "[ONNX Layer: /model.19/cv2/conv/Conv]\u001e[ONNX Layer: /model.19/cv2/act/Sigmoid]\u001e[ONNX Layer: /model.19/cv2/act/Mul]"
},{
  "Name": "/model.20/conv/Conv + PWN(PWN(/model.20/act/Sigmoid), /model.20/act/Mul)",
  "LayerType": "CaskConvolution",
  "Inputs": [
  {
    "Name": "/model.19/cv2/act/Mul_output_0",
    "Location": "Device",
    "Dimensions": [1,256,40,40],
    "Format/Datatype": "Thirty-two wide channel vectorized row major Int8 format"
  }],
  "Outputs": [
  {
    "Name": "/model.21/Concat_output_0",
    "Location": "Device",
    "Dimensions": [1,256,20,20],
    "Format/Datatype": "Thirty-two wide channel vectorized row major Int8 format"
  }],
  "ParameterType": "Convolution",
  "Kernel": [3,3],
  "PaddingMode": "kEXPLICIT_ROUND_DOWN",
  "PrePadding": [1,1],
  "PostPadding": [1,1],
  "Stride": [2,2],
  "Dilation": [1,1],
  "OutMaps": 256,
  "Groups": 1,
  "Weights": {"Type": "Int8", "Count": 589824},
  "Bias": {"Type": "Float", "Count": 256},
  "HasSparseWeights": 0,
  "HasDynamicFilter": 0,
  "HasDynamicBias": 0,
  "HasResidual": 0,
  "ConvXAsActInputIdx": -1,
  "BiasAsActInputIdx": -1,
  "ResAsActInputIdx": -1,
  "Activation": "SWISH",
  "HasBias": 1,
  "HasReLU": 0,
  "TacticName": "sm80_xmma_fprop_implicit_gemm_interleaved_i8i8_i8i32_f32_nchw_vect_c_32kcrs_vect_c_32_nchw_vect_c_32_tilesize32x64x64_stage6_warpsize2x2x1_g1_tensor16x8x32_t1r3s3_swish",
  "TacticValue": "0x6fd15a9d85252b17",
  "StreamId": 0,
  "Metadata": "[ONNX Layer: /model.20/conv/Conv]\u001e[ONNX Layer: /model.20/act/Sigmoid]\u001e[ONNX Layer: /model.20/act/Mul]"
},{
  "Name": "/model.10/cv2/act/Mul_output_0 copy",
  "LayerType": "Reformat",
  "Inputs": [
  {
    "Name": "/model.10/cv2/act/Mul_output_0",
    "Location": "Device",
    "Dimensions": [1,512,20,20],
    "Format/Datatype": "Thirty-two wide channel vectorized row major Int8 format"
  }],
  "Outputs": [
  {
    "Name": "/model.21/Concat_output_0",
    "Location": "Device",
    "Dimensions": [1,512,20,20],
    "Format/Datatype": "Thirty-two wide channel vectorized row major Int8 format"
  }],
  "ParameterType": "Reformat",
  "Origin": "CONCAT",
  "TacticValue": "0x0000000000000000",
  "StreamId": 0,
  "Metadata": "[ONNX Layer: /model.21/Concat]"
},{
  "Name": "/model.22/cv1/conv/Conv + PWN(PWN(/model.22/cv1/act/Sigmoid), /model.22/cv1/act/Mul)",
  "LayerType": "CaskConvolution",
  "Inputs": [
  {
    "Name": "/model.21/Concat_output_0",
    "Location": "Device",
    "Dimensions": [1,768,20,20],
    "Format/Datatype": "Thirty-two wide channel vectorized row major Int8 format"
  }],
  "Outputs": [
  {
    "Name": "Reformatted Output Tensor 0 to /model.22/cv1/conv/Conv + PWN(PWN(/model.22/cv1/act/Sigmoid), /model.22/cv1/act/Mul)",
    "Location": "Device",
    "Dimensions": [1,512,20,20],
    "Format/Datatype": "Thirty-two wide channel vectorized row major Int8 format"
  }],
  "ParameterType": "Convolution",
  "Kernel": [1,1],
  "PaddingMode": "kEXPLICIT_ROUND_DOWN",
  "PrePadding": [0,0],
  "PostPadding": [0,0],
  "Stride": [1,1],
  "Dilation": [1,1],
  "OutMaps": 512,
  "Groups": 1,
  "Weights": {"Type": "Int8", "Count": 393216},
  "Bias": {"Type": "Float", "Count": 512},
  "HasSparseWeights": 0,
  "HasDynamicFilter": 0,
  "HasDynamicBias": 0,
  "HasResidual": 0,
  "ConvXAsActInputIdx": -1,
  "BiasAsActInputIdx": -1,
  "ResAsActInputIdx": -1,
  "Activation": "SWISH",
  "HasBias": 1,
  "HasReLU": 0,
  "TacticName": "sm80_xmma_fprop_implicit_gemm_interleaved_i8i8_i8i32_f32_nchw_vect_c_32kcrs_vect_c_32_nchw_vect_c_32_tilesize64x64x64_stage6_warpsize2x2x1_g1_tensor16x8x32_swish",
  "TacticValue": "0x5dcda6f3b1eea89a",
  "StreamId": 0,
  "Metadata": "[ONNX Layer: /model.22/cv1/conv/Conv]\u001e[ONNX Layer: /model.22/cv1/act/Sigmoid]\u001e[ONNX Layer: /model.22/cv1/act/Mul]"
},{
  "Name": "Reformatting CopyNode for Output Tensor 0 to /model.22/cv1/conv/Conv + PWN(PWN(/model.22/cv1/act/Sigmoid), /model.22/cv1/act/Mul)",
  "LayerType": "Reformat",
  "Inputs": [
  {
    "Name": "Reformatted Output Tensor 0 to /model.22/cv1/conv/Conv + PWN(PWN(/model.22/cv1/act/Sigmoid), /model.22/cv1/act/Mul)",
    "Location": "Device",
    "Dimensions": [1,512,20,20],
    "Format/Datatype": "Thirty-two wide channel vectorized row major Int8 format"
  }],
  "Outputs": [
  {
    "Name": "/model.22/cv1/act/Mul_output_0",
    "Location": "Device",
    "Dimensions": [1,512,20,20],
    "Format/Datatype": "Four wide channel vectorized row major Int8 format"
  }],
  "ParameterType": "Reformat",
  "Origin": "REFORMAT",
  "TacticValue": "0x00000000000003e8",
  "StreamId": 0,
  "Metadata": ""
},{
  "Name": "Reformatting CopyNode for Input Tensor 0 to /model.22/m.0/cv1/conv/Conv + PWN(PWN(/model.22/m.0/cv1/act/Sigmoid), /model.22/m.0/cv1/act/Mul)",
  "LayerType": "Reformat",
  "Inputs": [
  {
    "Name": "/model.22/cv1/act/Mul_output_0",
    "Location": "Device",
    "Dimensions": [1,256,20,20],
    "Format/Datatype": "Four wide channel vectorized row major Int8 format"
  }],
  "Outputs": [
  {
    "Name": "Reformatted Input Tensor 0 to /model.22/m.0/cv1/conv/Conv + PWN(PWN(/model.22/m.0/cv1/act/Sigmoid), /model.22/m.0/cv1/act/Mul)",
    "Location": "Device",
    "Dimensions": [1,256,20,20],
    "Format/Datatype": "Thirty-two wide channel vectorized row major Int8 format"
  }],
  "ParameterType": "Reformat",
  "Origin": "REFORMAT",
  "TacticValue": "0x0000000000000000",
  "StreamId": 0,
  "Metadata": ""
},{
  "Name": "/model.22/m.0/cv1/conv/Conv + PWN(PWN(/model.22/m.0/cv1/act/Sigmoid), /model.22/m.0/cv1/act/Mul)",
  "LayerType": "CaskConvolution",
  "Inputs": [
  {
    "Name": "Reformatted Input Tensor 0 to /model.22/m.0/cv1/conv/Conv + PWN(PWN(/model.22/m.0/cv1/act/Sigmoid), /model.22/m.0/cv1/act/Mul)",
    "Location": "Device",
    "Dimensions": [1,256,20,20],
    "Format/Datatype": "Thirty-two wide channel vectorized row major Int8 format"
  }],
  "Outputs": [
  {
    "Name": "/model.22/m.0/cv1/act/Mul_output_0",
    "Location": "Device",
    "Dimensions": [1,128,20,20],
    "Format/Datatype": "Thirty-two wide channel vectorized row major Int8 format"
  }],
  "ParameterType": "Convolution",
  "Kernel": [1,1],
  "PaddingMode": "kEXPLICIT_ROUND_DOWN",
  "PrePadding": [0,0],
  "PostPadding": [0,0],
  "Stride": [1,1],
  "Dilation": [1,1],
  "OutMaps": 128,
  "Groups": 1,
  "Weights": {"Type": "Int8", "Count": 32768},
  "Bias": {"Type": "Float", "Count": 128},
  "HasSparseWeights": 0,
  "HasDynamicFilter": 0,
  "HasDynamicBias": 0,
  "HasResidual": 0,
  "ConvXAsActInputIdx": -1,
  "BiasAsActInputIdx": -1,
  "ResAsActInputIdx": -1,
  "Activation": "SWISH",
  "HasBias": 1,
  "HasReLU": 0,
  "TacticName": "sm80_xmma_fprop_implicit_gemm_interleaved_i8i8_i8i32_f32_nchw_vect_c_32kcrs_vect_c_32_nchw_vect_c_32_tilesize32x32x64_stage6_warpsize2x1x1_g1_tensor16x8x32_simple_t1r1s1_swish",
  "TacticValue": "0xc6cdb1e47323bb01",
  "StreamId": 0,
  "Metadata": "[ONNX Layer: /model.22/m.0/cv1/conv/Conv]\u001e[ONNX Layer: /model.22/m.0/cv1/act/Sigmoid]\u001e[ONNX Layer: /model.22/m.0/cv1/act/Mul]"
},{
  "Name": "/model.22/m.0/m/m.0/cv1/conv/Conv + PWN(PWN(/model.22/m.0/m/m.0/cv1/act/Sigmoid), /model.22/m.0/m/m.0/cv1/act/Mul)",
  "LayerType": "CaskConvolution",
  "Inputs": [
  {
    "Name": "/model.22/m.0/cv1/act/Mul_output_0",
    "Location": "Device",
    "Dimensions": [1,128,20,20],
    "Format/Datatype": "Thirty-two wide channel vectorized row major Int8 format"
  }],
  "Outputs": [
  {
    "Name": "/model.22/m.0/m/m.0/cv1/act/Mul_output_0",
    "Location": "Device",
    "Dimensions": [1,128,20,20],
    "Format/Datatype": "Thirty-two wide channel vectorized row major Int8 format"
  }],
  "ParameterType": "Convolution",
  "Kernel": [3,3],
  "PaddingMode": "kEXPLICIT_ROUND_DOWN",
  "PrePadding": [1,1],
  "PostPadding": [1,1],
  "Stride": [1,1],
  "Dilation": [1,1],
  "OutMaps": 128,
  "Groups": 1,
  "Weights": {"Type": "Int8", "Count": 147456},
  "Bias": {"Type": "Float", "Count": 128},
  "HasSparseWeights": 0,
  "HasDynamicFilter": 0,
  "HasDynamicBias": 0,
  "HasResidual": 0,
  "ConvXAsActInputIdx": -1,
  "BiasAsActInputIdx": -1,
  "ResAsActInputIdx": -1,
  "Activation": "SWISH",
  "HasBias": 1,
  "HasReLU": 0,
  "TacticName": "sm80_xmma_fprop_implicit_gemm_interleaved_i8i8_i8i32_f32_nchw_vect_c_32kcrs_vect_c_32_nchw_vect_c_32_tilesize32x64x64_stage6_warpsize2x2x1_g1_tensor16x8x32_t1r3s3_swish",
  "TacticValue": "0x6fd15a9d85252b17",
  "StreamId": 0,
  "Metadata": "[ONNX Layer: /model.22/m.0/m/m.0/cv1/conv/Conv]\u001e[ONNX Layer: /model.22/m.0/m/m.0/cv1/act/Sigmoid]\u001e[ONNX Layer: /model.22/m.0/m/m.0/cv1/act/Mul]"
},{
  "Name": "/model.22/m.0/m/m.0/cv2/conv/Conv",
  "LayerType": "CaskConvolution",
  "Inputs": [
  {
    "Name": "/model.22/m.0/m/m.0/cv1/act/Mul_output_0",
    "Location": "Device",
    "Dimensions": [1,128,20,20],
    "Format/Datatype": "Thirty-two wide channel vectorized row major Int8 format"
  }],
  "Outputs": [
  {
    "Name": "/model.22/m.0/m/m.0/cv2/conv/Conv_output_0",
    "Location": "Device",
    "Dimensions": [1,128,20,20],
    "Format/Datatype": "Thirty-two wide channel vectorized row major Int8 format"
  }],
  "ParameterType": "Convolution",
  "Kernel": [3,3],
  "PaddingMode": "kEXPLICIT_ROUND_DOWN",
  "PrePadding": [1,1],
  "PostPadding": [1,1],
  "Stride": [1,1],
  "Dilation": [1,1],
  "OutMaps": 128,
  "Groups": 1,
  "Weights": {"Type": "Int8", "Count": 147456},
  "Bias": {"Type": "Float", "Count": 128},
  "HasSparseWeights": 0,
  "HasDynamicFilter": 0,
  "HasDynamicBias": 0,
  "HasResidual": 0,
  "ConvXAsActInputIdx": -1,
  "BiasAsActInputIdx": -1,
  "ResAsActInputIdx": -1,
  "Activation": "NONE",
  "HasBias": 1,
  "HasReLU": 0,
  "TacticName": "sm80_xmma_fprop_implicit_gemm_interleaved_i8i8_i8i32_f32_nchw_vect_c_32kcrs_vect_c_32_nchw_vect_c_32_tilesize32x32x64_stage6_warpsize2x1x1_g1_tensor16x8x32_t1r3s3",
  "TacticValue": "0x4749124f62d8bd23",
  "StreamId": 0,
  "Metadata": "[ONNX Layer: /model.22/m.0/m/m.0/cv2/conv/Conv]"
},{
  "Name": "PWN(PWN(PWN(/model.22/m.0/m/m.0/cv2/act/Sigmoid), /model.22/m.0/m/m.0/cv2/act/Mul), /model.22/m.0/m/m.0/Add)",
  "LayerType": "PointWiseV2",
  "Inputs": [
  {
    "Name": "/model.22/m.0/m/m.0/cv2/conv/Conv_output_0",
    "Location": "Device",
    "Dimensions": [1,128,20,20],
    "Format/Datatype": "Thirty-two wide channel vectorized row major Int8 format"
  },
  {
    "Name": "/model.22/m.0/cv1/act/Mul_output_0",
    "Location": "Device",
    "Dimensions": [1,128,20,20],
    "Format/Datatype": "Thirty-two wide channel vectorized row major Int8 format"
  }],
  "Outputs": [
  {
    "Name": "/model.22/m.0/m/m.0/Add_output_0",
    "Location": "Device",
    "Dimensions": [1,128,20,20],
    "Format/Datatype": "Thirty-two wide channel vectorized row major Int8 format"
  }],
  "ParameterType": "PointWise",
  "ParameterSubType": "PointWiseExpression",
  "NbInputArgs": 2,
  "InputArgs": ["arg0", "arg1"],
  "NbOutputVars": 1,
  "OutputVars": ["var5"],
  "NbParams": 0,
  "Params": [],
  "NbLiterals": 5,
  "Literals": ["0.000000e+00f", "1.000000e+00f", "0.000000e+00f", "0.000000e+00f", "5.000000e-01f"],
  "NbOperations": 6,
  "Operations": ["auto const var0 = pwgen::iMul(literal4, arg0);", "auto const var1 = pwgen::iTanh(var0);", "auto const var2 = pwgen::iMul(var1, literal4);", "auto const var3 = pwgen::iPlus(var2, literal4);", "auto const var4 = pwgen::iMul(arg0, var3);", "auto const var5 = pwgen::iPlus(arg1, var4);"],
  "TacticValue": "0x0000000000000018",
  "StreamId": 0,
  "Metadata": "[ONNX Layer: /model.22/m.0/m/m.0/cv2/act/Sigmoid]\u001e[ONNX Layer: /model.22/m.0/m/m.0/cv2/act/Mul]\u001e[ONNX Layer: /model.22/m.0/m/m.0/Add]"
},{
  "Name": "/model.22/m.0/m/m.1/cv1/conv/Conv + PWN(PWN(/model.22/m.0/m/m.1/cv1/act/Sigmoid), /model.22/m.0/m/m.1/cv1/act/Mul)",
  "LayerType": "CaskConvolution",
  "Inputs": [
  {
    "Name": "/model.22/m.0/m/m.0/Add_output_0",
    "Location": "Device",
    "Dimensions": [1,128,20,20],
    "Format/Datatype": "Thirty-two wide channel vectorized row major Int8 format"
  }],
  "Outputs": [
  {
    "Name": "/model.22/m.0/m/m.1/cv1/act/Mul_output_0",
    "Location": "Device",
    "Dimensions": [1,128,20,20],
    "Format/Datatype": "Thirty-two wide channel vectorized row major Int8 format"
  }],
  "ParameterType": "Convolution",
  "Kernel": [3,3],
  "PaddingMode": "kEXPLICIT_ROUND_DOWN",
  "PrePadding": [1,1],
  "PostPadding": [1,1],
  "Stride": [1,1],
  "Dilation": [1,1],
  "OutMaps": 128,
  "Groups": 1,
  "Weights": {"Type": "Int8", "Count": 147456},
  "Bias": {"Type": "Float", "Count": 128},
  "HasSparseWeights": 0,
  "HasDynamicFilter": 0,
  "HasDynamicBias": 0,
  "HasResidual": 0,
  "ConvXAsActInputIdx": -1,
  "BiasAsActInputIdx": -1,
  "ResAsActInputIdx": -1,
  "Activation": "SWISH",
  "HasBias": 1,
  "HasReLU": 0,
  "TacticName": "sm80_xmma_fprop_implicit_gemm_interleaved_i8i8_i8i32_f32_nchw_vect_c_32kcrs_vect_c_32_nchw_vect_c_32_tilesize32x64x64_stage6_warpsize2x2x1_g1_tensor16x8x32_t1r3s3_swish",
  "TacticValue": "0x6fd15a9d85252b17",
  "StreamId": 0,
  "Metadata": "[ONNX Layer: /model.22/m.0/m/m.1/cv1/conv/Conv]\u001e[ONNX Layer: /model.22/m.0/m/m.1/cv1/act/Sigmoid]\u001e[ONNX Layer: /model.22/m.0/m/m.1/cv1/act/Mul]"
},{
  "Name": "/model.22/m.0/m/m.1/cv2/conv/Conv",
  "LayerType": "CaskConvolution",
  "Inputs": [
  {
    "Name": "/model.22/m.0/m/m.1/cv1/act/Mul_output_0",
    "Location": "Device",
    "Dimensions": [1,128,20,20],
    "Format/Datatype": "Thirty-two wide channel vectorized row major Int8 format"
  }],
  "Outputs": [
  {
    "Name": "/model.22/m.0/m/m.1/cv2/conv/Conv_output_0",
    "Location": "Device",
    "Dimensions": [1,128,20,20],
    "Format/Datatype": "Thirty-two wide channel vectorized row major Int8 format"
  }],
  "ParameterType": "Convolution",
  "Kernel": [3,3],
  "PaddingMode": "kEXPLICIT_ROUND_DOWN",
  "PrePadding": [1,1],
  "PostPadding": [1,1],
  "Stride": [1,1],
  "Dilation": [1,1],
  "OutMaps": 128,
  "Groups": 1,
  "Weights": {"Type": "Int8", "Count": 147456},
  "Bias": {"Type": "Float", "Count": 128},
  "HasSparseWeights": 0,
  "HasDynamicFilter": 0,
  "HasDynamicBias": 0,
  "HasResidual": 0,
  "ConvXAsActInputIdx": -1,
  "BiasAsActInputIdx": -1,
  "ResAsActInputIdx": -1,
  "Activation": "NONE",
  "HasBias": 1,
  "HasReLU": 0,
  "TacticName": "sm80_xmma_fprop_implicit_gemm_interleaved_i8i8_i8i32_f32_nchw_vect_c_32kcrs_vect_c_32_nchw_vect_c_32_tilesize32x32x64_stage6_warpsize2x1x1_g1_tensor16x8x32_t1r3s3",
  "TacticValue": "0x4749124f62d8bd23",
  "StreamId": 0,
  "Metadata": "[ONNX Layer: /model.22/m.0/m/m.1/cv2/conv/Conv]"
},{
  "Name": "PWN(PWN(PWN(/model.22/m.0/m/m.1/cv2/act/Sigmoid), /model.22/m.0/m/m.1/cv2/act/Mul), /model.22/m.0/m/m.1/Add)",
  "LayerType": "PointWiseV2",
  "Inputs": [
  {
    "Name": "/model.22/m.0/m/m.1/cv2/conv/Conv_output_0",
    "Location": "Device",
    "Dimensions": [1,128,20,20],
    "Format/Datatype": "Thirty-two wide channel vectorized row major Int8 format"
  },
  {
    "Name": "/model.22/m.0/m/m.0/Add_output_0",
    "Location": "Device",
    "Dimensions": [1,128,20,20],
    "Format/Datatype": "Thirty-two wide channel vectorized row major Int8 format"
  }],
  "Outputs": [
  {
    "Name": "/model.22/m.0/Concat_output_0",
    "Location": "Device",
    "Dimensions": [1,128,20,20],
    "Format/Datatype": "Thirty-two wide channel vectorized row major Int8 format"
  }],
  "ParameterType": "PointWise",
  "ParameterSubType": "PointWiseExpression",
  "NbInputArgs": 2,
  "InputArgs": ["arg0", "arg1"],
  "NbOutputVars": 1,
  "OutputVars": ["var5"],
  "NbParams": 0,
  "Params": [],
  "NbLiterals": 5,
  "Literals": ["0.000000e+00f", "1.000000e+00f", "0.000000e+00f", "0.000000e+00f", "5.000000e-01f"],
  "NbOperations": 6,
  "Operations": ["auto const var0 = pwgen::iMul(literal4, arg0);", "auto const var1 = pwgen::iTanh(var0);", "auto const var2 = pwgen::iMul(var1, literal4);", "auto const var3 = pwgen::iPlus(var2, literal4);", "auto const var4 = pwgen::iMul(arg0, var3);", "auto const var5 = pwgen::iPlus(arg1, var4);"],
  "TacticValue": "0x0000000000000018",
  "StreamId": 0,
  "Metadata": "[ONNX Layer: /model.22/m.0/m/m.1/cv2/act/Sigmoid]\u001e[ONNX Layer: /model.22/m.0/m/m.1/cv2/act/Mul]\u001e[ONNX Layer: /model.22/m.0/m/m.1/Add]"
},{
  "Name": "Reformatting CopyNode for Input Tensor 0 to /model.22/m.0/cv2/conv/Conv + PWN(PWN(/model.22/m.0/cv2/act/Sigmoid), /model.22/m.0/cv2/act/Mul)",
  "LayerType": "Reformat",
  "Inputs": [
  {
    "Name": "/model.22/cv1/act/Mul_output_0",
    "Location": "Device",
    "Dimensions": [1,256,20,20],
    "Format/Datatype": "Four wide channel vectorized row major Int8 format"
  }],
  "Outputs": [
  {
    "Name": "Reformatted Input Tensor 0 to /model.22/m.0/cv2/conv/Conv + PWN(PWN(/model.22/m.0/cv2/act/Sigmoid), /model.22/m.0/cv2/act/Mul)",
    "Location": "Device",
    "Dimensions": [1,256,20,20],
    "Format/Datatype": "Thirty-two wide channel vectorized row major Int8 format"
  }],
  "ParameterType": "Reformat",
  "Origin": "REFORMAT",
  "TacticValue": "0x0000000000000000",
  "StreamId": 0,
  "Metadata": ""
},{
  "Name": "/model.22/m.0/cv2/conv/Conv + PWN(PWN(/model.22/m.0/cv2/act/Sigmoid), /model.22/m.0/cv2/act/Mul)",
  "LayerType": "CaskConvolution",
  "Inputs": [
  {
    "Name": "Reformatted Input Tensor 0 to /model.22/m.0/cv2/conv/Conv + PWN(PWN(/model.22/m.0/cv2/act/Sigmoid), /model.22/m.0/cv2/act/Mul)",
    "Location": "Device",
    "Dimensions": [1,256,20,20],
    "Format/Datatype": "Thirty-two wide channel vectorized row major Int8 format"
  }],
  "Outputs": [
  {
    "Name": "/model.22/m.0/Concat_output_0",
    "Location": "Device",
    "Dimensions": [1,128,20,20],
    "Format/Datatype": "Thirty-two wide channel vectorized row major Int8 format"
  }],
  "ParameterType": "Convolution",
  "Kernel": [1,1],
  "PaddingMode": "kEXPLICIT_ROUND_DOWN",
  "PrePadding": [0,0],
  "PostPadding": [0,0],
  "Stride": [1,1],
  "Dilation": [1,1],
  "OutMaps": 128,
  "Groups": 1,
  "Weights": {"Type": "Int8", "Count": 32768},
  "Bias": {"Type": "Float", "Count": 128},
  "HasSparseWeights": 0,
  "HasDynamicFilter": 0,
  "HasDynamicBias": 0,
  "HasResidual": 0,
  "ConvXAsActInputIdx": -1,
  "BiasAsActInputIdx": -1,
  "ResAsActInputIdx": -1,
  "Activation": "SWISH",
  "HasBias": 1,
  "HasReLU": 0,
  "TacticName": "sm80_xmma_fprop_implicit_gemm_interleaved_i8i8_i8i32_f32_nchw_vect_c_32kcrs_vect_c_32_nchw_vect_c_32_tilesize32x32x64_stage6_warpsize2x1x1_g1_tensor16x8x32_simple_t1r1s1_swish",
  "TacticValue": "0xc6cdb1e47323bb01",
  "StreamId": 0,
  "Metadata": "[ONNX Layer: /model.22/m.0/cv2/conv/Conv]\u001e[ONNX Layer: /model.22/m.0/cv2/act/Sigmoid]\u001e[ONNX Layer: /model.22/m.0/cv2/act/Mul]"
},{
  "Name": "/model.22/m.0/cv3/conv/Conv + PWN(PWN(/model.22/m.0/cv3/act/Sigmoid), /model.22/m.0/cv3/act/Mul)",
  "LayerType": "CaskConvolution",
  "Inputs": [
  {
    "Name": "/model.22/m.0/Concat_output_0",
    "Location": "Device",
    "Dimensions": [1,256,20,20],
    "Format/Datatype": "Thirty-two wide channel vectorized row major Int8 format"
  }],
  "Outputs": [
  {
    "Name": "/model.22/Concat_output_0",
    "Location": "Device",
    "Dimensions": [1,256,20,20],
    "Format/Datatype": "Thirty-two wide channel vectorized row major Int8 format"
  }],
  "ParameterType": "Convolution",
  "Kernel": [1,1],
  "PaddingMode": "kEXPLICIT_ROUND_DOWN",
  "PrePadding": [0,0],
  "PostPadding": [0,0],
  "Stride": [1,1],
  "Dilation": [1,1],
  "OutMaps": 256,
  "Groups": 1,
  "Weights": {"Type": "Int8", "Count": 65536},
  "Bias": {"Type": "Float", "Count": 256},
  "HasSparseWeights": 0,
  "HasDynamicFilter": 0,
  "HasDynamicBias": 0,
  "HasResidual": 0,
  "ConvXAsActInputIdx": -1,
  "BiasAsActInputIdx": -1,
  "ResAsActInputIdx": -1,
  "Activation": "SWISH",
  "HasBias": 1,
  "HasReLU": 0,
  "TacticName": "sm80_xmma_fprop_implicit_gemm_interleaved_i8i8_i8i32_f32_nchw_vect_c_32kcrs_vect_c_32_nchw_vect_c_32_tilesize32x64x64_stage6_warpsize2x2x1_g1_tensor16x8x32_simple_t1r1s1_swish",
  "TacticValue": "0x709ddd0e503c7fd7",
  "StreamId": 0,
  "Metadata": "[ONNX Layer: /model.22/m.0/cv3/conv/Conv]\u001e[ONNX Layer: /model.22/m.0/cv3/act/Sigmoid]\u001e[ONNX Layer: /model.22/m.0/cv3/act/Mul]"
},{
  "Name": "/model.22/Split_output_0 copy",
  "LayerType": "Reformat",
  "Inputs": [
  {
    "Name": "/model.22/cv1/act/Mul_output_0",
    "Location": "Device",
    "Dimensions": [1,256,20,20],
    "Format/Datatype": "Four wide channel vectorized row major Int8 format"
  }],
  "Outputs": [
  {
    "Name": "/model.22/Concat_output_0",
    "Location": "Device",
    "Dimensions": [1,256,20,20],
    "Format/Datatype": "Thirty-two wide channel vectorized row major Int8 format"
  }],
  "ParameterType": "Reformat",
  "Origin": "CONCAT",
  "TacticValue": "0x0000000000000000",
  "StreamId": 0,
  "Metadata": "[ONNX Layer: /model.22/Concat]"
},{
  "Name": "/model.22/Split_output_1 copy",
  "LayerType": "Reformat",
  "Inputs": [
  {
    "Name": "/model.22/cv1/act/Mul_output_0",
    "Location": "Device",
    "Dimensions": [1,256,20,20],
    "Format/Datatype": "Four wide channel vectorized row major Int8 format"
  }],
  "Outputs": [
  {
    "Name": "/model.22/Concat_output_0",
    "Location": "Device",
    "Dimensions": [1,256,20,20],
    "Format/Datatype": "Thirty-two wide channel vectorized row major Int8 format"
  }],
  "ParameterType": "Reformat",
  "Origin": "CONCAT",
  "TacticValue": "0x0000000000000000",
  "StreamId": 0,
  "Metadata": "[ONNX Layer: /model.22/Concat]"
},{
  "Name": "/model.22/cv2/conv/Conv + PWN(PWN(/model.22/cv2/act/Sigmoid), /model.22/cv2/act/Mul)",
  "LayerType": "CaskConvolution",
  "Inputs": [
  {
…
    "Format/Datatype": "Row major linear FP32"
  }],
  "ParameterType": "Convolution",
  "Kernel": [1,1],
  "PaddingMode": "kEXPLICIT_ROUND_DOWN",
  "PrePadding": [0,0],
  "PostPadding": [0,0],
  "Stride": [1,1],
  "Dilation": [1,1],
  "OutMaps": 64,
  "Groups": 1,
  "Weights": {"Type": "Int8", "Count": 4096},
  "Bias": {"Type": "Float", "Count": 64},
  "HasSparseWeights": 0,
  "HasDynamicFilter": 0,
  "HasDynamicBias": 0,
  "HasResidual": 0,
  "ConvXAsActInputIdx": -1,
  "BiasAsActInputIdx": -1,
  "ResAsActInputIdx": -1,
  "Activation": "NONE",
  "HasBias": 1,
  "HasReLU": 0,
  "TacticName": "sm80_xmma_fprop_implicit_gemm_interleaved_i8f32_i8i32_f32_nchw_vect_c_32kcrs_vect_c_32_nchw_tilesize64x32x64_stage6_warpsize2x1x1_g1_tensor16x8x32_t1r1s1_alignc4",
  "TacticValue": "0x5e4f6d7c83746fd6",
  "StreamId": 0,
  "Metadata": "[ONNX Layer: /model.23/cv2.2/cv2.2.2/Conv]"
},{
  "Name": "/model.23/cv3.2/cv3.2.0/cv3.2.0.0/conv/Conv + PWN(PWN(/model.23/cv3.2/cv3.2.0/cv3.2.0.0/act/Sigmoid), /model.23/cv3.2/cv3.2.0/cv3.2.0.0/act/Mul)",
  "LayerType": "CaskConvolution",
  "Inputs": [
  {
    "Name": "/model.22/cv2/act/Mul_output_0",
    "Location": "Device",
    "Dimensions": [1,512,20,20],
    "Format/Datatype": "Thirty-two wide channel vectorized row major Int8 format"
  }],
  "Outputs": [
  {
    "Name": "/model.23/cv3.2/cv3.2.0/cv3.2.0.0/act/Mul_output_0",
    "Location": "Device",
    "Dimensions": [1,512,20,20],
    "Format/Datatype": "Thirty-two wide channel vectorized row major Int8 format"
  }],
  "ParameterType": "Convolution",
  "Kernel": [3,3],
  "PaddingMode": "kEXPLICIT_ROUND_DOWN",
  "PrePadding": [1,1],
  "PostPadding": [1,1],
  "Stride": [1,1],
  "Dilation": [1,1],
  "OutMaps": 512,
  "Groups": 512,
  "Weights": {"Type": "Int8", "Count": 4608},
  "Bias": {"Type": "Float", "Count": 512},
  "HasSparseWeights": 0,
  "HasDynamicFilter": 0,
  "HasDynamicBias": 0,
  "HasResidual": 0,
  "ConvXAsActInputIdx": -1,
  "BiasAsActInputIdx": -1,
  "ResAsActInputIdx": -1,
  "Activation": "SWISH",
  "HasBias": 1,
  "HasReLU": 0,
  "TacticName": "sm72_xmma_convolution_trt_depthwise_i8_conv_int8ncxhw32_int8ncxhw32_int8kcrs_R3_S3_U1_V1_spv32_swish_special",
  "TacticValue": "0xbca231e09d321e72",
  "StreamId": 0,
  "Metadata": "[ONNX Layer: /model.23/cv3.2/cv3.2.0/cv3.2.0.0/conv/Conv]\u001e[ONNX Layer: /model.23/cv3.2/cv3.2.0/cv3.2.0.0/act/Sigmoid]\u001e[ONNX Layer: /model.23/cv3.2/cv3.2.0/cv3.2.0.0/act/Mul]"
},{
  "Name": "/model.23/cv3.2/cv3.2.0/cv3.2.0.1/conv/Conv + PWN(PWN(/model.23/cv3.2/cv3.2.0/cv3.2.0.1/act/Sigmoid), /model.23/cv3.2/cv3.2.0/cv3.2.0.1/act/Mul)",
  "LayerType": "CaskConvolution",
  "Inputs": [
  {
    "Name": "/model.23/cv3.2/cv3.2.0/cv3.2.0.0/act/Mul_output_0",
    "Location": "Device",
    "Dimensions": [1,512,20,20],
    "Format/Datatype": "Thirty-two wide channel vectorized row major Int8 format"
  }],
  "Outputs": [
  {
    "Name": "/model.23/cv3.2/cv3.2.0/cv3.2.0.1/act/Mul_output_0",
    "Location": "Device",
    "Dimensions": [1,128,20,20],
    "Format/Datatype": "Thirty-two wide channel vectorized row major Int8 format"
  }],
  "ParameterType": "Convolution",
  "Kernel": [1,1],
  "PaddingMode": "kEXPLICIT_ROUND_DOWN",
  "PrePadding": [0,0],
  "PostPadding": [0,0],
  "Stride": [1,1],
  "Dilation": [1,1],
  "OutMaps": 128,
  "Groups": 1,
  "Weights": {"Type": "Int8", "Count": 65536},
  "Bias": {"Type": "Float", "Count": 128},
  "HasSparseWeights": 0,
  "HasDynamicFilter": 0,
  "HasDynamicBias": 0,
  "HasResidual": 0,
  "ConvXAsActInputIdx": -1,
  "BiasAsActInputIdx": -1,
  "ResAsActInputIdx": -1,
  "Activation": "SWISH",
  "HasBias": 1,
  "HasReLU": 0,
  "TacticName": "sm80_xmma_fprop_implicit_gemm_interleaved_i8i8_i8i32_f32_nchw_vect_c_32kcrs_vect_c_32_nchw_vect_c_32_tilesize32x32x64_stage6_warpsize2x1x1_g1_tensor16x8x32_simple_t1r1s1_swish",
  "TacticValue": "0xc6cdb1e47323bb01",
  "StreamId": 0,
  "Metadata": "[ONNX Layer: /model.23/cv3.2/cv3.2.0/cv3.2.0.1/conv/Conv]\u001e[ONNX Layer: /model.23/cv3.2/cv3.2.0/cv3.2.0.1/act/Sigmoid]\u001e[ONNX Layer: /model.23/cv3.2/cv3.2.0/cv3.2.0.1/act/Mul]"
},{
  "Name": "/model.23/cv3.2/cv3.2.1/cv3.2.1.0/conv/Conv + PWN(PWN(/model.23/cv3.2/cv3.2.1/cv3.2.1.0/act/Sigmoid), /model.23/cv3.2/cv3.2.1/cv3.2.1.0/act/Mul)",
  "LayerType": "CaskConvolution",
  "Inputs": [
  {
    "Name": "/model.23/cv3.2/cv3.2.0/cv3.2.0.1/act/Mul_output_0",
    "Location": "Device",
    "Dimensions": [1,128,20,20],
    "Format/Datatype": "Thirty-two wide channel vectorized row major Int8 format"
  }],
  "Outputs": [
  {
    "Name": "/model.23/cv3.2/cv3.2.1/cv3.2.1.0/act/Mul_output_0",
    "Location": "Device",
    "Dimensions": [1,128,20,20],
    "Format/Datatype": "Thirty-two wide channel vectorized row major Int8 format"
  }],
  "ParameterType": "Convolution",
  "Kernel": [3,3],
  "PaddingMode": "kEXPLICIT_ROUND_DOWN",
  "PrePadding": [1,1],
  "PostPadding": [1,1],
  "Stride": [1,1],
  "Dilation": [1,1],
  "OutMaps": 128,
  "Groups": 128,
  "Weights": {"Type": "Int8", "Count": 1152},
  "Bias": {"Type": "Float", "Count": 128},
  "HasSparseWeights": 0,
  "HasDynamicFilter": 0,
  "HasDynamicBias": 0,
  "HasResidual": 0,
  "ConvXAsActInputIdx": -1,
  "BiasAsActInputIdx": -1,
  "ResAsActInputIdx": -1,
  "Activation": "SWISH",
  "HasBias": 1,
  "HasReLU": 0,
  "TacticName": "sm72_xmma_convolution_trt_depthwise_i8_conv_int8ncxhw32_int8ncxhw32_int8kcrs_R3_S3_U1_V1_spv32_swish_special",
  "TacticValue": "0xbca231e09d321e72",
  "StreamId": 0,
  "Metadata": "[ONNX Layer: /model.23/cv3.2/cv3.2.1/cv3.2.1.0/conv/Conv]\u001e[ONNX Layer: /model.23/cv3.2/cv3.2.1/cv3.2.1.0/act/Sigmoid]\u001e[ONNX Layer: /model.23/cv3.2/cv3.2.1/cv3.2.1.0/act/Mul]"
},{
  "Name": "/model.23/cv3.2/cv3.2.1/cv3.2.1.1/conv/Conv + PWN(PWN(/model.23/cv3.2/cv3.2.1/cv3.2.1.1/act/Sigmoid), /model.23/cv3.2/cv3.2.1/cv3.2.1.1/act/Mul)",
  "LayerType": "CaskConvolution",
  "Inputs": [
  {
    "Name": "/model.23/cv3.2/cv3.2.1/cv3.2.1.0/act/Mul_output_0",
    "Location": "Device",
    "Dimensions": [1,128,20,20],
    "Format/Datatype": "Thirty-two wide channel vectorized row major Int8 format"
  }],
  "Outputs": [
  {
    "Name": "/model.23/cv3.2/cv3.2.1/cv3.2.1.1/act/Mul_output_0",
    "Location": "Device",
    "Dimensions": [1,128,20,20],
    "Format/Datatype": "Thirty-two wide channel vectorized row major Int8 format"
  }],
  "ParameterType": "Convolution",
  "Kernel": [1,1],
  "PaddingMode": "kEXPLICIT_ROUND_DOWN",
  "PrePadding": [0,0],
  "PostPadding": [0,0],
  "Stride": [1,1],
  "Dilation": [1,1],
  "OutMaps": 128,
  "Groups": 1,
  "Weights": {"Type": "Int8", "Count": 16384},
  "Bias": {"Type": "Float", "Count": 128},
  "HasSparseWeights": 0,
  "HasDynamicFilter": 0,
  "HasDynamicBias": 0,
  "HasResidual": 0,
  "ConvXAsActInputIdx": -1,
  "BiasAsActInputIdx": -1,
  "ResAsActInputIdx": -1,
  "Activation": "SWISH",
  "HasBias": 1,
  "HasReLU": 0,
  "TacticName": "sm80_xmma_fprop_implicit_gemm_interleaved_i8i8_i8i32_f32_nchw_vect_c_32kcrs_vect_c_32_nchw_vect_c_32_tilesize32x32x64_stage6_warpsize2x1x1_g1_tensor16x8x32_t1r1s1_swish",
  "TacticValue": "0x44824770683c7b80",
  "StreamId": 0,
  "Metadata": "[ONNX Layer: /model.23/cv3.2/cv3.2.1/cv3.2.1.1/conv/Conv]\u001e[ONNX Layer: /model.23/cv3.2/cv3.2.1/cv3.2.1.1/act/Sigmoid]\u001e[ONNX Layer: /model.23/cv3.2/cv3.2.1/cv3.2.1.1/act/Mul]"
},{
  "Name": "/model.23/cv3.2/cv3.2.2/Conv",
  "LayerType": "CaskConvolution",
  "Inputs": [
  {
    "Name": "/model.23/cv3.2/cv3.2.1/cv3.2.1.1/act/Mul_output_0",
    "Location": "Device",
    "Dimensions": [1,128,20,20],
    "Format/Datatype": "Thirty-two wide channel vectorized row major Int8 format"
  }],
  "Outputs": [
  {
    "Name": "/model.23/Concat_2_output_0",
    "Location": "Device",
    "Dimensions": [1,80,20,20],
    "Format/Datatype": "Row major linear FP32"
  }],
  "ParameterType": "Convolution",
  "Kernel": [1,1],
  "PaddingMode": "kEXPLICIT_ROUND_DOWN",
  "PrePadding": [0,0],
  "PostPadding": [0,0],
  "Stride": [1,1],
  "Dilation": [1,1],
  "OutMaps": 80,
  "Groups": 1,
  "Weights": {"Type": "Int8", "Count": 10240},
  "Bias": {"Type": "Float", "Count": 80},
  "HasSparseWeights": 0,
  "HasDynamicFilter": 0,
  "HasDynamicBias": 0,
  "HasResidual": 0,
  "ConvXAsActInputIdx": -1,
  "BiasAsActInputIdx": -1,
  "ResAsActInputIdx": -1,
  "Activation": "NONE",
  "HasBias": 1,
  "HasReLU": 0,
  "TacticName": "sm80_xmma_fprop_implicit_gemm_interleaved_i8f32_i8i32_f32_nchw_vect_c_32kcrs_vect_c_32_nchw_tilesize64x32x64_stage6_warpsize2x1x1_g1_tensor16x8x32_t1r1s1_alignc4",
  "TacticValue": "0x5e4f6d7c83746fd6",
  "StreamId": 0,
  "Metadata": "[ONNX Layer: /model.23/cv3.2/cv3.2.2/Conv]"
},{
  "Name": "/model.23/Reshape_2",
  "LayerType": "NoOp",
  "Inputs": [
  {
    "Name": "/model.23/Concat_2_output_0",
    "Location": "Device",
    "Dimensions": [1,144,20,20],
    "Format/Datatype": "Row major linear FP32"
  }],
  "Outputs": [
  {
    "Name": "/model.23/Reshape_2_copy_output",
    "Location": "Device",
    "Dimensions": [1,144,400],
    "Format/Datatype": "Row major linear FP32"
  }],
  "TacticValue": "0x0000000000000000",
  "StreamId": 0,
  "Metadata": "[ONNX Layer: /model.23/Reshape_2]"
},{
  "Name": "/model.23/Reshape_2_copy_output",
  "LayerType": "Reformat",
  "Inputs": [
  {
    "Name": "/model.23/Reshape_2_copy_output",
    "Location": "Device",
    "Dimensions": [1,144,400],
    "Format/Datatype": "Row major linear FP32"
  }],
  "Outputs": [
  {
    "Name": "/model.23/Concat_3_output_0",
    "Location": "Device",
    "Dimensions": [1,144,400],
    "Format/Datatype": "Row major linear FP32"
  }],
  "ParameterType": "Reformat",
  "Origin": "CONCAT",
  "TacticValue": "0x0000000000000000",
  "StreamId": 0,
  "Metadata": "[ONNX Layer: /model.23/Reshape_2]"
},{
  "Name": "/model.23/cv2.1/cv2.1.0/conv/Conv + PWN(PWN(/model.23/cv2.1/cv2.1.0/act/Sigmoid), /model.23/cv2.1/cv2.1.0/act/Mul)",
  "LayerType": "CaskConvolution",
  "Inputs": [
  {
    "Name": "/model.19/cv2/act/Mul_output_0",
    "Location": "Device",
    "Dimensions": [1,256,40,40],
    "Format/Datatype": "Thirty-two wide channel vectorized row major Int8 format"
  }],
  "Outputs": [
  {
    "Name": "/model.23/cv2.1/cv2.1.0/act/Mul_output_0",
    "Location": "Device",
    "Dimensions": [1,64,40,40],
    "Format/Datatype": "Thirty-two wide channel vectorized row major Int8 format"
  }],
  "ParameterType": "Convolution",
  "Kernel": [3,3],
  "PaddingMode": "kEXPLICIT_ROUND_DOWN",
  "PrePadding": [1,1],
  "PostPadding": [1,1],
  "Stride": [1,1],
  "Dilation": [1,1],
  "OutMaps": 64,
  "Groups": 1,
  "Weights": {"Type": "Int8", "Count": 147456},
  "Bias": {"Type": "Float", "Count": 64},
  "HasSparseWeights": 0,
  "HasDynamicFilter": 0,
  "HasDynamicBias": 0,
  "HasResidual": 0,
  "ConvXAsActInputIdx": -1,
  "BiasAsActInputIdx": -1,
  "ResAsActInputIdx": -1,
  "Activation": "SWISH",
  "HasBias": 1,
  "HasReLU": 0,
  "TacticName": "sm80_xmma_fprop_implicit_gemm_interleaved_i8i8_i8i32_f32_nchw_vect_c_32kcrs_vect_c_32_nchw_vect_c_32_tilesize32x64x64_stage6_warpsize2x2x1_g1_tensor16x8x32_t1r3s3_swish",
  "TacticValue": "0x6fd15a9d85252b17",
  "StreamId": 0,
  "Metadata": "[ONNX Layer: /model.23/cv2.1/cv2.1.0/conv/Conv]\u001e[ONNX Layer: /model.23/cv2.1/cv2.1.0/act/Sigmoid]\u001e[ONNX Layer: /model.23/cv2.1/cv2.1.0/act/Mul]"
},{
  "Name": "/model.23/cv2.1/cv2.1.1/conv/Conv + PWN(PWN(/model.23/cv2.1/cv2.1.1/act/Sigmoid), /model.23/cv2.1/cv2.1.1/act/Mul)",
  "LayerType": "CaskConvolution",
  "Inputs": [
  {
    "Name": "/model.23/cv2.1/cv2.1.0/act/Mul_output_0",
    "Location": "Device",
    "Dimensions": [1,64,40,40],
    "Format/Datatype": "Thirty-two wide channel vectorized row major Int8 format"
  }],
  "Outputs": [
  {
    "Name": "/model.23/cv2.1/cv2.1.1/act/Mul_output_0",
    "Location": "Device",
    "Dimensions": [1,64,40,40],
    "Format/Datatype": "Thirty-two wide channel vectorized row major Int8 format"
  }],
  "ParameterType": "Convolution",
  "Kernel": [3,3],
  "PaddingMode": "kEXPLICIT_ROUND_DOWN",
  "PrePadding": [1,1],
  "PostPadding": [1,1],
  "Stride": [1,1],
  "Dilation": [1,1],
  "OutMaps": 64,
  "Groups": 1,
  "Weights": {"Type": "Int8", "Count": 36864},
  "Bias": {"Type": "Float", "Count": 64},
  "HasSparseWeights": 0,
  "HasDynamicFilter": 0,
  "HasDynamicBias": 0,
  "HasResidual": 0,
  "ConvXAsActInputIdx": -1,
  "BiasAsActInputIdx": -1,
  "ResAsActInputIdx": -1,
  "Activation": "SWISH",
  "HasBias": 1,
  "HasReLU": 0,
  "TacticName": "sm80_xmma_fprop_implicit_gemm_interleaved_i8i8_i8i32_f32_nchw_vect_c_32kcrs_vect_c_32_nchw_vect_c_32_tilesize32x64x64_stage6_warpsize2x2x1_g1_tensor16x8x32_t1r3s3_swish",
  "TacticValue": "0x6fd15a9d85252b17",
  "StreamId": 0,
  "Metadata": "[ONNX Layer: /model.23/cv2.1/cv2.1.1/conv/Conv]\u001e[ONNX Layer: /model.23/cv2.1/cv2.1.1/act/Sigmoid]\u001e[ONNX Layer: /model.23/cv2.1/cv2.1.1/act/Mul]"
},{
  "Name": "/model.23/cv2.1/cv2.1.2/Conv",
  "LayerType": "CaskConvolution",
  "Inputs": [
  {
    "Name": "/model.23/cv2.1/cv2.1.1/act/Mul_output_0",
    "Location": "Device",
    "Dimensions": [1,64,40,40],
    "Format/Datatype": "Thirty-two wide channel vectorized row major Int8 format"
  }],
  "Outputs": [
  {
    "Name": "/model.23/Concat_1_output_0",
    "Location": "Device",
    "Dimensions": [1,64,40,40],
    "Format/Datatype": "Thirty-two wide channel vectorized row major FP32 format"
  }],
  "ParameterType": "Convolution",
  "Kernel": [1,1],
  "PaddingMode": "kEXPLICIT_ROUND_DOWN",
  "PrePadding": [0,0],
  "PostPadding": [0,0],
  "Stride": [1,1],
  "Dilation": [1,1],
  "OutMaps": 64,
  "Groups": 1,
  "Weights": {"Type": "Int8", "Count": 4096},
  "Bias": {"Type": "Float", "Count": 64},
  "HasSparseWeights": 0,
  "HasDynamicFilter": 0,
  "HasDynamicBias": 0,
  "HasResidual": 0,
  "ConvXAsActInputIdx": -1,
  "BiasAsActInputIdx": -1,
  "ResAsActInputIdx": -1,
  "Activation": "NONE",
  "HasBias": 1,
  "HasReLU": 0,
  "TacticName": "sm80_xmma_fprop_implicit_gemm_interleaved_i8f32_i8i32_f32_nchw_vect_c_32kcrs_vect_c_32_nchw_vect_c_32_tilesize64x128x64_stage6_warpsize2x2x1_g1_tensor16x8x32_simple_t1r1s1",
  "TacticValue": "0x6e9c17a33c93d9b0",
  "StreamId": 0,
  "Metadata": "[ONNX Layer: /model.23/cv2.1/cv2.1.2/Conv]"
},{
  "Name": "/model.23/cv3.1/cv3.1.0/cv3.1.0.0/conv/Conv + PWN(PWN(/model.23/cv3.1/cv3.1.0/cv3.1.0.0/act/Sigmoid), /model.23/cv3.1/cv3.1.0/cv3.1.0.0/act/Mul)",
  "LayerType": "CaskConvolution",
  "Inputs": [
  {
    "Name": "/model.19/cv2/act/Mul_output_0",
    "Location": "Device",
    "Dimensions": [1,256,40,40],
    "Format/Datatype": "Thirty-two wide channel vectorized row major Int8 format"
  }],
  "Outputs": [
  {
    "Name": "/model.23/cv3.1/cv3.1.0/cv3.1.0.0/act/Mul_output_0",
    "Location": "Device",
    "Dimensions": [1,256,40,40],
    "Format/Datatype": "Thirty-two wide channel vectorized row major Int8 format"
  }],
  "ParameterType": "Convolution",
  "Kernel": [3,3],
  "PaddingMode": "kEXPLICIT_ROUND_DOWN",
  "PrePadding": [1,1],
  "PostPadding": [1,1],
  "Stride": [1,1],
  "Dilation": [1,1],
  "OutMaps": 256,
  "Groups": 256,
  "Weights": {"Type": "Int8", "Count": 2304},
  "Bias": {"Type": "Float", "Count": 256},
  "HasSparseWeights": 0,
  "HasDynamicFilter": 0,
  "HasDynamicBias": 0,
  "HasResidual": 0,
  "ConvXAsActInputIdx": -1,
  "BiasAsActInputIdx": -1,
  "ResAsActInputIdx": -1,
  "Activation": "SWISH",
  "HasBias": 1,
  "HasReLU": 0,
  "TacticName": "sm72_xmma_convolution_trt_depthwise_i8_conv_int8ncxhw32_int8ncxhw32_int8kcrs_R3_S3_U1_V1_spv32_swish_special",
  "TacticValue": "0xbca231e09d321e72",
  "StreamId": 0,
  "Metadata": "[ONNX Layer: /model.23/cv3.1/cv3.1.0/cv3.1.0.0/conv/Conv]\u001e[ONNX Layer: /model.23/cv3.1/cv3.1.0/cv3.1.0.0/act/Sigmoid]\u001e[ONNX Layer: /model.23/cv3.1/cv3.1.0/cv3.1.0.0/act/Mul]"
},{
  "Name": "/model.23/cv3.1/cv3.1.0/cv3.1.0.1/conv/Conv + PWN(PWN(/model.23/cv3.1/cv3.1.0/cv3.1.0.1/act/Sigmoid), /model.23/cv3.1/cv3.1.0/cv3.1.0.1/act/Mul)",
  "LayerType": "CaskConvolution",
  "Inputs": [
  {
    "Name": "/model.23/cv3.1/cv3.1.0/cv3.1.0.0/act/Mul_output_0",
    "Location": "Device",
    "Dimensions": [1,256,40,40],
    "Format/Datatype": "Thirty-two wide channel vectorized row major Int8 format"
  }],
  "Outputs": [
  {
    "Name": "/model.23/cv3.1/cv3.1.0/cv3.1.0.1/act/Mul_output_0",
    "Location": "Device",
    "Dimensions": [1,128,40,40],
    "Format/Datatype": "Thirty-two wide channel vectorized row major Int8 format"
  }],
  "ParameterType": "Convolution",
  "Kernel": [1,1],
  "PaddingMode": "kEXPLICIT_ROUND_DOWN",
  "PrePadding": [0,0],
  "PostPadding": [0,0],
  "Stride": [1,1],
  "Dilation": [1,1],
  "OutMaps": 128,
  "Groups": 1,
  "Weights": {"Type": "Int8", "Count": 32768},
  "Bias": {"Type": "Float", "Count": 128},
  "HasSparseWeights": 0,
  "HasDynamicFilter": 0,
  "HasDynamicBias": 0,
  "HasResidual": 0,
  "ConvXAsActInputIdx": -1,
  "BiasAsActInputIdx": -1,
  "ResAsActInputIdx": -1,
  "Activation": "SWISH",
  "HasBias": 1,
  "HasReLU": 0,
  "TacticName": "sm80_xmma_fprop_implicit_gemm_interleaved_i8i8_i8i32_f32_nchw_vect_c_32kcrs_vect_c_32_nchw_vect_c_32_tilesize64x64x64_stage6_warpsize2x2x1_g1_tensor16x8x32_swish",
  "TacticValue": "0x5dcda6f3b1eea89a",
  "StreamId": 0,
  "Metadata": "[ONNX Layer: /model.23/cv3.1/cv3.1.0/cv3.1.0.1/conv/Conv]\u001e[ONNX Layer: /model.23/cv3.1/cv3.1.0/cv3.1.0.1/act/Sigmoid]\u001e[ONNX Layer: /model.23/cv3.1/cv3.1.0/cv3.1.0.1/act/Mul]"
},{
  "Name": "/model.23/cv3.1/cv3.1.1/cv3.1.1.0/conv/Conv + PWN(PWN(/model.23/cv3.1/cv3.1.1/cv3.1.1.0/act/Sigmoid), /model.23/cv3.1/cv3.1.1/cv3.1.1.0/act/Mul)",
  "LayerType": "CaskConvolution",
  "Inputs": [
  {
    "Name": "/model.23/cv3.1/cv3.1.0/cv3.1.0.1/act/Mul_output_0",
    "Location": "Device",
    "Dimensions": [1,128,40,40],
    "Format/Datatype": "Thirty-two wide channel vectorized row major Int8 format"
  }],
  "Outputs": [
  {
    "Name": "/model.23/cv3.1/cv3.1.1/cv3.1.1.0/act/Mul_output_0",
    "Location": "Device",
    "Dimensions": [1,128,40,40],
    "Format/Datatype": "Thirty-two wide channel vectorized row major Int8 format"
  }],
  "ParameterType": "Convolution",
  "Kernel": [3,3],
  "PaddingMode": "kEXPLICIT_ROUND_DOWN",
  "PrePadding": [1,1],
  "PostPadding": [1,1],
  "Stride": [1,1],
  "Dilation": [1,1],
  "OutMaps": 128,
  "Groups": 128,
  "Weights": {"Type": "Int8", "Count": 1152},
  "Bias": {"Type": "Float", "Count": 128},
  "HasSparseWeights": 0,
  "HasDynamicFilter": 0,
  "HasDynamicBias": 0,
  "HasResidual": 0,
  "ConvXAsActInputIdx": -1,
  "BiasAsActInputIdx": -1,
  "ResAsActInputIdx": -1,
  "Activation": "SWISH",
  "HasBias": 1,
  "HasReLU": 0,
  "TacticName": "sm72_xmma_convolution_trt_depthwise_i8_conv_int8ncxhw32_int8ncxhw32_int8kcrs_R3_S3_U1_V1_spv32_swish_special",
  "TacticValue": "0xbca231e09d321e72",
  "StreamId": 0,
  "Metadata": "[ONNX Layer: /model.23/cv3.1/cv3.1.1/cv3.1.1.0/conv/Conv]\u001e[ONNX Layer: /model.23/cv3.1/cv3.1.1/cv3.1.1.0/act/Sigmoid]\u001e[ONNX Layer: /model.23/cv3.1/cv3.1.1/cv3.1.1.0/act/Mul]"
},{
  "Name": "/model.23/cv3.1/cv3.1.1/cv3.1.1.1/conv/Conv + PWN(PWN(/model.23/cv3.1/cv3.1.1/cv3.1.1.1/act/Sigmoid), /model.23/cv3.1/cv3.1.1/cv3.1.1.1/act/Mul)",
  "LayerType": "CaskConvolution",
  "Inputs": [
  {
    "Name": "/model.23/cv3.1/cv3.1.1/cv3.1.1.0/act/Mul_output_0",
    "Location": "Device",
    "Dimensions": [1,128,40,40],
    "Format/Datatype": "Thirty-two wide channel vectorized row major Int8 format"
  }],
  "Outputs": [
  {
    "Name": "/model.23/cv3.1/cv3.1.1/cv3.1.1.1/act/Mul_output_0",
    "Location": "Device",
    "Dimensions": [1,128,40,40],
    "Format/Datatype": "Thirty-two wide channel vectorized row major Int8 format"
  }],
  "ParameterType": "Convolution",
  "Kernel": [1,1],
  "PaddingMode": "kEXPLICIT_ROUND_DOWN",
  "PrePadding": [0,0],
  "PostPadding": [0,0],
  "Stride": [1,1],
  "Dilation": [1,1],
  "OutMaps": 128,
  "Groups": 1,
  "Weights": {"Type": "Int8", "Count": 16384},
  "Bias": {"Type": "Float", "Count": 128},
  "HasSparseWeights": 0,
  "HasDynamicFilter": 0,
  "HasDynamicBias": 0,
  "HasResidual": 0,
  "ConvXAsActInputIdx": -1,
  "BiasAsActInputIdx": -1,
  "ResAsActInputIdx": -1,
  "Activation": "SWISH",
  "HasBias": 1,
  "HasReLU": 0,
  "TacticName": "sm80_xmma_fprop_implicit_gemm_interleaved_i8i8_i8i32_f32_nchw_vect_c_32kcrs_vect_c_32_nchw_vect_c_32_tilesize64x32x64_stage6_warpsize2x1x1_g1_tensor16x8x32_simple_t1r1s1_swish",
  "TacticValue": "0x98ea6780adda9b75",
  "StreamId": 0,
  "Metadata": "[ONNX Layer: /model.23/cv3.1/cv3.1.1/cv3.1.1.1/conv/Conv]\u001e[ONNX Layer: /model.23/cv3.1/cv3.1.1/cv3.1.1.1/act/Sigmoid]\u001e[ONNX Layer: /model.23/cv3.1/cv3.1.1/cv3.1.1.1/act/Mul]"
},{
  "Name": "/model.23/cv3.1/cv3.1.2/Conv",
  "LayerType": "CaskConvolution",
  "Inputs": [
  {
    "Name": "/model.23/cv3.1/cv3.1.1/cv3.1.1.1/act/Mul_output_0",
    "Location": "Device",
    "Dimensions": [1,128,40,40],
    "Format/Datatype": "Thirty-two wide channel vectorized row major Int8 format"
  }],
  "Outputs": [
  {
    "Name": "/model.23/Concat_1_output_0",
    "Location": "Device",
    "Dimensions": [1,80,40,40],
    "Format/Datatype": "Thirty-two wide channel vectorized row major FP32 format"
  }],
  "ParameterType": "Convolution",
  "Kernel": [1,1],
  "PaddingMode": "kEXPLICIT_ROUND_DOWN",
  "PrePadding": [0,0],
  "PostPadding": [0,0],
  "Stride": [1,1],
  "Dilation": [1,1],
  "OutMaps": 80,
  "Groups": 1,
  "Weights": {"Type": "Int8", "Count": 10240},
  "Bias": {"Type": "Float", "Count": 80},
  "HasSparseWeights": 0,
  "HasDynamicFilter": 0,
  "HasDynamicBias": 0,
  "HasResidual": 0,
  "ConvXAsActInputIdx": -1,
  "BiasAsActInputIdx": -1,
  "ResAsActInputIdx": -1,
  "Activation": "NONE",
  "HasBias": 1,
  "HasReLU": 0,
  "TacticName": "sm80_xmma_fprop_implicit_gemm_interleaved_i8f32_i8i32_f32_nchw_vect_c_32kcrs_vect_c_32_nchw_vect_c_32_tilesize64x64x64_stage6_warpsize2x2x1_g1_tensor16x8x32_simple_t1r1s1",
  "TacticValue": "0x960e9baa2a6cad5b",
  "StreamId": 0,
  "Metadata": "[ONNX Layer: /model.23/cv3.1/cv3.1.2/Conv]"
},{
  "Name": "Reformatting CopyNode for Input Tensor 0 to /model.23/Reshape_1",
  "LayerType": "Reformat",
  "Inputs": [
  {
    "Name": "/model.23/Concat_1_output_0",
    "Location": "Device",
    "Dimensions": [1,144,40,40],
    "Format/Datatype": "Thirty-two wide channel vectorized row major FP32 format"
  }],
  "Outputs": [
  {
    "Name": "Reformatted Input Tensor 0 to /model.23/Reshape_1",
    "Location": "Device",
    "Dimensions": [1,144,40,40],
    "Format/Datatype": "Channel major FP32 format"
  }],
  "ParameterType": "Reformat",
  "Origin": "REFORMAT",
  "TacticValue": "0x0000000000000000",
  "StreamId": 0,
  "Metadata": ""
},{
  "Name": "/model.23/Reshape_1",
  "LayerType": "Shuffle",
  "Inputs": [
  {
    "Name": "Reformatted Input Tensor 0 to /model.23/Reshape_1",
    "Location": "Device",
    "Dimensions": [1,144,40,40],
    "Format/Datatype": "Channel major FP32 format"
  }],
  "Outputs": [
  {
    "Name": "/model.23/Reshape_1_copy_output",
    "Location": "Device",
    "Dimensions": [1,144,1600],
    "Format/Datatype": "Row major linear FP32"
  }],
  "ParameterType": "Shuffle",
  "FirstTranspose": [0,1,2,3],
  "Reshape": [1,144,-1],
  "SecondTranspose": [0,1,2],
  "ZeroIsPlaceholder": 1,
  "TacticValue": "0x0000000000000000",
  "StreamId": 0,
  "Metadata": "[ONNX Layer: /model.23/Reshape_1]"
},{
  "Name": "/model.23/Reshape_1_copy_output",
  "LayerType": "Reformat",
  "Inputs": [
  {
    "Name": "/model.23/Reshape_1_copy_output",
    "Location": "Device",
    "Dimensions": [1,144,1600],
    "Format/Datatype": "Row major linear FP32"
  }],
  "Outputs": [
  {
    "Name": "/model.23/Concat_3_output_0",
    "Location": "Device",
    "Dimensions": [1,144,1600],
    "Format/Datatype": "Row major linear FP32"
  }],
  "ParameterType": "Reformat",
  "Origin": "CONCAT",
  "TacticValue": "0x00000000000003ea",
  "StreamId": 0,
  "Metadata": "[ONNX Layer: /model.23/Reshape_1]"
},{
  "Name": "/model.23/cv2.0/cv2.0.0/conv/Conv + PWN(PWN(/model.23/cv2.0/cv2.0.0/act/Sigmoid), /model.23/cv2.0/cv2.0.0/act/Mul)",
  "LayerType": "CaskConvolution",
  "Inputs": [
  {
    "Name": "/model.16/cv2/act/Mul_output_0",
    "Location": "Device",
    "Dimensions": [1,128,80,80],
    "Format/Datatype": "Thirty-two wide channel vectorized row major Int8 format"
  }],
  "Outputs": [
  {
    "Name": "/model.23/cv2.0/cv2.0.0/act/Mul_output_0",
    "Location": "Device",
    "Dimensions": [1,64,80,80],
    "Format/Datatype": "Thirty-two wide channel vectorized row major Int8 format"
  }],
  "ParameterType": "Convolution",
  "Kernel": [3,3],
  "PaddingMode": "kEXPLICIT_ROUND_DOWN",
  "PrePadding": [1,1],
  "PostPadding": [1,1],
  "Stride": [1,1],
  "Dilation": [1,1],
  "OutMaps": 64,
  "Groups": 1,
  "Weights": {"Type": "Int8", "Count": 73728},
  "Bias": {"Type": "Float", "Count": 64},
  "HasSparseWeights": 0,
  "HasDynamicFilter": 0,
  "HasDynamicBias": 0,
  "HasResidual": 0,
  "ConvXAsActInputIdx": -1,
  "BiasAsActInputIdx": -1,
  "ResAsActInputIdx": -1,
  "Activation": "SWISH",
  "HasBias": 1,
  "HasReLU": 0,
  "TacticName": "sm80_xmma_fprop_implicit_gemm_interleaved_i8i8_i8i32_f32_nchw_vect_c_32kcrs_vect_c_32_nchw_vect_c_32_tilesize128x64x64_stage6_warpsize2x2x1_g1_tensor16x8x32_swish",
  "TacticValue": "0x552ac687d7891695",
  "StreamId": 0,
  "Metadata": "[ONNX Layer: /model.23/cv2.0/cv2.0.0/conv/Conv]\u001e[ONNX Layer: /model.23/cv2.0/cv2.0.0/act/Sigmoid]\u001e[ONNX Layer: /model.23/cv2.0/cv2.0.0/act/Mul]"
},{
  "Name": "/model.23/cv2.0/cv2.0.1/conv/Conv + PWN(PWN(/model.23/cv2.0/cv2.0.1/act/Sigmoid), /model.23/cv2.0/cv2.0.1/act/Mul)",
  "LayerType": "CaskConvolution",
  "Inputs": [
  {
    "Name": "/model.23/cv2.0/cv2.0.0/act/Mul_output_0",
    "Location": "Device",
    "Dimensions": [1,64,80,80],
    "Format/Datatype": "Thirty-two wide channel vectorized row major Int8 format"
  }],
  "Outputs": [
  {
    "Name": "/model.23/cv2.0/cv2.0.1/act/Mul_output_0",
    "Location": "Device",
    "Dimensions": [1,64,80,80],
    "Format/Datatype": "Thirty-two wide channel vectorized row major Int8 format"
  }],
  "ParameterType": "Convolution",
  "Kernel": [3,3],
  "PaddingMode": "kEXPLICIT_ROUND_DOWN",
  "PrePadding": [1,1],
  "PostPadding": [1,1],
  "Stride": [1,1],
  "Dilation": [1,1],
  "OutMaps": 64,
  "Groups": 1,
  "Weights": {"Type": "Int8", "Count": 36864},
  "Bias": {"Type": "Float", "Count": 64},
  "HasSparseWeights": 0,
  "HasDynamicFilter": 0,
  "HasDynamicBias": 0,
  "HasResidual": 0,
  "ConvXAsActInputIdx": -1,
  "BiasAsActInputIdx": -1,
  "ResAsActInputIdx": -1,
  "Activation": "SWISH",
  "HasBias": 1,
  "HasReLU": 0,
  "TacticName": "sm80_xmma_fprop_implicit_gemm_interleaved_i8i8_i8i32_f32_nchw_vect_c_32kcrs_vect_c_32_nchw_vect_c_32_tilesize256x32x64_stage4_warpsize4x1x1_g1_tensor16x8x32_t1r3s3_swish",
  "TacticValue": "0xbd976ef514eaa406",
  "StreamId": 0,
  "Metadata": "[ONNX Layer: /model.23/cv2.0/cv2.0.1/conv/Conv]\u001e[ONNX Layer: /model.23/cv2.0/cv2.0.1/act/Sigmoid]\u001e[ONNX Layer: /model.23/cv2.0/cv2.0.1/act/Mul]"
},{
  "Name": "/model.23/cv2.0/cv2.0.2/Conv",
  "LayerType": "CaskConvolution",
  "Inputs": [
  {
    "Name": "/model.23/cv2.0/cv2.0.1/act/Mul_output_0",
    "Location": "Device",
    "Dimensions": [1,64,80,80],
    "Format/Datatype": "Thirty-two wide channel vectorized row major Int8 format"
  }],
  "Outputs": [
  {
    "Name": "/model.23/Concat_output_0",
    "Location": "Device",
    "Dimensions": [1,64,80,80],
    "Format/Datatype": "Row major linear FP32"
  }],
  "ParameterType": "Convolution",
  "Kernel": [1,1],
  "PaddingMode": "kEXPLICIT_ROUND_DOWN",
  "PrePadding": [0,0],
  "PostPadding": [0,0],
  "Stride": [1,1],
  "Dilation": [1,1],
  "OutMaps": 64,
  "Groups": 1,
  "Weights": {"Type": "Int8", "Count": 4096},
  "Bias": {"Type": "Float", "Count": 64},
  "HasSparseWeights": 0,
  "HasDynamicFilter": 0,
  "HasDynamicBias": 0,
  "HasResidual": 0,
  "ConvXAsActInputIdx": -1,
  "BiasAsActInputIdx": -1,
  "ResAsActInputIdx": -1,
  "Activation": "NONE",
  "HasBias": 1,
  "HasReLU": 0,
  "TacticName": "sm80_xmma_fprop_implicit_gemm_interleaved_i8f32_i8i32_f32_nchw_vect_c_32kcrs_vect_c_32_nchw_tilesize128x32x64_stage4_warpsize4x1x1_g1_tensor16x8x32_t1r1s1_alignc4",
  "TacticValue": "0x733ba2a91a48d431",
  "StreamId": 0,
  "Metadata": "[ONNX Layer: /model.23/cv2.0/cv2.0.2/Conv]"
},{
  "Name": "/model.23/cv3.0/cv3.0.0/cv3.0.0.0/conv/Conv + PWN(PWN(/model.23/cv3.0/cv3.0.0/cv3.0.0.0/act/Sigmoid), /model.23/cv3.0/cv3.0.0/cv3.0.0.0/act/Mul)",
  "LayerType": "CaskConvolution",
  "Inputs": [
  {
    "Name": "/model.16/cv2/act/Mul_output_0",
    "Location": "Device",
    "Dimensions": [1,128,80,80],
    "Format/Datatype": "Thirty-two wide channel vectorized row major Int8 format"
  }],
  "Outputs": [
  {
    "Name": "/model.23/cv3.0/cv3.0.0/cv3.0.0.0/act/Mul_output_0",
    "Location": "Device",
    "Dimensions": [1,128,80,80],
    "Format/Datatype": "Thirty-two wide channel vectorized row major Int8 format"
  }],
  "ParameterType": "Convolution",
  "Kernel": [3,3],
  "PaddingMode": "kEXPLICIT_ROUND_DOWN",
  "PrePadding": [1,1],
  "PostPadding": [1,1],
  "Stride": [1,1],
  "Dilation": [1,1],
  "OutMaps": 128,
  "Groups": 128,
  "Weights": {"Type": "Int8", "Count": 1152},
  "Bias": {"Type": "Float", "Count": 128},
  "HasSparseWeights": 0,
  "HasDynamicFilter": 0,
  "HasDynamicBias": 0,
  "HasResidual": 0,
  "ConvXAsActInputIdx": -1,
  "BiasAsActInputIdx": -1,
  "ResAsActInputIdx": -1,
  "Activation": "SWISH",
  "HasBias": 1,
  "HasReLU": 0,
  "TacticName": "sm72_xmma_convolution_depthwiseSdcrr_INT8NCxHW32_R3_S3_U1_V1_InnerLoop4_swish_CtaSize128_ThrdOuterLoop1_CVecSplit8",
  "TacticValue": "0xff82460c4855b90c",
  "StreamId": 0,
  "Metadata": "[ONNX Layer: /model.23/cv3.0/cv3.0.0/cv3.0.0.0/conv/Conv]\u001e[ONNX Layer: /model.23/cv3.0/cv3.0.0/cv3.0.0.0/act/Sigmoid]\u001e[ONNX Layer: /model.23/cv3.0/cv3.0.0/cv3.0.0.0/act/Mul]"
},{
  "Name": "/model.23/cv3.0/cv3.0.0/cv3.0.0.1/conv/Conv + PWN(PWN(/model.23/cv3.0/cv3.0.0/cv3.0.0.1/act/Sigmoid), /model.23/cv3.0/cv3.0.0/cv3.0.0.1/act/Mul)",
  "LayerType": "CaskConvolution",
  "Inputs": [
  {
    "Name": "/model.23/cv3.0/cv3.0.0/cv3.0.0.0/act/Mul_output_0",
    "Location": "Device",
    "Dimensions": [1,128,80,80],
    "Format/Datatype": "Thirty-two wide channel vectorized row major Int8 format"
  }],
  "Outputs": [
  {
    "Name": "/model.23/cv3.0/cv3.0.0/cv3.0.0.1/act/Mul_output_0",
    "Location": "Device",
    "Dimensions": [1,128,80,80],
    "Format/Datatype": "Thirty-two wide channel vectorized row major Int8 format"
  }],
  "ParameterType": "Convolution",
  "Kernel": [1,1],
  "PaddingMode": "kEXPLICIT_ROUND_DOWN",
  "PrePadding": [0,0],
  "PostPadding": [0,0],
  "Stride": [1,1],
  "Dilation": [1,1],
  "OutMaps": 128,
  "Groups": 1,
  "Weights": {"Type": "Int8", "Count": 16384},
  "Bias": {"Type": "Float", "Count": 128},
  "HasSparseWeights": 0,
  "HasDynamicFilter": 0,
  "HasDynamicBias": 0,
  "HasResidual": 0,
  "ConvXAsActInputIdx": -1,
  "BiasAsActInputIdx": -1,
  "ResAsActInputIdx": -1,
  "Activation": "SWISH",
  "HasBias": 1,
  "HasReLU": 0,
  "TacticName": "sm80_xmma_fprop_implicit_gemm_interleaved_i8i8_i8i32_f32_nchw_vect_c_32kcrs_vect_c_32_nchw_vect_c_32_tilesize256x64x64_stage4_warpsize4x1x1_g1_tensor16x8x32_simple_t1r1s1_swish",
  "TacticValue": "0xc1a4243b1f1cfe6d",
  "StreamId": 0,
  "Metadata": "[ONNX Layer: /model.23/cv3.0/cv3.0.0/cv3.0.0.1/conv/Conv]\u001e[ONNX Layer: /model.23/cv3.0/cv3.0.0/cv3.0.0.1/act/Sigmoid]\u001e[ONNX Layer: /model.23/cv3.0/cv3.0.0/cv3.0.0.1/act/Mul]"
},{
  "Name": "/model.23/cv3.0/cv3.0.1/cv3.0.1.0/conv/Conv + PWN(PWN(/model.23/cv3.0/cv3.0.1/cv3.0.1.0/act/Sigmoid), /model.23/cv3.0/cv3.0.1/cv3.0.1.0/act/Mul)",
  "LayerType": "CaskConvolution",
  "Inputs": [
  {
    "Name": "/model.23/cv3.0/cv3.0.0/cv3.0.0.1/act/Mul_output_0",
    "Location": "Device",
    "Dimensions": [1,128,80,80],
    "Format/Datatype": "Thirty-two wide channel vectorized row major Int8 format"
  }],
  "Outputs": [
  {
    "Name": "/model.23/cv3.0/cv3.0.1/cv3.0.1.0/act/Mul_output_0",
    "Location": "Device",
    "Dimensions": [1,128,80,80],
    "Format/Datatype": "Thirty-two wide channel vectorized row major Int8 format"
  }],
  "ParameterType": "Convolution",
  "Kernel": [3,3],
  "PaddingMode": "kEXPLICIT_ROUND_DOWN",
  "PrePadding": [1,1],
  "PostPadding": [1,1],
  "Stride": [1,1],
  "Dilation": [1,1],
  "OutMaps": 128,
  "Groups": 128,
  "Weights": {"Type": "Int8", "Count": 1152},
  "Bias": {"Type": "Float", "Count": 128},
  "HasSparseWeights": 0,
  "HasDynamicFilter": 0,
  "HasDynamicBias": 0,
  "HasResidual": 0,
  "ConvXAsActInputIdx": -1,
  "BiasAsActInputIdx": -1,
  "ResAsActInputIdx": -1,
  "Activation": "SWISH",
  "HasBias": 1,
  "HasReLU": 0,
  "TacticName": "sm72_xmma_convolution_depthwiseSdcrr_INT8NCxHW32_R3_S3_U1_V1_InnerLoop4_swish_CtaSize128_ThrdOuterLoop1_CVecSplit8",
  "TacticValue": "0xff82460c4855b90c",
  "StreamId": 0,
  "Metadata": "[ONNX Layer: /model.23/cv3.0/cv3.0.1/cv3.0.1.0/conv/Conv]\u001e[ONNX Layer: /model.23/cv3.0/cv3.0.1/cv3.0.1.0/act/Sigmoid]\u001e[ONNX Layer: /model.23/cv3.0/cv3.0.1/cv3.0.1.0/act/Mul]"
},{
  "Name": "/model.23/cv3.0/cv3.0.1/cv3.0.1.1/conv/Conv + PWN(PWN(/model.23/cv3.0/cv3.0.1/cv3.0.1.1/act/Sigmoid), /model.23/cv3.0/cv3.0.1/cv3.0.1.1/act/Mul)",
  "LayerType": "CaskConvolution",
  "Inputs": [
  {
    "Name": "/model.23/cv3.0/cv3.0.1/cv3.0.1.0/act/Mul_output_0",
    "Location": "Device",
    "Dimensions": [1,128,80,80],
    "Format/Datatype": "Thirty-two wide channel vectorized row major Int8 format"
  }],
  "Outputs": [
  {
    "Name": "/model.23/cv3.0/cv3.0.1/cv3.0.1.1/act/Mul_output_0",
    "Location": "Device",
    "Dimensions": [1,128,80,80],
    "Format/Datatype": "Thirty-two wide channel vectorized row major Int8 format"
  }],
  "ParameterType": "Convolution",
  "Kernel": [1,1],
  "PaddingMode": "kEXPLICIT_ROUND_DOWN",
  "PrePadding": [0,0],
  "PostPadding": [0,0],
  "Stride": [1,1],
  "Dilation": [1,1],
  "OutMaps": 128,
  "Groups": 1,
  "Weights": {"Type": "Int8", "Count": 16384},
  "Bias": {"Type": "Float", "Count": 128},
  "HasSparseWeights": 0,
  "HasDynamicFilter": 0,
  "HasDynamicBias": 0,
  "HasResidual": 0,
  "ConvXAsActInputIdx": -1,
  "BiasAsActInputIdx": -1,
  "ResAsActInputIdx": -1,
  "Activation": "SWISH",
  "HasBias": 1,
  "HasReLU": 0,
  "TacticName": "sm80_xmma_fprop_implicit_gemm_interleaved_i8i8_i8i32_f32_nchw_vect_c_32kcrs_vect_c_32_nchw_vect_c_32_tilesize256x64x64_stage4_warpsize4x1x1_g1_tensor16x8x32_simple_t1r1s1_swish",
  "TacticValue": "0xc1a4243b1f1cfe6d",
  "StreamId": 0,
  "Metadata": "[ONNX Layer: /model.23/cv3.0/cv3.0.1/cv3.0.1.1/conv/Conv]\u001e[ONNX Layer: /model.23/cv3.0/cv3.0.1/cv3.0.1.1/act/Sigmoid]\u001e[ONNX Layer: /model.23/cv3.0/cv3.0.1/cv3.0.1.1/act/Mul]"
},{
  "Name": "/model.23/cv3.0/cv3.0.2/Conv",
  "LayerType": "CaskConvolution",
  "Inputs": [
  {
    "Name": "/model.23/cv3.0/cv3.0.1/cv3.0.1.1/act/Mul_output_0",
    "Location": "Device",
    "Dimensions": [1,128,80,80],
    "Format/Datatype": "Thirty-two wide channel vectorized row major Int8 format"
  }],
  "Outputs": [
  {
    "Name": "/model.23/Concat_output_0",
    "Location": "Device",
    "Dimensions": [1,80,80,80],
    "Format/Datatype": "Row major linear FP32"
  }],
  "ParameterType": "Convolution",
  "Kernel": [1,1],
  "PaddingMode": "kEXPLICIT_ROUND_DOWN",
  "PrePadding": [0,0],
  "PostPadding": [0,0],
  "Stride": [1,1],
  "Dilation": [1,1],
  "OutMaps": 80,
  "Groups": 1,
  "Weights": {"Type": "Int8", "Count": 10240},
  "Bias": {"Type": "Float", "Count": 80},
  "HasSparseWeights": 0,
  "HasDynamicFilter": 0,
  "HasDynamicBias": 0,
  "HasResidual": 0,
  "ConvXAsActInputIdx": -1,
  "BiasAsActInputIdx": -1,
  "ResAsActInputIdx": -1,
  "Activation": "NONE",
  "HasBias": 1,
  "HasReLU": 0,
  "TacticName": "sm80_xmma_fprop_implicit_gemm_interleaved_i8f32_i8i32_f32_nchw_vect_c_32kcrs_vect_c_32_nchw_tilesize128x32x64_stage4_warpsize4x1x1_g1_tensor16x8x32_t1r1s1_alignc4",
  "TacticValue": "0x733ba2a91a48d431",
  "StreamId": 0,
  "Metadata": "[ONNX Layer: /model.23/cv3.0/cv3.0.2/Conv]"
},{
  "Name": "/model.23/Reshape",
  "LayerType": "NoOp",
  "Inputs": [
  {
    "Name": "/model.23/Concat_output_0",
    "Location": "Device",
    "Dimensions": [1,144,80,80],
    "Format/Datatype": "Row major linear FP32"
  }],
  "Outputs": [
  {
    "Name": "/model.23/Reshape_copy_output",
    "Location": "Device",
    "Dimensions": [1,144,6400],
    "Format/Datatype": "Row major linear FP32"
  }],
  "TacticValue": "0x0000000000000000",
  "StreamId": 0,
  "Metadata": "[ONNX Layer: /model.23/Reshape]"
},{
  "Name": "/model.23/Reshape_copy_output",
  "LayerType": "Reformat",
  "Inputs": [
  {
    "Name": "/model.23/Reshape_copy_output",
    "Location": "Device",
    "Dimensions": [1,144,6400],
    "Format/Datatype": "Row major linear FP32"
  }],
  "Outputs": [
  {
    "Name": "/model.23/Concat_3_output_0",
    "Location": "Device",
    "Dimensions": [1,144,6400],
    "Format/Datatype": "Row major linear FP32"
  }],
  "ParameterType": "Reformat",
  "Origin": "CONCAT",
  "TacticValue": "0x00000000000003ea",
  "StreamId": 0,
  "Metadata": "[ONNX Layer: /model.23/Reshape]"
},{
  "Name": "Reformatting CopyNode for Input Tensor 0 to /model.23/dfl/Reshape + /model.23/dfl/Transpose",
  "LayerType": "Reformat",
  "Inputs": [
  {
    "Name": "/model.23/Concat_3_output_0",
    "Location": "Device",
    "Dimensions": [1,64,8400],
    "Format/Datatype": "Row major linear FP32"
  }],
  "Outputs": [
  {
    "Name": "Reformatted Input Tensor 0 to /model.23/dfl/Reshape + /model.23/dfl/Transpose",
    "Location": "Device",
    "Dimensions": [1,64,8400],
    "Format/Datatype": "Row major linear FP32"
  }],
  "ParameterType": "Reformat",
  "Origin": "REFORMAT",
  "TacticValue": "0x0000000000000000",
  "StreamId": 0,
  "Metadata": ""
},{
  "Name": "/model.23/dfl/Reshape + /model.23/dfl/Transpose",
  "LayerType": "Shuffle",
  "Inputs": [
  {
    "Name": "Reformatted Input Tensor 0 to /model.23/dfl/Reshape + /model.23/dfl/Transpose",
    "Location": "Device",
    "Dimensions": [1,64,8400],
    "Format/Datatype": "Row major linear FP32"
  }],
  "Outputs": [
  {
    "Name": "/model.23/dfl/Transpose_output_0",
    "Location": "Device",
    "Dimensions": [1,16,4,8400],
    "Format/Datatype": "Row major linear FP32"
  }],
  "ParameterType": "Shuffle",
  "FirstTranspose": [0,1,2],
  "Reshape": [1,4,16,8400],
  "SecondTranspose": [0,2,1,3],
  "ZeroIsPlaceholder": 1,
  "TacticValue": "0x0000000000000000",
  "StreamId": 0,
  "Metadata": "[ONNX Layer: /model.23/dfl/Reshape]\u001e[ONNX Layer: /model.23/dfl/Transpose]"
},{
  "Name": "/model.23/dfl/Softmax",
  "LayerType": "CaskSoftMaxV2",
  "Inputs": [
  {
    "Name": "/model.23/dfl/Transpose_output_0",
    "Location": "Device",
    "Dimensions": [1,16,4,8400],
    "Format/Datatype": "Row major linear FP32"
  }],
  "Outputs": [
  {
    "Name": "(Unnamed Layer* 322) [Softmax]_output",
    "Location": "Device",
    "Dimensions": [1,16,4,8400],
    "Format/Datatype": "Row major linear FP32"
  }],
  "ParameterType": "SoftMax",
  "Axes": 2,
  "HasLog": 0,
  "TacticValue": "0x48c115a824ac468d",
  "StreamId": 0,
  "Metadata": "[ONNX Layer: /model.23/dfl/Softmax]"
},{
  "Name": "/model.23/dfl/conv/Conv",
  "LayerType": "CaskConvolution",
  "Inputs": [
  {
    "Name": "(Unnamed Layer* 322) [Softmax]_output",
    "Location": "Device",
    "Dimensions": [1,16,4,8400],
    "Format/Datatype": "Row major linear FP32"
  }],
  "Outputs": [
  {
    "Name": "/model.23/dfl/conv/Conv_output_0",
    "Location": "Device",
    "Dimensions": [1,1,4,8400],
    "Format/Datatype": "Row major linear FP32"
  }],
  "ParameterType": "Convolution",
  "Kernel": [1,1],
  "PaddingMode": "kEXPLICIT_ROUND_DOWN",
  "PrePadding": [0,0],
  "PostPadding": [0,0],
  "Stride": [1,1],
  "Dilation": [1,1],
  "OutMaps": 1,
  "Groups": 1,
  "Weights": {"Type": "Float", "Count": 16},
  "Bias": {"Type": "Float", "Count": 0},
  "HasSparseWeights": 0,
  "HasDynamicFilter": 0,
  "HasDynamicBias": 0,
  "HasResidual": 0,
  "ConvXAsActInputIdx": -1,
  "BiasAsActInputIdx": -1,
  "ResAsActInputIdx": -1,
  "Activation": "NONE",
  "HasBias": 0,
  "HasReLU": 0,
  "TacticName": "sm80_xmma_fprop_implicit_gemm_f32f32_f32f32_f32_nchwkcrs_nchw_tilesize128x16x8_stage3_warpsize4x1x1_g1_ffma_aligna4_alignc4",
  "TacticValue": "0x9d9fdb5fd9945f64",
  "StreamId": 0,
  "Metadata": "[ONNX Layer: /model.23/dfl/conv/Conv]"
},{
  "Name": "/model.23/dfl/Reshape_1",
  "LayerType": "NoOp",
  "Inputs": [
  {
    "Name": "/model.23/dfl/conv/Conv_output_0",
    "Location": "Device",
    "Dimensions": [1,1,4,8400],
    "Format/Datatype": "Row major linear FP32"
  }],
  "Outputs": [
  {
    "Name": "/model.23/dfl/Reshape_1_output_0",
    "Location": "Device",
    "Dimensions": [1,4,8400],
    "Format/Datatype": "Row major linear FP32"
  }],
  "TacticValue": "0x0000000000000000",
  "StreamId": 0,
  "Metadata": "[ONNX Layer: /model.23/dfl/Reshape_1]"
},{
  "Name": "/model.23/Sub",
  "LayerType": "ElementWise",
  "Inputs": [
  {
    "Name": "(Unnamed Layer* 328) [Constant]_output",
    "Location": "Device",
    "Dimensions": [1,2,8400],
    "Format/Datatype": "Row major linear FP32"
  },
  {
    "Name": "/model.23/dfl/Reshape_1_output_0",
    "Location": "Device",
    "Dimensions": [1,2,8400],
    "Format/Datatype": "Row major linear FP32"
  }],
  "Outputs": [
  {
    "Name": "/model.23/Sub_output_0",
    "Location": "Device",
    "Dimensions": [1,2,8400],
    "Format/Datatype": "Row major linear FP32"
  }],
  "ParameterType": "ElementWise",
  "ElementWiseOperation": "SUB",
  "Activation": "NONE",
  "TacticValue": "0x0000000000000001",
  "StreamId": 0,
  "Metadata": "[ONNX Layer: /model.23/Sub]"
},{
  "Name": "PWN(/model.23/Add_1)",
  "LayerType": "PointWiseV2",
  "Inputs": [
  {
    "Name": "(Unnamed Layer* 330) [Constant]_output",
    "Location": "Device",
    "Dimensions": [1,2,8400],
    "Format/Datatype": "Row major linear FP32"
  },
  {
    "Name": "/model.23/dfl/Reshape_1_output_0",
    "Location": "Device",
    "Dimensions": [1,2,8400],
    "Format/Datatype": "Row major linear FP32"
  }],
  "Outputs": [
  {
    "Name": "/model.23/Add_1_output_0",
    "Location": "Device",
    "Dimensions": [1,2,8400],
    "Format/Datatype": "Row major linear FP32"
  }],
  "ParameterType": "PointWise",
  "ParameterSubType": "PointWiseExpression",
  "NbInputArgs": 2,
  "InputArgs": ["arg0", "arg1"],
  "NbOutputVars": 1,
  "OutputVars": ["var0"],
  "NbParams": 0,
  "Params": [],
  "NbLiterals": 0,
  "Literals": [],
  "NbOperations": 1,
  "Operations": ["auto const var0 = pwgen::iPlus(arg0, arg1);"],
  "TacticValue": "0x000000000000001c",
  "StreamId": 0,
  "Metadata": "[ONNX Layer: /model.23/Add_1]"
},{
  "Name": "/model.23/Sub_1",
  "LayerType": "ElementWise",
  "Inputs": [
  {
    "Name": "/model.23/Add_1_output_0",
    "Location": "Device",
    "Dimensions": [1,2,8400],
    "Format/Datatype": "Row major linear FP32"
  },
  {
    "Name": "/model.23/Sub_output_0",
    "Location": "Device",
    "Dimensions": [1,2,8400],
    "Format/Datatype": "Row major linear FP32"
  }],
  "Outputs": [
  {
    "Name": "/model.23/Concat_4_output_0",
    "Location": "Device",
    "Dimensions": [1,2,8400],
    "Format/Datatype": "Row major linear FP32"
  }],
  "ParameterType": "ElementWise",
  "ElementWiseOperation": "SUB",
  "Activation": "NONE",
  "TacticValue": "0x0000000000000001",
  "StreamId": 0,
  "Metadata": "[ONNX Layer: /model.23/Sub_1]"
},{
  "Name": "PWN(/model.23/Constant_11_output_0 + (Unnamed Layer* 335) [Shuffle], PWN(/model.23/Add_2, /model.23/Div_1))",
  "LayerType": "PointWiseV2",
  "Inputs": [
  {
    "Name": "/model.23/Sub_output_0",
    "Location": "Device",
    "Dimensions": [1,2,8400],
    "Format/Datatype": "Row major linear FP32"
  },
  {
    "Name": "/model.23/Add_1_output_0",
    "Location": "Device",
    "Dimensions": [1,2,8400],
    "Format/Datatype": "Row major linear FP32"
  }],
  "Outputs": [
  {
    "Name": "/model.23/Div_1_output_0",
    "Location": "Device",
    "Dimensions": [1,2,8400],
    "Format/Datatype": "Row major linear FP32"
  }],
  "ParameterType": "PointWise",
  "ParameterSubType": "PointWiseExpression",
  "NbInputArgs": 2,
  "InputArgs": ["arg0", "arg1"],
  "NbOutputVars": 1,
  "OutputVars": ["var1"],
  "NbParams": 0,
  "Params": [],
  "NbLiterals": 1,
  "Literals": ["2.000000e+00f"],
  "NbOperations": 2,
  "Operations": ["auto const var0 = pwgen::iPlus(arg0, arg1);", "auto const var1 = pwgen::iDiv(var0, literal0);"],
  "TacticValue": "0x0000000000000002",
  "StreamId": 0,
  "Metadata": "[ONNX Layer: /model.23/Add_2]\u001e[ONNX Layer: /model.23/Div_1]"
},{
  "Name": "/model.23/Div_1_output_0 copy",
  "LayerType": "Reformat",
  "Inputs": [
  {
    "Name": "/model.23/Div_1_output_0",
    "Location": "Device",
    "Dimensions": [1,2,8400],
    "Format/Datatype": "Row major linear FP32"
  }],
  "Outputs": [
  {
    "Name": "/model.23/Concat_4_output_0",
    "Location": "Device",
    "Dimensions": [1,2,8400],
    "Format/Datatype": "Row major linear FP32"
  }],
  "ParameterType": "Reformat",
  "Origin": "CONCAT",
  "TacticValue": "0x0000000000000000",
  "StreamId": 0,
  "Metadata": "[ONNX Layer: /model.23/Concat_4]"
},{
  "Name": "/model.23/Mul_2",
  "LayerType": "ElementWise",
  "Inputs": [
  {
    "Name": "/model.23/Concat_4_output_0",
    "Location": "Device",
    "Dimensions": [1,4,8400],
    "Format/Datatype": "Row major linear FP32"
  },
  {
    "Name": "(Unnamed Layer* 339) [Shuffle]_output",
    "Location": "Device",
    "Dimensions": [1,1,8400],
    "Format/Datatype": "Row major linear FP32"
  }],
  "Outputs": [
  {
    "Name": "Reformatted Output Tensor 0 to /model.23/Mul_2",
    "Location": "Device",
    "Dimensions": [1,4,8400],
    "Format/Datatype": "Row major linear FP32"
  }],
  "ParameterType": "ElementWise",
  "ElementWiseOperation": "PROD",
  "Activation": "NONE",
  "TacticValue": "0x0000000000000001",
  "StreamId": 0,
  "Metadata": "[ONNX Layer: /model.23/Mul_2]"
},{
  "Name": "Reformatting CopyNode for Output Tensor 0 to /model.23/Mul_2",
  "LayerType": "Reformat",
  "Inputs": [
  {
    "Name": "Reformatted Output Tensor 0 to /model.23/Mul_2",
    "Location": "Device",
    "Dimensions": [1,4,8400],
    "Format/Datatype": "Row major linear FP32"
  }],
  "Outputs": [
  {
    "Name": "/model.23/Concat_5_output_0",
    "Location": "Device",
    "Dimensions": [1,4,8400],
    "Format/Datatype": "Row major linear FP32"
  }],
  "ParameterType": "Reformat",
  "Origin": "REFORMAT",
  "TacticValue": "0x00000000000003e8",
  "StreamId": 0,
  "Metadata": ""
},{
  "Name": "Reformatting CopyNode for Input Tensor 0 to PWN(/model.23/Sigmoid)",
  "LayerType": "Reformat",
  "Inputs": [
  {
    "Name": "/model.23/Concat_3_output_0",
    "Location": "Device",
    "Dimensions": [1,80,8400],
    "Format/Datatype": "Row major linear FP32"
  }],
  "Outputs": [
  {
    "Name": "Reformatted Input Tensor 0 to PWN(/model.23/Sigmoid)",
    "Location": "Device",
    "Dimensions": [1,80,8400],
    "Format/Datatype": "Row major linear FP32"
  }],
  "ParameterType": "Reformat",
  "Origin": "REFORMAT",
  "TacticValue": "0x00000000000003ea",
  "StreamId": 0,
  "Metadata": ""
},{
  "Name": "PWN(/model.23/Sigmoid)",
  "LayerType": "PointWiseV2",
  "Inputs": [
  {
    "Name": "Reformatted Input Tensor 0 to PWN(/model.23/Sigmoid)",
    "Location": "Device",
    "Dimensions": [1,80,8400],
    "Format/Datatype": "Row major linear FP32"
  }],
  "Outputs": [
  {
    "Name": "/model.23/Concat_5_output_0",
    "Location": "Device",
    "Dimensions": [1,80,8400],
    "Format/Datatype": "Row major linear FP32"
  }],
  "ParameterType": "PointWise",
  "ParameterSubType": "PointWiseExpression",
  "NbInputArgs": 1,
  "InputArgs": ["arg0"],
  "NbOutputVars": 1,
  "OutputVars": ["var3"],
  "NbParams": 0,
  "Params": [],
  "NbLiterals": 5,
  "Literals": ["0.000000e+00f", "1.000000e+00f", "0.000000e+00f", "0.000000e+00f", "5.000000e-01f"],
  "NbOperations": 4,
  "Operations": ["auto const var0 = pwgen::iMul(literal4, arg0);", "auto const var1 = pwgen::iTanh(var0);", "auto const var2 = pwgen::iMul(var1, literal4);", "auto const var3 = pwgen::iPlus(var2, literal4);"],
  "TacticValue": "0x0000000000000009",
  "StreamId": 0,
  "Metadata": "[ONNX Layer: /model.23/Sigmoid]"
},{
  "Name": "Reformatting CopyNode for Input Tensor 0 to /model.23/Transpose",
  "LayerType": "NoOp",
  "Inputs": [
  {
    "Name": "/model.23/Concat_5_output_0",
    "Location": "Device",
    "Dimensions": [1,84,8400],
    "Format/Datatype": "Row major linear FP32"
  }],
  "Outputs": [
  {
    "Name": "Reformatted Input Tensor 0 to /model.23/Transpose",
    "Location": "Device",
    "Dimensions": [1,84,8400],
    "Format/Datatype": "Row major linear FP32"
  }],
  "TacticValue": "0x0000000000000000",
  "StreamId": 0,
  "Metadata": ""
},{
  "Name": "/model.23/Transpose",
  "LayerType": "Shuffle",
  "Inputs": [
  {
    "Name": "Reformatted Input Tensor 0 to /model.23/Transpose",
    "Location": "Device",
    "Dimensions": [1,84,8400],
    "Format/Datatype": "Row major linear FP32"
  }],
  "Outputs": [
  {
    "Name": "Reformatted Output Tensor 0 to /model.23/Transpose",
    "Location": "Device",
    "Dimensions": [1,8400,84],
    "Format/Datatype": "Row major linear FP32"
  }],
  "ParameterType": "Shuffle",
  "FirstTranspose": [0,2,1],
  "Reshape": "nbDims=-1",
  "SecondTranspose": [0,1,2],
  "ZeroIsPlaceholder": 1,
  "TacticValue": "0x0000000000000001",
  "StreamId": 0,
  "Metadata": "[ONNX Layer: /model.23/Transpose]"
},{
  "Name": "Reformatting CopyNode for Output Tensor 0 to /model.23/Transpose",
  "LayerType": "NoOp",
  "Inputs": [
  {
    "Name": "Reformatted Output Tensor 0 to /model.23/Transpose",
    "Location": "Device",
    "Dimensions": [1,8400,84],
    "Format/Datatype": "Row major linear FP32"
  }],
  "Outputs": [
  {
    "Name": "output0",
    "Location": "Device",
    "Dimensions": [1,8400,84],
    "Format/Datatype": "Row major linear FP32"
  }],
  "TacticValue": "0x0000000000000000",
  "StreamId": 0,
  "Metadata": ""
}],
"Bindings": ["images"
,"output0"
]}
